{
   "config": [
      {
         "class_name": "Conv2D",
         "config": {
            "kernel_size": [
               3,
               3
            ],
            "strides": [
               1,
               1
            ],
            "dtype": "float32",
            "bias_regularizer": null,
            "kernel_initializer": {
               "class_name": "VarianceScaling",
               "config": {
                  "distribution": "uniform",
                  "mode": "fan_avg",
                  "scale": 1.0,
                  "seed": null
               }
            },
            "bias_initializer": {
               "class_name": "Zeros",
               "config": {}
            },
            "batch_input_shape": [
               null,
               3,
               224,
               224
            ],
            "filters": 48,
            "padding": "same",
            "kernel_constraint": null,
            "activation": "linear",
            "name": "conv2d_1",
            "kernel_regularizer": null,
            "dilation_rate": [
               1,
               1
            ],
            "data_format": "channels_first",
            "trainable": true,
            "bias_constraint": null,
            "activity_regularizer": null,
            "use_bias": true
         }
      },
      {
         "class_name": "BatchNormalization",
         "config": {
            "beta_regularizer": null,
            "beta_constraint": null,
            "moving_variance_initializer": {
               "class_name": "Ones",
               "config": {}
            },
            "gamma_constraint": null,
            "moving_mean_initializer": {
               "class_name": "Zeros",
               "config": {}
            },
            "epsilon": 0.001,
            "beta_initializer": {
               "class_name": "Zeros",
               "config": {}
            },
            "gamma_regularizer": null,
            "name": "batch_normalization_1",
            "gamma_initializer": {
               "class_name": "Ones",
               "config": {}
            },
            "scale": true,
            "trainable": true,
            "momentum": 0.99,
            "center": true,
            "axis": -1
         }
      },
      {
         "class_name": "Activation",
         "config": {
            "activation": "relu",
            "name": "activation_1",
            "trainable": true
         }
      },
      {
         "class_name": "Conv2D",
         "config": {
            "kernel_size": [
               3,
               3
            ],
            "strides": [
               1,
               1
            ],
            "bias_regularizer": null,
            "kernel_initializer": {
               "class_name": "VarianceScaling",
               "config": {
                  "distribution": "uniform",
                  "mode": "fan_avg",
                  "scale": 1.0,
                  "seed": null
               }
            },
            "bias_initializer": {
               "class_name": "Zeros",
               "config": {}
            },
            "filters": 112,
            "padding": "same",
            "kernel_constraint": null,
            "activation": "linear",
            "name": "conv2d_2",
            "kernel_regularizer": null,
            "dilation_rate": [
               1,
               1
            ],
            "data_format": "channels_first",
            "trainable": true,
            "bias_constraint": null,
            "activity_regularizer": null,
            "use_bias": true
         }
      },
      {
         "class_name": "Dropout",
         "config": {
            "name": "dropout_1",
            "trainable": true,
            "rate": 0.2
         }
      },
      {
         "class_name": "BatchNormalization",
         "config": {
            "beta_regularizer": null,
            "beta_constraint": null,
            "moving_variance_initializer": {
               "class_name": "Ones",
               "config": {}
            },
            "gamma_constraint": null,
            "moving_mean_initializer": {
               "class_name": "Zeros",
               "config": {}
            },
            "epsilon": 0.001,
            "beta_initializer": {
               "class_name": "Zeros",
               "config": {}
            },
            "gamma_regularizer": null,
            "name": "batch_normalization_2",
            "gamma_initializer": {
               "class_name": "Ones",
               "config": {}
            },
            "scale": true,
            "trainable": true,
            "momentum": 0.99,
            "center": true,
            "axis": -1
         }
      },
      {
         "class_name": "Activation",
         "config": {
            "activation": "relu",
            "name": "activation_2",
            "trainable": true
         }
      },
      {
         "class_name": "Conv2D",
         "config": {
            "kernel_size": [
               3,
               3
            ],
            "strides": [
               1,
               1
            ],
            "bias_regularizer": null,
            "kernel_initializer": {
               "class_name": "VarianceScaling",
               "config": {
                  "distribution": "uniform",
                  "mode": "fan_avg",
                  "scale": 1.0,
                  "seed": null
               }
            },
            "bias_initializer": {
               "class_name": "Zeros",
               "config": {}
            },
            "filters": 112,
            "padding": "same",
            "kernel_constraint": null,
            "activation": "linear",
            "name": "conv2d_3",
            "kernel_regularizer": null,
            "dilation_rate": [
               1,
               1
            ],
            "data_format": "channels_first",
            "trainable": true,
            "bias_constraint": null,
            "activity_regularizer": null,
            "use_bias": true
         }
      },
      {
         "class_name": "Dropout",
         "config": {
            "name": "dropout_2",
            "trainable": true,
            "rate": 0.2
         }
      },
      {
         "class_name": "BatchNormalization",
         "config": {
            "beta_regularizer": null,
            "beta_constraint": null,
            "moving_variance_initializer": {
               "class_name": "Ones",
               "config": {}
            },
            "gamma_constraint": null,
            "moving_mean_initializer": {
               "class_name": "Zeros",
               "config": {}
            },
            "epsilon": 0.001,
            "beta_initializer": {
               "class_name": "Zeros",
               "config": {}
            },
            "gamma_regularizer": null,
            "name": "batch_normalization_3",
            "gamma_initializer": {
               "class_name": "Ones",
               "config": {}
            },
            "scale": true,
            "trainable": true,
            "momentum": 0.99,
            "center": true,
            "axis": -1
         }
      },
      {
         "class_name": "Activation",
         "config": {
            "activation": "relu",
            "name": "activation_3",
            "trainable": true
         }
      },
      {
         "class_name": "Conv2D",
         "config": {
            "kernel_size": [
               3,
               3
            ],
            "strides": [
               1,
               1
            ],
            "bias_regularizer": null,
            "kernel_initializer": {
               "class_name": "VarianceScaling",
               "config": {
                  "distribution": "uniform",
                  "mode": "fan_avg",
                  "scale": 1.0,
                  "seed": null
               }
            },
            "bias_initializer": {
               "class_name": "Zeros",
               "config": {}
            },
            "filters": 112,
            "padding": "same",
            "kernel_constraint": null,
            "activation": "linear",
            "name": "conv2d_4",
            "kernel_regularizer": null,
            "dilation_rate": [
               1,
               1
            ],
            "data_format": "channels_first",
            "trainable": true,
            "bias_constraint": null,
            "activity_regularizer": null,
            "use_bias": true
         }
      },
      {
         "class_name": "Dropout",
         "config": {
            "name": "dropout_3",
            "trainable": true,
            "rate": 0.2
         }
      },
      {
         "class_name": "BatchNormalization",
         "config": {
            "beta_regularizer": null,
            "beta_constraint": null,
            "moving_variance_initializer": {
               "class_name": "Ones",
               "config": {}
            },
            "gamma_constraint": null,
            "moving_mean_initializer": {
               "class_name": "Zeros",
               "config": {}
            },
            "epsilon": 0.001,
            "beta_initializer": {
               "class_name": "Zeros",
               "config": {}
            },
            "gamma_regularizer": null,
            "name": "batch_normalization_4",
            "gamma_initializer": {
               "class_name": "Ones",
               "config": {}
            },
            "scale": true,
            "trainable": true,
            "momentum": 0.99,
            "center": true,
            "axis": -1
         }
      },
      {
         "class_name": "Activation",
         "config": {
            "activation": "relu",
            "name": "activation_4",
            "trainable": true
         }
      },
      {
         "class_name": "Conv2D",
         "config": {
            "kernel_size": [
               3,
               3
            ],
            "strides": [
               1,
               1
            ],
            "bias_regularizer": null,
            "kernel_initializer": {
               "class_name": "VarianceScaling",
               "config": {
                  "distribution": "uniform",
                  "mode": "fan_avg",
                  "scale": 1.0,
                  "seed": null
               }
            },
            "bias_initializer": {
               "class_name": "Zeros",
               "config": {}
            },
            "filters": 112,
            "padding": "same",
            "kernel_constraint": null,
            "activation": "linear",
            "name": "conv2d_5",
            "kernel_regularizer": null,
            "dilation_rate": [
               1,
               1
            ],
            "data_format": "channels_first",
            "trainable": true,
            "bias_constraint": null,
            "activity_regularizer": null,
            "use_bias": true
         }
      },
      {
         "class_name": "Dropout",
         "config": {
            "name": "dropout_4",
            "trainable": true,
            "rate": 0.2
         }
      },
      {
         "class_name": "BatchNormalization",
         "config": {
            "beta_regularizer": null,
            "beta_constraint": null,
            "moving_variance_initializer": {
               "class_name": "Ones",
               "config": {}
            },
            "gamma_constraint": null,
            "moving_mean_initializer": {
               "class_name": "Zeros",
               "config": {}
            },
            "epsilon": 0.001,
            "beta_initializer": {
               "class_name": "Zeros",
               "config": {}
            },
            "gamma_regularizer": null,
            "name": "batch_normalization_5",
            "gamma_initializer": {
               "class_name": "Ones",
               "config": {}
            },
            "scale": true,
            "trainable": true,
            "momentum": 0.99,
            "center": true,
            "axis": -1
         }
      },
      {
         "class_name": "Activation",
         "config": {
            "activation": "relu",
            "name": "activation_5",
            "trainable": true
         }
      },
      {
         "class_name": "Conv2D",
         "config": {
            "kernel_size": [
               1,
               1
            ],
            "strides": [
               1,
               1
            ],
            "bias_regularizer": null,
            "kernel_initializer": {
               "class_name": "VarianceScaling",
               "config": {
                  "distribution": "uniform",
                  "mode": "fan_avg",
                  "scale": 1.0,
                  "seed": null
               }
            },
            "bias_initializer": {
               "class_name": "Zeros",
               "config": {}
            },
            "filters": 112,
            "padding": "same",
            "kernel_constraint": null,
            "activation": "linear",
            "name": "conv2d_6",
            "kernel_regularizer": null,
            "dilation_rate": [
               1,
               1
            ],
            "data_format": "channels_first",
            "trainable": true,
            "bias_constraint": null,
            "activity_regularizer": null,
            "use_bias": true
         }
      },
      {
         "class_name": "Dropout",
         "config": {
            "name": "dropout_5",
            "trainable": true,
            "rate": 0.2
         }
      },
      {
         "class_name": "MaxPooling2D",
         "config": {
            "pool_size": [
               2,
               2
            ],
            "name": "max_pooling2d_1",
            "strides": [
               2,
               2
            ],
            "data_format": "channels_first",
            "trainable": true,
            "padding": "valid"
         }
      },
      {
         "class_name": "BatchNormalization",
         "config": {
            "beta_regularizer": null,
            "beta_constraint": null,
            "moving_variance_initializer": {
               "class_name": "Ones",
               "config": {}
            },
            "gamma_constraint": null,
            "moving_mean_initializer": {
               "class_name": "Zeros",
               "config": {}
            },
            "epsilon": 0.001,
            "beta_initializer": {
               "class_name": "Zeros",
               "config": {}
            },
            "gamma_regularizer": null,
            "name": "batch_normalization_6",
            "gamma_initializer": {
               "class_name": "Ones",
               "config": {}
            },
            "scale": true,
            "trainable": true,
            "momentum": 0.99,
            "center": true,
            "axis": -1
         }
      },
      {
         "class_name": "Activation",
         "config": {
            "activation": "relu",
            "name": "activation_6",
            "trainable": true
         }
      },
      {
         "class_name": "Conv2D",
         "config": {
            "kernel_size": [
               3,
               3
            ],
            "strides": [
               1,
               1
            ],
            "bias_regularizer": null,
            "kernel_initializer": {
               "class_name": "VarianceScaling",
               "config": {
                  "distribution": "uniform",
                  "mode": "fan_avg",
                  "scale": 1.0,
                  "seed": null
               }
            },
            "bias_initializer": {
               "class_name": "Zeros",
               "config": {}
            },
            "filters": 192,
            "padding": "same",
            "kernel_constraint": null,
            "activation": "linear",
            "name": "conv2d_7",
            "kernel_regularizer": null,
            "dilation_rate": [
               1,
               1
            ],
            "data_format": "channels_first",
            "trainable": true,
            "bias_constraint": null,
            "activity_regularizer": null,
            "use_bias": true
         }
      },
      {
         "class_name": "Dropout",
         "config": {
            "name": "dropout_6",
            "trainable": true,
            "rate": 0.2
         }
      },
      {
         "class_name": "BatchNormalization",
         "config": {
            "beta_regularizer": null,
            "beta_constraint": null,
            "moving_variance_initializer": {
               "class_name": "Ones",
               "config": {}
            },
            "gamma_constraint": null,
            "moving_mean_initializer": {
               "class_name": "Zeros",
               "config": {}
            },
            "epsilon": 0.001,
            "beta_initializer": {
               "class_name": "Zeros",
               "config": {}
            },
            "gamma_regularizer": null,
            "name": "batch_normalization_7",
            "gamma_initializer": {
               "class_name": "Ones",
               "config": {}
            },
            "scale": true,
            "trainable": true,
            "momentum": 0.99,
            "center": true,
            "axis": -1
         }
      },
      {
         "class_name": "Activation",
         "config": {
            "activation": "relu",
            "name": "activation_7",
            "trainable": true
         }
      },
      {
         "class_name": "Conv2D",
         "config": {
            "kernel_size": [
               3,
               3
            ],
            "strides": [
               1,
               1
            ],
            "bias_regularizer": null,
            "kernel_initializer": {
               "class_name": "VarianceScaling",
               "config": {
                  "distribution": "uniform",
                  "mode": "fan_avg",
                  "scale": 1.0,
                  "seed": null
               }
            },
            "bias_initializer": {
               "class_name": "Zeros",
               "config": {}
            },
            "filters": 192,
            "padding": "same",
            "kernel_constraint": null,
            "activation": "linear",
            "name": "conv2d_8",
            "kernel_regularizer": null,
            "dilation_rate": [
               1,
               1
            ],
            "data_format": "channels_first",
            "trainable": true,
            "bias_constraint": null,
            "activity_regularizer": null,
            "use_bias": true
         }
      },
      {
         "class_name": "Dropout",
         "config": {
            "name": "dropout_7",
            "trainable": true,
            "rate": 0.2
         }
      },
      {
         "class_name": "BatchNormalization",
         "config": {
            "beta_regularizer": null,
            "beta_constraint": null,
            "moving_variance_initializer": {
               "class_name": "Ones",
               "config": {}
            },
            "gamma_constraint": null,
            "moving_mean_initializer": {
               "class_name": "Zeros",
               "config": {}
            },
            "epsilon": 0.001,
            "beta_initializer": {
               "class_name": "Zeros",
               "config": {}
            },
            "gamma_regularizer": null,
            "name": "batch_normalization_8",
            "gamma_initializer": {
               "class_name": "Ones",
               "config": {}
            },
            "scale": true,
            "trainable": true,
            "momentum": 0.99,
            "center": true,
            "axis": -1
         }
      },
      {
         "class_name": "Activation",
         "config": {
            "activation": "relu",
            "name": "activation_8",
            "trainable": true
         }
      },
      {
         "class_name": "Conv2D",
         "config": {
            "kernel_size": [
               3,
               3
            ],
            "strides": [
               1,
               1
            ],
            "bias_regularizer": null,
            "kernel_initializer": {
               "class_name": "VarianceScaling",
               "config": {
                  "distribution": "uniform",
                  "mode": "fan_avg",
                  "scale": 1.0,
                  "seed": null
               }
            },
            "bias_initializer": {
               "class_name": "Zeros",
               "config": {}
            },
            "filters": 192,
            "padding": "same",
            "kernel_constraint": null,
            "activation": "linear",
            "name": "conv2d_9",
            "kernel_regularizer": null,
            "dilation_rate": [
               1,
               1
            ],
            "data_format": "channels_first",
            "trainable": true,
            "bias_constraint": null,
            "activity_regularizer": null,
            "use_bias": true
         }
      },
      {
         "class_name": "Dropout",
         "config": {
            "name": "dropout_8",
            "trainable": true,
            "rate": 0.2
         }
      },
      {
         "class_name": "BatchNormalization",
         "config": {
            "beta_regularizer": null,
            "beta_constraint": null,
            "moving_variance_initializer": {
               "class_name": "Ones",
               "config": {}
            },
            "gamma_constraint": null,
            "moving_mean_initializer": {
               "class_name": "Zeros",
               "config": {}
            },
            "epsilon": 0.001,
            "beta_initializer": {
               "class_name": "Zeros",
               "config": {}
            },
            "gamma_regularizer": null,
            "name": "batch_normalization_9",
            "gamma_initializer": {
               "class_name": "Ones",
               "config": {}
            },
            "scale": true,
            "trainable": true,
            "momentum": 0.99,
            "center": true,
            "axis": -1
         }
      },
      {
         "class_name": "Activation",
         "config": {
            "activation": "relu",
            "name": "activation_9",
            "trainable": true
         }
      },
      {
         "class_name": "Conv2D",
         "config": {
            "kernel_size": [
               3,
               3
            ],
            "strides": [
               1,
               1
            ],
            "bias_regularizer": null,
            "kernel_initializer": {
               "class_name": "VarianceScaling",
               "config": {
                  "distribution": "uniform",
                  "mode": "fan_avg",
                  "scale": 1.0,
                  "seed": null
               }
            },
            "bias_initializer": {
               "class_name": "Zeros",
               "config": {}
            },
            "filters": 192,
            "padding": "same",
            "kernel_constraint": null,
            "activation": "linear",
            "name": "conv2d_10",
            "kernel_regularizer": null,
            "dilation_rate": [
               1,
               1
            ],
            "data_format": "channels_first",
            "trainable": true,
            "bias_constraint": null,
            "activity_regularizer": null,
            "use_bias": true
         }
      },
      {
         "class_name": "Dropout",
         "config": {
            "name": "dropout_9",
            "trainable": true,
            "rate": 0.2
         }
      },
      {
         "class_name": "BatchNormalization",
         "config": {
            "beta_regularizer": null,
            "beta_constraint": null,
            "moving_variance_initializer": {
               "class_name": "Ones",
               "config": {}
            },
            "gamma_constraint": null,
            "moving_mean_initializer": {
               "class_name": "Zeros",
               "config": {}
            },
            "epsilon": 0.001,
            "beta_initializer": {
               "class_name": "Zeros",
               "config": {}
            },
            "gamma_regularizer": null,
            "name": "batch_normalization_10",
            "gamma_initializer": {
               "class_name": "Ones",
               "config": {}
            },
            "scale": true,
            "trainable": true,
            "momentum": 0.99,
            "center": true,
            "axis": -1
         }
      },
      {
         "class_name": "Activation",
         "config": {
            "activation": "relu",
            "name": "activation_10",
            "trainable": true
         }
      },
      {
         "class_name": "Conv2D",
         "config": {
            "kernel_size": [
               3,
               3
            ],
            "strides": [
               1,
               1
            ],
            "bias_regularizer": null,
            "kernel_initializer": {
               "class_name": "VarianceScaling",
               "config": {
                  "distribution": "uniform",
                  "mode": "fan_avg",
                  "scale": 1.0,
                  "seed": null
               }
            },
            "bias_initializer": {
               "class_name": "Zeros",
               "config": {}
            },
            "filters": 192,
            "padding": "same",
            "kernel_constraint": null,
            "activation": "linear",
            "name": "conv2d_11",
            "kernel_regularizer": null,
            "dilation_rate": [
               1,
               1
            ],
            "data_format": "channels_first",
            "trainable": true,
            "bias_constraint": null,
            "activity_regularizer": null,
            "use_bias": true
         }
      },
      {
         "class_name": "Dropout",
         "config": {
            "name": "dropout_10",
            "trainable": true,
            "rate": 0.2
         }
      },
      {
         "class_name": "BatchNormalization",
         "config": {
            "beta_regularizer": null,
            "beta_constraint": null,
            "moving_variance_initializer": {
               "class_name": "Ones",
               "config": {}
            },
            "gamma_constraint": null,
            "moving_mean_initializer": {
               "class_name": "Zeros",
               "config": {}
            },
            "epsilon": 0.001,
            "beta_initializer": {
               "class_name": "Zeros",
               "config": {}
            },
            "gamma_regularizer": null,
            "name": "batch_normalization_11",
            "gamma_initializer": {
               "class_name": "Ones",
               "config": {}
            },
            "scale": true,
            "trainable": true,
            "momentum": 0.99,
            "center": true,
            "axis": -1
         }
      },
      {
         "class_name": "Activation",
         "config": {
            "activation": "relu",
            "name": "activation_11",
            "trainable": true
         }
      },
      {
         "class_name": "Conv2D",
         "config": {
            "kernel_size": [
               1,
               1
            ],
            "strides": [
               1,
               1
            ],
            "bias_regularizer": null,
            "kernel_initializer": {
               "class_name": "VarianceScaling",
               "config": {
                  "distribution": "uniform",
                  "mode": "fan_avg",
                  "scale": 1.0,
                  "seed": null
               }
            },
            "bias_initializer": {
               "class_name": "Zeros",
               "config": {}
            },
            "filters": 192,
            "padding": "same",
            "kernel_constraint": null,
            "activation": "linear",
            "name": "conv2d_12",
            "kernel_regularizer": null,
            "dilation_rate": [
               1,
               1
            ],
            "data_format": "channels_first",
            "trainable": true,
            "bias_constraint": null,
            "activity_regularizer": null,
            "use_bias": true
         }
      },
      {
         "class_name": "Dropout",
         "config": {
            "name": "dropout_11",
            "trainable": true,
            "rate": 0.2
         }
      },
      {
         "class_name": "MaxPooling2D",
         "config": {
            "pool_size": [
               2,
               2
            ],
            "name": "max_pooling2d_2",
            "strides": [
               2,
               2
            ],
            "data_format": "channels_first",
            "trainable": true,
            "padding": "valid"
         }
      },
      {
         "class_name": "BatchNormalization",
         "config": {
            "beta_regularizer": null,
            "beta_constraint": null,
            "moving_variance_initializer": {
               "class_name": "Ones",
               "config": {}
            },
            "gamma_constraint": null,
            "moving_mean_initializer": {
               "class_name": "Zeros",
               "config": {}
            },
            "epsilon": 0.001,
            "beta_initializer": {
               "class_name": "Zeros",
               "config": {}
            },
            "gamma_regularizer": null,
            "name": "batch_normalization_12",
            "gamma_initializer": {
               "class_name": "Ones",
               "config": {}
            },
            "scale": true,
            "trainable": true,
            "momentum": 0.99,
            "center": true,
            "axis": -1
         }
      },
      {
         "class_name": "Activation",
         "config": {
            "activation": "relu",
            "name": "activation_12",
            "trainable": true
         }
      },
      {
         "class_name": "Conv2D",
         "config": {
            "kernel_size": [
               3,
               3
            ],
            "strides": [
               1,
               1
            ],
            "bias_regularizer": null,
            "kernel_initializer": {
               "class_name": "VarianceScaling",
               "config": {
                  "distribution": "uniform",
                  "mode": "fan_avg",
                  "scale": 1.0,
                  "seed": null
               }
            },
            "bias_initializer": {
               "class_name": "Zeros",
               "config": {}
            },
            "filters": 304,
            "padding": "same",
            "kernel_constraint": null,
            "activation": "linear",
            "name": "conv2d_13",
            "kernel_regularizer": null,
            "dilation_rate": [
               1,
               1
            ],
            "data_format": "channels_first",
            "trainable": true,
            "bias_constraint": null,
            "activity_regularizer": null,
            "use_bias": true
         }
      },
      {
         "class_name": "Dropout",
         "config": {
            "name": "dropout_12",
            "trainable": true,
            "rate": 0.2
         }
      },
      {
         "class_name": "BatchNormalization",
         "config": {
            "beta_regularizer": null,
            "beta_constraint": null,
            "moving_variance_initializer": {
               "class_name": "Ones",
               "config": {}
            },
            "gamma_constraint": null,
            "moving_mean_initializer": {
               "class_name": "Zeros",
               "config": {}
            },
            "epsilon": 0.001,
            "beta_initializer": {
               "class_name": "Zeros",
               "config": {}
            },
            "gamma_regularizer": null,
            "name": "batch_normalization_13",
            "gamma_initializer": {
               "class_name": "Ones",
               "config": {}
            },
            "scale": true,
            "trainable": true,
            "momentum": 0.99,
            "center": true,
            "axis": -1
         }
      },
      {
         "class_name": "Activation",
         "config": {
            "activation": "relu",
            "name": "activation_13",
            "trainable": true
         }
      },
      {
         "class_name": "Conv2D",
         "config": {
            "kernel_size": [
               3,
               3
            ],
            "strides": [
               1,
               1
            ],
            "bias_regularizer": null,
            "kernel_initializer": {
               "class_name": "VarianceScaling",
               "config": {
                  "distribution": "uniform",
                  "mode": "fan_avg",
                  "scale": 1.0,
                  "seed": null
               }
            },
            "bias_initializer": {
               "class_name": "Zeros",
               "config": {}
            },
            "filters": 304,
            "padding": "same",
            "kernel_constraint": null,
            "activation": "linear",
            "name": "conv2d_14",
            "kernel_regularizer": null,
            "dilation_rate": [
               1,
               1
            ],
            "data_format": "channels_first",
            "trainable": true,
            "bias_constraint": null,
            "activity_regularizer": null,
            "use_bias": true
         }
      },
      {
         "class_name": "Dropout",
         "config": {
            "name": "dropout_13",
            "trainable": true,
            "rate": 0.2
         }
      },
      {
         "class_name": "BatchNormalization",
         "config": {
            "beta_regularizer": null,
            "beta_constraint": null,
            "moving_variance_initializer": {
               "class_name": "Ones",
               "config": {}
            },
            "gamma_constraint": null,
            "moving_mean_initializer": {
               "class_name": "Zeros",
               "config": {}
            },
            "epsilon": 0.001,
            "beta_initializer": {
               "class_name": "Zeros",
               "config": {}
            },
            "gamma_regularizer": null,
            "name": "batch_normalization_14",
            "gamma_initializer": {
               "class_name": "Ones",
               "config": {}
            },
            "scale": true,
            "trainable": true,
            "momentum": 0.99,
            "center": true,
            "axis": -1
         }
      },
      {
         "class_name": "Activation",
         "config": {
            "activation": "relu",
            "name": "activation_14",
            "trainable": true
         }
      },
      {
         "class_name": "Conv2D",
         "config": {
            "kernel_size": [
               3,
               3
            ],
            "strides": [
               1,
               1
            ],
            "bias_regularizer": null,
            "kernel_initializer": {
               "class_name": "VarianceScaling",
               "config": {
                  "distribution": "uniform",
                  "mode": "fan_avg",
                  "scale": 1.0,
                  "seed": null
               }
            },
            "bias_initializer": {
               "class_name": "Zeros",
               "config": {}
            },
            "filters": 304,
            "padding": "same",
            "kernel_constraint": null,
            "activation": "linear",
            "name": "conv2d_15",
            "kernel_regularizer": null,
            "dilation_rate": [
               1,
               1
            ],
            "data_format": "channels_first",
            "trainable": true,
            "bias_constraint": null,
            "activity_regularizer": null,
            "use_bias": true
         }
      },
      {
         "class_name": "Dropout",
         "config": {
            "name": "dropout_14",
            "trainable": true,
            "rate": 0.2
         }
      },
      {
         "class_name": "BatchNormalization",
         "config": {
            "beta_regularizer": null,
            "beta_constraint": null,
            "moving_variance_initializer": {
               "class_name": "Ones",
               "config": {}
            },
            "gamma_constraint": null,
            "moving_mean_initializer": {
               "class_name": "Zeros",
               "config": {}
            },
            "epsilon": 0.001,
            "beta_initializer": {
               "class_name": "Zeros",
               "config": {}
            },
            "gamma_regularizer": null,
            "name": "batch_normalization_15",
            "gamma_initializer": {
               "class_name": "Ones",
               "config": {}
            },
            "scale": true,
            "trainable": true,
            "momentum": 0.99,
            "center": true,
            "axis": -1
         }
      },
      {
         "class_name": "Activation",
         "config": {
            "activation": "relu",
            "name": "activation_15",
            "trainable": true
         }
      },
      {
         "class_name": "Conv2D",
         "config": {
            "kernel_size": [
               3,
               3
            ],
            "strides": [
               1,
               1
            ],
            "bias_regularizer": null,
            "kernel_initializer": {
               "class_name": "VarianceScaling",
               "config": {
                  "distribution": "uniform",
                  "mode": "fan_avg",
                  "scale": 1.0,
                  "seed": null
               }
            },
            "bias_initializer": {
               "class_name": "Zeros",
               "config": {}
            },
            "filters": 304,
            "padding": "same",
            "kernel_constraint": null,
            "activation": "linear",
            "name": "conv2d_16",
            "kernel_regularizer": null,
            "dilation_rate": [
               1,
               1
            ],
            "data_format": "channels_first",
            "trainable": true,
            "bias_constraint": null,
            "activity_regularizer": null,
            "use_bias": true
         }
      },
      {
         "class_name": "Dropout",
         "config": {
            "name": "dropout_15",
            "trainable": true,
            "rate": 0.2
         }
      },
      {
         "class_name": "BatchNormalization",
         "config": {
            "beta_regularizer": null,
            "beta_constraint": null,
            "moving_variance_initializer": {
               "class_name": "Ones",
               "config": {}
            },
            "gamma_constraint": null,
            "moving_mean_initializer": {
               "class_name": "Zeros",
               "config": {}
            },
            "epsilon": 0.001,
            "beta_initializer": {
               "class_name": "Zeros",
               "config": {}
            },
            "gamma_regularizer": null,
            "name": "batch_normalization_16",
            "gamma_initializer": {
               "class_name": "Ones",
               "config": {}
            },
            "scale": true,
            "trainable": true,
            "momentum": 0.99,
            "center": true,
            "axis": -1
         }
      },
      {
         "class_name": "Activation",
         "config": {
            "activation": "relu",
            "name": "activation_16",
            "trainable": true
         }
      },
      {
         "class_name": "Conv2D",
         "config": {
            "kernel_size": [
               3,
               3
            ],
            "strides": [
               1,
               1
            ],
            "bias_regularizer": null,
            "kernel_initializer": {
               "class_name": "VarianceScaling",
               "config": {
                  "distribution": "uniform",
                  "mode": "fan_avg",
                  "scale": 1.0,
                  "seed": null
               }
            },
            "bias_initializer": {
               "class_name": "Zeros",
               "config": {}
            },
            "filters": 304,
            "padding": "same",
            "kernel_constraint": null,
            "activation": "linear",
            "name": "conv2d_17",
            "kernel_regularizer": null,
            "dilation_rate": [
               1,
               1
            ],
            "data_format": "channels_first",
            "trainable": true,
            "bias_constraint": null,
            "activity_regularizer": null,
            "use_bias": true
         }
      },
      {
         "class_name": "Dropout",
         "config": {
            "name": "dropout_16",
            "trainable": true,
            "rate": 0.2
         }
      },
      {
         "class_name": "BatchNormalization",
         "config": {
            "beta_regularizer": null,
            "beta_constraint": null,
            "moving_variance_initializer": {
               "class_name": "Ones",
               "config": {}
            },
            "gamma_constraint": null,
            "moving_mean_initializer": {
               "class_name": "Zeros",
               "config": {}
            },
            "epsilon": 0.001,
            "beta_initializer": {
               "class_name": "Zeros",
               "config": {}
            },
            "gamma_regularizer": null,
            "name": "batch_normalization_17",
            "gamma_initializer": {
               "class_name": "Ones",
               "config": {}
            },
            "scale": true,
            "trainable": true,
            "momentum": 0.99,
            "center": true,
            "axis": -1
         }
      },
      {
         "class_name": "Activation",
         "config": {
            "activation": "relu",
            "name": "activation_17",
            "trainable": true
         }
      },
      {
         "class_name": "Conv2D",
         "config": {
            "kernel_size": [
               3,
               3
            ],
            "strides": [
               1,
               1
            ],
            "bias_regularizer": null,
            "kernel_initializer": {
               "class_name": "VarianceScaling",
               "config": {
                  "distribution": "uniform",
                  "mode": "fan_avg",
                  "scale": 1.0,
                  "seed": null
               }
            },
            "bias_initializer": {
               "class_name": "Zeros",
               "config": {}
            },
            "filters": 304,
            "padding": "same",
            "kernel_constraint": null,
            "activation": "linear",
            "name": "conv2d_18",
            "kernel_regularizer": null,
            "dilation_rate": [
               1,
               1
            ],
            "data_format": "channels_first",
            "trainable": true,
            "bias_constraint": null,
            "activity_regularizer": null,
            "use_bias": true
         }
      },
      {
         "class_name": "Dropout",
         "config": {
            "name": "dropout_17",
            "trainable": true,
            "rate": 0.2
         }
      },
      {
         "class_name": "BatchNormalization",
         "config": {
            "beta_regularizer": null,
            "beta_constraint": null,
            "moving_variance_initializer": {
               "class_name": "Ones",
               "config": {}
            },
            "gamma_constraint": null,
            "moving_mean_initializer": {
               "class_name": "Zeros",
               "config": {}
            },
            "epsilon": 0.001,
            "beta_initializer": {
               "class_name": "Zeros",
               "config": {}
            },
            "gamma_regularizer": null,
            "name": "batch_normalization_18",
            "gamma_initializer": {
               "class_name": "Ones",
               "config": {}
            },
            "scale": true,
            "trainable": true,
            "momentum": 0.99,
            "center": true,
            "axis": -1
         }
      },
      {
         "class_name": "Activation",
         "config": {
            "activation": "relu",
            "name": "activation_18",
            "trainable": true
         }
      },
      {
         "class_name": "Conv2D",
         "config": {
            "kernel_size": [
               3,
               3
            ],
            "strides": [
               1,
               1
            ],
            "bias_regularizer": null,
            "kernel_initializer": {
               "class_name": "VarianceScaling",
               "config": {
                  "distribution": "uniform",
                  "mode": "fan_avg",
                  "scale": 1.0,
                  "seed": null
               }
            },
            "bias_initializer": {
               "class_name": "Zeros",
               "config": {}
            },
            "filters": 304,
            "padding": "same",
            "kernel_constraint": null,
            "activation": "linear",
            "name": "conv2d_19",
            "kernel_regularizer": null,
            "dilation_rate": [
               1,
               1
            ],
            "data_format": "channels_first",
            "trainable": true,
            "bias_constraint": null,
            "activity_regularizer": null,
            "use_bias": true
         }
      },
      {
         "class_name": "Dropout",
         "config": {
            "name": "dropout_18",
            "trainable": true,
            "rate": 0.2
         }
      },
      {
         "class_name": "BatchNormalization",
         "config": {
            "beta_regularizer": null,
            "beta_constraint": null,
            "moving_variance_initializer": {
               "class_name": "Ones",
               "config": {}
            },
            "gamma_constraint": null,
            "moving_mean_initializer": {
               "class_name": "Zeros",
               "config": {}
            },
            "epsilon": 0.001,
            "beta_initializer": {
               "class_name": "Zeros",
               "config": {}
            },
            "gamma_regularizer": null,
            "name": "batch_normalization_19",
            "gamma_initializer": {
               "class_name": "Ones",
               "config": {}
            },
            "scale": true,
            "trainable": true,
            "momentum": 0.99,
            "center": true,
            "axis": -1
         }
      },
      {
         "class_name": "Activation",
         "config": {
            "activation": "relu",
            "name": "activation_19",
            "trainable": true
         }
      },
      {
         "class_name": "Conv2D",
         "config": {
            "kernel_size": [
               1,
               1
            ],
            "strides": [
               1,
               1
            ],
            "bias_regularizer": null,
            "kernel_initializer": {
               "class_name": "VarianceScaling",
               "config": {
                  "distribution": "uniform",
                  "mode": "fan_avg",
                  "scale": 1.0,
                  "seed": null
               }
            },
            "bias_initializer": {
               "class_name": "Zeros",
               "config": {}
            },
            "filters": 304,
            "padding": "same",
            "kernel_constraint": null,
            "activation": "linear",
            "name": "conv2d_20",
            "kernel_regularizer": null,
            "dilation_rate": [
               1,
               1
            ],
            "data_format": "channels_first",
            "trainable": true,
            "bias_constraint": null,
            "activity_regularizer": null,
            "use_bias": true
         }
      },
      {
         "class_name": "Dropout",
         "config": {
            "name": "dropout_19",
            "trainable": true,
            "rate": 0.2
         }
      },
      {
         "class_name": "MaxPooling2D",
         "config": {
            "pool_size": [
               2,
               2
            ],
            "name": "max_pooling2d_3",
            "strides": [
               2,
               2
            ],
            "data_format": "channels_first",
            "trainable": true,
            "padding": "valid"
         }
      },
      {
         "class_name": "BatchNormalization",
         "config": {
            "beta_regularizer": null,
            "beta_constraint": null,
            "moving_variance_initializer": {
               "class_name": "Ones",
               "config": {}
            },
            "gamma_constraint": null,
            "moving_mean_initializer": {
               "class_name": "Zeros",
               "config": {}
            },
            "epsilon": 0.001,
            "beta_initializer": {
               "class_name": "Zeros",
               "config": {}
            },
            "gamma_regularizer": null,
            "name": "batch_normalization_20",
            "gamma_initializer": {
               "class_name": "Ones",
               "config": {}
            },
            "scale": true,
            "trainable": true,
            "momentum": 0.99,
            "center": true,
            "axis": -1
         }
      },
      {
         "class_name": "Activation",
         "config": {
            "activation": "relu",
            "name": "activation_20",
            "trainable": true
         }
      },
      {
         "class_name": "Conv2D",
         "config": {
            "kernel_size": [
               3,
               3
            ],
            "strides": [
               1,
               1
            ],
            "bias_regularizer": null,
            "kernel_initializer": {
               "class_name": "VarianceScaling",
               "config": {
                  "distribution": "uniform",
                  "mode": "fan_avg",
                  "scale": 1.0,
                  "seed": null
               }
            },
            "bias_initializer": {
               "class_name": "Zeros",
               "config": {}
            },
            "filters": 464,
            "padding": "same",
            "kernel_constraint": null,
            "activation": "linear",
            "name": "conv2d_21",
            "kernel_regularizer": null,
            "dilation_rate": [
               1,
               1
            ],
            "data_format": "channels_first",
            "trainable": true,
            "bias_constraint": null,
            "activity_regularizer": null,
            "use_bias": true
         }
      },
      {
         "class_name": "Dropout",
         "config": {
            "name": "dropout_20",
            "trainable": true,
            "rate": 0.2
         }
      },
      {
         "class_name": "BatchNormalization",
         "config": {
            "beta_regularizer": null,
            "beta_constraint": null,
            "moving_variance_initializer": {
               "class_name": "Ones",
               "config": {}
            },
            "gamma_constraint": null,
            "moving_mean_initializer": {
               "class_name": "Zeros",
               "config": {}
            },
            "epsilon": 0.001,
            "beta_initializer": {
               "class_name": "Zeros",
               "config": {}
            },
            "gamma_regularizer": null,
            "name": "batch_normalization_21",
            "gamma_initializer": {
               "class_name": "Ones",
               "config": {}
            },
            "scale": true,
            "trainable": true,
            "momentum": 0.99,
            "center": true,
            "axis": -1
         }
      },
      {
         "class_name": "Activation",
         "config": {
            "activation": "relu",
            "name": "activation_21",
            "trainable": true
         }
      },
      {
         "class_name": "Conv2D",
         "config": {
            "kernel_size": [
               3,
               3
            ],
            "strides": [
               1,
               1
            ],
            "bias_regularizer": null,
            "kernel_initializer": {
               "class_name": "VarianceScaling",
               "config": {
                  "distribution": "uniform",
                  "mode": "fan_avg",
                  "scale": 1.0,
                  "seed": null
               }
            },
            "bias_initializer": {
               "class_name": "Zeros",
               "config": {}
            },
            "filters": 464,
            "padding": "same",
            "kernel_constraint": null,
            "activation": "linear",
            "name": "conv2d_22",
            "kernel_regularizer": null,
            "dilation_rate": [
               1,
               1
            ],
            "data_format": "channels_first",
            "trainable": true,
            "bias_constraint": null,
            "activity_regularizer": null,
            "use_bias": true
         }
      },
      {
         "class_name": "Dropout",
         "config": {
            "name": "dropout_21",
            "trainable": true,
            "rate": 0.2
         }
      },
      {
         "class_name": "BatchNormalization",
         "config": {
            "beta_regularizer": null,
            "beta_constraint": null,
            "moving_variance_initializer": {
               "class_name": "Ones",
               "config": {}
            },
            "gamma_constraint": null,
            "moving_mean_initializer": {
               "class_name": "Zeros",
               "config": {}
            },
            "epsilon": 0.001,
            "beta_initializer": {
               "class_name": "Zeros",
               "config": {}
            },
            "gamma_regularizer": null,
            "name": "batch_normalization_22",
            "gamma_initializer": {
               "class_name": "Ones",
               "config": {}
            },
            "scale": true,
            "trainable": true,
            "momentum": 0.99,
            "center": true,
            "axis": -1
         }
      },
      {
         "class_name": "Activation",
         "config": {
            "activation": "relu",
            "name": "activation_22",
            "trainable": true
         }
      },
      {
         "class_name": "Conv2D",
         "config": {
            "kernel_size": [
               3,
               3
            ],
            "strides": [
               1,
               1
            ],
            "bias_regularizer": null,
            "kernel_initializer": {
               "class_name": "VarianceScaling",
               "config": {
                  "distribution": "uniform",
                  "mode": "fan_avg",
                  "scale": 1.0,
                  "seed": null
               }
            },
            "bias_initializer": {
               "class_name": "Zeros",
               "config": {}
            },
            "filters": 464,
            "padding": "same",
            "kernel_constraint": null,
            "activation": "linear",
            "name": "conv2d_23",
            "kernel_regularizer": null,
            "dilation_rate": [
               1,
               1
            ],
            "data_format": "channels_first",
            "trainable": true,
            "bias_constraint": null,
            "activity_regularizer": null,
            "use_bias": true
         }
      },
      {
         "class_name": "Dropout",
         "config": {
            "name": "dropout_22",
            "trainable": true,
            "rate": 0.2
         }
      },
      {
         "class_name": "BatchNormalization",
         "config": {
            "beta_regularizer": null,
            "beta_constraint": null,
            "moving_variance_initializer": {
               "class_name": "Ones",
               "config": {}
            },
            "gamma_constraint": null,
            "moving_mean_initializer": {
               "class_name": "Zeros",
               "config": {}
            },
            "epsilon": 0.001,
            "beta_initializer": {
               "class_name": "Zeros",
               "config": {}
            },
            "gamma_regularizer": null,
            "name": "batch_normalization_23",
            "gamma_initializer": {
               "class_name": "Ones",
               "config": {}
            },
            "scale": true,
            "trainable": true,
            "momentum": 0.99,
            "center": true,
            "axis": -1
         }
      },
      {
         "class_name": "Activation",
         "config": {
            "activation": "relu",
            "name": "activation_23",
            "trainable": true
         }
      },
      {
         "class_name": "Conv2D",
         "config": {
            "kernel_size": [
               3,
               3
            ],
            "strides": [
               1,
               1
            ],
            "bias_regularizer": null,
            "kernel_initializer": {
               "class_name": "VarianceScaling",
               "config": {
                  "distribution": "uniform",
                  "mode": "fan_avg",
                  "scale": 1.0,
                  "seed": null
               }
            },
            "bias_initializer": {
               "class_name": "Zeros",
               "config": {}
            },
            "filters": 464,
            "padding": "same",
            "kernel_constraint": null,
            "activation": "linear",
            "name": "conv2d_24",
            "kernel_regularizer": null,
            "dilation_rate": [
               1,
               1
            ],
            "data_format": "channels_first",
            "trainable": true,
            "bias_constraint": null,
            "activity_regularizer": null,
            "use_bias": true
         }
      },
      {
         "class_name": "Dropout",
         "config": {
            "name": "dropout_23",
            "trainable": true,
            "rate": 0.2
         }
      },
      {
         "class_name": "BatchNormalization",
         "config": {
            "beta_regularizer": null,
            "beta_constraint": null,
            "moving_variance_initializer": {
               "class_name": "Ones",
               "config": {}
            },
            "gamma_constraint": null,
            "moving_mean_initializer": {
               "class_name": "Zeros",
               "config": {}
            },
            "epsilon": 0.001,
            "beta_initializer": {
               "class_name": "Zeros",
               "config": {}
            },
            "gamma_regularizer": null,
            "name": "batch_normalization_24",
            "gamma_initializer": {
               "class_name": "Ones",
               "config": {}
            },
            "scale": true,
            "trainable": true,
            "momentum": 0.99,
            "center": true,
            "axis": -1
         }
      },
      {
         "class_name": "Activation",
         "config": {
            "activation": "relu",
            "name": "activation_24",
            "trainable": true
         }
      },
      {
         "class_name": "Conv2D",
         "config": {
            "kernel_size": [
               3,
               3
            ],
            "strides": [
               1,
               1
            ],
            "bias_regularizer": null,
            "kernel_initializer": {
               "class_name": "VarianceScaling",
               "config": {
                  "distribution": "uniform",
                  "mode": "fan_avg",
                  "scale": 1.0,
                  "seed": null
               }
            },
            "bias_initializer": {
               "class_name": "Zeros",
               "config": {}
            },
            "filters": 464,
            "padding": "same",
            "kernel_constraint": null,
            "activation": "linear",
            "name": "conv2d_25",
            "kernel_regularizer": null,
            "dilation_rate": [
               1,
               1
            ],
            "data_format": "channels_first",
            "trainable": true,
            "bias_constraint": null,
            "activity_regularizer": null,
            "use_bias": true
         }
      },
      {
         "class_name": "Dropout",
         "config": {
            "name": "dropout_24",
            "trainable": true,
            "rate": 0.2
         }
      },
      {
         "class_name": "BatchNormalization",
         "config": {
            "beta_regularizer": null,
            "beta_constraint": null,
            "moving_variance_initializer": {
               "class_name": "Ones",
               "config": {}
            },
            "gamma_constraint": null,
            "moving_mean_initializer": {
               "class_name": "Zeros",
               "config": {}
            },
            "epsilon": 0.001,
            "beta_initializer": {
               "class_name": "Zeros",
               "config": {}
            },
            "gamma_regularizer": null,
            "name": "batch_normalization_25",
            "gamma_initializer": {
               "class_name": "Ones",
               "config": {}
            },
            "scale": true,
            "trainable": true,
            "momentum": 0.99,
            "center": true,
            "axis": -1
         }
      },
      {
         "class_name": "Activation",
         "config": {
            "activation": "relu",
            "name": "activation_25",
            "trainable": true
         }
      },
      {
         "class_name": "Conv2D",
         "config": {
            "kernel_size": [
               3,
               3
            ],
            "strides": [
               1,
               1
            ],
            "bias_regularizer": null,
            "kernel_initializer": {
               "class_name": "VarianceScaling",
               "config": {
                  "distribution": "uniform",
                  "mode": "fan_avg",
                  "scale": 1.0,
                  "seed": null
               }
            },
            "bias_initializer": {
               "class_name": "Zeros",
               "config": {}
            },
            "filters": 464,
            "padding": "same",
            "kernel_constraint": null,
            "activation": "linear",
            "name": "conv2d_26",
            "kernel_regularizer": null,
            "dilation_rate": [
               1,
               1
            ],
            "data_format": "channels_first",
            "trainable": true,
            "bias_constraint": null,
            "activity_regularizer": null,
            "use_bias": true
         }
      },
      {
         "class_name": "Dropout",
         "config": {
            "name": "dropout_25",
            "trainable": true,
            "rate": 0.2
         }
      },
      {
         "class_name": "BatchNormalization",
         "config": {
            "beta_regularizer": null,
            "beta_constraint": null,
            "moving_variance_initializer": {
               "class_name": "Ones",
               "config": {}
            },
            "gamma_constraint": null,
            "moving_mean_initializer": {
               "class_name": "Zeros",
               "config": {}
            },
            "epsilon": 0.001,
            "beta_initializer": {
               "class_name": "Zeros",
               "config": {}
            },
            "gamma_regularizer": null,
            "name": "batch_normalization_26",
            "gamma_initializer": {
               "class_name": "Ones",
               "config": {}
            },
            "scale": true,
            "trainable": true,
            "momentum": 0.99,
            "center": true,
            "axis": -1
         }
      },
      {
         "class_name": "Activation",
         "config": {
            "activation": "relu",
            "name": "activation_26",
            "trainable": true
         }
      },
      {
         "class_name": "Conv2D",
         "config": {
            "kernel_size": [
               3,
               3
            ],
            "strides": [
               1,
               1
            ],
            "bias_regularizer": null,
            "kernel_initializer": {
               "class_name": "VarianceScaling",
               "config": {
                  "distribution": "uniform",
                  "mode": "fan_avg",
                  "scale": 1.0,
                  "seed": null
               }
            },
            "bias_initializer": {
               "class_name": "Zeros",
               "config": {}
            },
            "filters": 464,
            "padding": "same",
            "kernel_constraint": null,
            "activation": "linear",
            "name": "conv2d_27",
            "kernel_regularizer": null,
            "dilation_rate": [
               1,
               1
            ],
            "data_format": "channels_first",
            "trainable": true,
            "bias_constraint": null,
            "activity_regularizer": null,
            "use_bias": true
         }
      },
      {
         "class_name": "Dropout",
         "config": {
            "name": "dropout_26",
            "trainable": true,
            "rate": 0.2
         }
      },
      {
         "class_name": "BatchNormalization",
         "config": {
            "beta_regularizer": null,
            "beta_constraint": null,
            "moving_variance_initializer": {
               "class_name": "Ones",
               "config": {}
            },
            "gamma_constraint": null,
            "moving_mean_initializer": {
               "class_name": "Zeros",
               "config": {}
            },
            "epsilon": 0.001,
            "beta_initializer": {
               "class_name": "Zeros",
               "config": {}
            },
            "gamma_regularizer": null,
            "name": "batch_normalization_27",
            "gamma_initializer": {
               "class_name": "Ones",
               "config": {}
            },
            "scale": true,
            "trainable": true,
            "momentum": 0.99,
            "center": true,
            "axis": -1
         }
      },
      {
         "class_name": "Activation",
         "config": {
            "activation": "relu",
            "name": "activation_27",
            "trainable": true
         }
      },
      {
         "class_name": "Conv2D",
         "config": {
            "kernel_size": [
               3,
               3
            ],
            "strides": [
               1,
               1
            ],
            "bias_regularizer": null,
            "kernel_initializer": {
               "class_name": "VarianceScaling",
               "config": {
                  "distribution": "uniform",
                  "mode": "fan_avg",
                  "scale": 1.0,
                  "seed": null
               }
            },
            "bias_initializer": {
               "class_name": "Zeros",
               "config": {}
            },
            "filters": 464,
            "padding": "same",
            "kernel_constraint": null,
            "activation": "linear",
            "name": "conv2d_28",
            "kernel_regularizer": null,
            "dilation_rate": [
               1,
               1
            ],
            "data_format": "channels_first",
            "trainable": true,
            "bias_constraint": null,
            "activity_regularizer": null,
            "use_bias": true
         }
      },
      {
         "class_name": "Dropout",
         "config": {
            "name": "dropout_27",
            "trainable": true,
            "rate": 0.2
         }
      },
      {
         "class_name": "BatchNormalization",
         "config": {
            "beta_regularizer": null,
            "beta_constraint": null,
            "moving_variance_initializer": {
               "class_name": "Ones",
               "config": {}
            },
            "gamma_constraint": null,
            "moving_mean_initializer": {
               "class_name": "Zeros",
               "config": {}
            },
            "epsilon": 0.001,
            "beta_initializer": {
               "class_name": "Zeros",
               "config": {}
            },
            "gamma_regularizer": null,
            "name": "batch_normalization_28",
            "gamma_initializer": {
               "class_name": "Ones",
               "config": {}
            },
            "scale": true,
            "trainable": true,
            "momentum": 0.99,
            "center": true,
            "axis": -1
         }
      },
      {
         "class_name": "Activation",
         "config": {
            "activation": "relu",
            "name": "activation_28",
            "trainable": true
         }
      },
      {
         "class_name": "Conv2D",
         "config": {
            "kernel_size": [
               3,
               3
            ],
            "strides": [
               1,
               1
            ],
            "bias_regularizer": null,
            "kernel_initializer": {
               "class_name": "VarianceScaling",
               "config": {
                  "distribution": "uniform",
                  "mode": "fan_avg",
                  "scale": 1.0,
                  "seed": null
               }
            },
            "bias_initializer": {
               "class_name": "Zeros",
               "config": {}
            },
            "filters": 464,
            "padding": "same",
            "kernel_constraint": null,
            "activation": "linear",
            "name": "conv2d_29",
            "kernel_regularizer": null,
            "dilation_rate": [
               1,
               1
            ],
            "data_format": "channels_first",
            "trainable": true,
            "bias_constraint": null,
            "activity_regularizer": null,
            "use_bias": true
         }
      },
      {
         "class_name": "Dropout",
         "config": {
            "name": "dropout_28",
            "trainable": true,
            "rate": 0.2
         }
      },
      {
         "class_name": "BatchNormalization",
         "config": {
            "beta_regularizer": null,
            "beta_constraint": null,
            "moving_variance_initializer": {
               "class_name": "Ones",
               "config": {}
            },
            "gamma_constraint": null,
            "moving_mean_initializer": {
               "class_name": "Zeros",
               "config": {}
            },
            "epsilon": 0.001,
            "beta_initializer": {
               "class_name": "Zeros",
               "config": {}
            },
            "gamma_regularizer": null,
            "name": "batch_normalization_29",
            "gamma_initializer": {
               "class_name": "Ones",
               "config": {}
            },
            "scale": true,
            "trainable": true,
            "momentum": 0.99,
            "center": true,
            "axis": -1
         }
      },
      {
         "class_name": "Activation",
         "config": {
            "activation": "relu",
            "name": "activation_29",
            "trainable": true
         }
      },
      {
         "class_name": "Conv2D",
         "config": {
            "kernel_size": [
               3,
               3
            ],
            "strides": [
               1,
               1
            ],
            "bias_regularizer": null,
            "kernel_initializer": {
               "class_name": "VarianceScaling",
               "config": {
                  "distribution": "uniform",
                  "mode": "fan_avg",
                  "scale": 1.0,
                  "seed": null
               }
            },
            "bias_initializer": {
               "class_name": "Zeros",
               "config": {}
            },
            "filters": 464,
            "padding": "same",
            "kernel_constraint": null,
            "activation": "linear",
            "name": "conv2d_30",
            "kernel_regularizer": null,
            "dilation_rate": [
               1,
               1
            ],
            "data_format": "channels_first",
            "trainable": true,
            "bias_constraint": null,
            "activity_regularizer": null,
            "use_bias": true
         }
      },
      {
         "class_name": "Dropout",
         "config": {
            "name": "dropout_29",
            "trainable": true,
            "rate": 0.2
         }
      },
      {
         "class_name": "BatchNormalization",
         "config": {
            "beta_regularizer": null,
            "beta_constraint": null,
            "moving_variance_initializer": {
               "class_name": "Ones",
               "config": {}
            },
            "gamma_constraint": null,
            "moving_mean_initializer": {
               "class_name": "Zeros",
               "config": {}
            },
            "epsilon": 0.001,
            "beta_initializer": {
               "class_name": "Zeros",
               "config": {}
            },
            "gamma_regularizer": null,
            "name": "batch_normalization_30",
            "gamma_initializer": {
               "class_name": "Ones",
               "config": {}
            },
            "scale": true,
            "trainable": true,
            "momentum": 0.99,
            "center": true,
            "axis": -1
         }
      },
      {
         "class_name": "Activation",
         "config": {
            "activation": "relu",
            "name": "activation_30",
            "trainable": true
         }
      },
      {
         "class_name": "Conv2D",
         "config": {
            "kernel_size": [
               1,
               1
            ],
            "strides": [
               1,
               1
            ],
            "bias_regularizer": null,
            "kernel_initializer": {
               "class_name": "VarianceScaling",
               "config": {
                  "distribution": "uniform",
                  "mode": "fan_avg",
                  "scale": 1.0,
                  "seed": null
               }
            },
            "bias_initializer": {
               "class_name": "Zeros",
               "config": {}
            },
            "filters": 464,
            "padding": "same",
            "kernel_constraint": null,
            "activation": "linear",
            "name": "conv2d_31",
            "kernel_regularizer": null,
            "dilation_rate": [
               1,
               1
            ],
            "data_format": "channels_first",
            "trainable": true,
            "bias_constraint": null,
            "activity_regularizer": null,
            "use_bias": true
         }
      },
      {
         "class_name": "Dropout",
         "config": {
            "name": "dropout_30",
            "trainable": true,
            "rate": 0.2
         }
      },
      {
         "class_name": "MaxPooling2D",
         "config": {
            "pool_size": [
               2,
               2
            ],
            "name": "max_pooling2d_4",
            "strides": [
               2,
               2
            ],
            "data_format": "channels_first",
            "trainable": true,
            "padding": "valid"
         }
      },
      {
         "class_name": "BatchNormalization",
         "config": {
            "beta_regularizer": null,
            "beta_constraint": null,
            "moving_variance_initializer": {
               "class_name": "Ones",
               "config": {}
            },
            "gamma_constraint": null,
            "moving_mean_initializer": {
               "class_name": "Zeros",
               "config": {}
            },
            "epsilon": 0.001,
            "beta_initializer": {
               "class_name": "Zeros",
               "config": {}
            },
            "gamma_regularizer": null,
            "name": "batch_normalization_31",
            "gamma_initializer": {
               "class_name": "Ones",
               "config": {}
            },
            "scale": true,
            "trainable": true,
            "momentum": 0.99,
            "center": true,
            "axis": -1
         }
      },
      {
         "class_name": "Activation",
         "config": {
            "activation": "relu",
            "name": "activation_31",
            "trainable": true
         }
      },
      {
         "class_name": "Conv2D",
         "config": {
            "kernel_size": [
               3,
               3
            ],
            "strides": [
               1,
               1
            ],
            "bias_regularizer": null,
            "kernel_initializer": {
               "class_name": "VarianceScaling",
               "config": {
                  "distribution": "uniform",
                  "mode": "fan_avg",
                  "scale": 1.0,
                  "seed": null
               }
            },
            "bias_initializer": {
               "class_name": "Zeros",
               "config": {}
            },
            "filters": 656,
            "padding": "same",
            "kernel_constraint": null,
            "activation": "linear",
            "name": "conv2d_32",
            "kernel_regularizer": null,
            "dilation_rate": [
               1,
               1
            ],
            "data_format": "channels_first",
            "trainable": true,
            "bias_constraint": null,
            "activity_regularizer": null,
            "use_bias": true
         }
      },
      {
         "class_name": "Dropout",
         "config": {
            "name": "dropout_31",
            "trainable": true,
            "rate": 0.2
         }
      },
      {
         "class_name": "BatchNormalization",
         "config": {
            "beta_regularizer": null,
            "beta_constraint": null,
            "moving_variance_initializer": {
               "class_name": "Ones",
               "config": {}
            },
            "gamma_constraint": null,
            "moving_mean_initializer": {
               "class_name": "Zeros",
               "config": {}
            },
            "epsilon": 0.001,
            "beta_initializer": {
               "class_name": "Zeros",
               "config": {}
            },
            "gamma_regularizer": null,
            "name": "batch_normalization_32",
            "gamma_initializer": {
               "class_name": "Ones",
               "config": {}
            },
            "scale": true,
            "trainable": true,
            "momentum": 0.99,
            "center": true,
            "axis": -1
         }
      },
      {
         "class_name": "Activation",
         "config": {
            "activation": "relu",
            "name": "activation_32",
            "trainable": true
         }
      },
      {
         "class_name": "Conv2D",
         "config": {
            "kernel_size": [
               3,
               3
            ],
            "strides": [
               1,
               1
            ],
            "bias_regularizer": null,
            "kernel_initializer": {
               "class_name": "VarianceScaling",
               "config": {
                  "distribution": "uniform",
                  "mode": "fan_avg",
                  "scale": 1.0,
                  "seed": null
               }
            },
            "bias_initializer": {
               "class_name": "Zeros",
               "config": {}
            },
            "filters": 656,
            "padding": "same",
            "kernel_constraint": null,
            "activation": "linear",
            "name": "conv2d_33",
            "kernel_regularizer": null,
            "dilation_rate": [
               1,
               1
            ],
            "data_format": "channels_first",
            "trainable": true,
            "bias_constraint": null,
            "activity_regularizer": null,
            "use_bias": true
         }
      },
      {
         "class_name": "Dropout",
         "config": {
            "name": "dropout_32",
            "trainable": true,
            "rate": 0.2
         }
      },
      {
         "class_name": "BatchNormalization",
         "config": {
            "beta_regularizer": null,
            "beta_constraint": null,
            "moving_variance_initializer": {
               "class_name": "Ones",
               "config": {}
            },
            "gamma_constraint": null,
            "moving_mean_initializer": {
               "class_name": "Zeros",
               "config": {}
            },
            "epsilon": 0.001,
            "beta_initializer": {
               "class_name": "Zeros",
               "config": {}
            },
            "gamma_regularizer": null,
            "name": "batch_normalization_33",
            "gamma_initializer": {
               "class_name": "Ones",
               "config": {}
            },
            "scale": true,
            "trainable": true,
            "momentum": 0.99,
            "center": true,
            "axis": -1
         }
      },
      {
         "class_name": "Activation",
         "config": {
            "activation": "relu",
            "name": "activation_33",
            "trainable": true
         }
      },
      {
         "class_name": "Conv2D",
         "config": {
            "kernel_size": [
               3,
               3
            ],
            "strides": [
               1,
               1
            ],
            "bias_regularizer": null,
            "kernel_initializer": {
               "class_name": "VarianceScaling",
               "config": {
                  "distribution": "uniform",
                  "mode": "fan_avg",
                  "scale": 1.0,
                  "seed": null
               }
            },
            "bias_initializer": {
               "class_name": "Zeros",
               "config": {}
            },
            "filters": 656,
            "padding": "same",
            "kernel_constraint": null,
            "activation": "linear",
            "name": "conv2d_34",
            "kernel_regularizer": null,
            "dilation_rate": [
               1,
               1
            ],
            "data_format": "channels_first",
            "trainable": true,
            "bias_constraint": null,
            "activity_regularizer": null,
            "use_bias": true
         }
      },
      {
         "class_name": "Dropout",
         "config": {
            "name": "dropout_33",
            "trainable": true,
            "rate": 0.2
         }
      },
      {
         "class_name": "BatchNormalization",
         "config": {
            "beta_regularizer": null,
            "beta_constraint": null,
            "moving_variance_initializer": {
               "class_name": "Ones",
               "config": {}
            },
            "gamma_constraint": null,
            "moving_mean_initializer": {
               "class_name": "Zeros",
               "config": {}
            },
            "epsilon": 0.001,
            "beta_initializer": {
               "class_name": "Zeros",
               "config": {}
            },
            "gamma_regularizer": null,
            "name": "batch_normalization_34",
            "gamma_initializer": {
               "class_name": "Ones",
               "config": {}
            },
            "scale": true,
            "trainable": true,
            "momentum": 0.99,
            "center": true,
            "axis": -1
         }
      },
      {
         "class_name": "Activation",
         "config": {
            "activation": "relu",
            "name": "activation_34",
            "trainable": true
         }
      },
      {
         "class_name": "Conv2D",
         "config": {
            "kernel_size": [
               3,
               3
            ],
            "strides": [
               1,
               1
            ],
            "bias_regularizer": null,
            "kernel_initializer": {
               "class_name": "VarianceScaling",
               "config": {
                  "distribution": "uniform",
                  "mode": "fan_avg",
                  "scale": 1.0,
                  "seed": null
               }
            },
            "bias_initializer": {
               "class_name": "Zeros",
               "config": {}
            },
            "filters": 656,
            "padding": "same",
            "kernel_constraint": null,
            "activation": "linear",
            "name": "conv2d_35",
            "kernel_regularizer": null,
            "dilation_rate": [
               1,
               1
            ],
            "data_format": "channels_first",
            "trainable": true,
            "bias_constraint": null,
            "activity_regularizer": null,
            "use_bias": true
         }
      },
      {
         "class_name": "Dropout",
         "config": {
            "name": "dropout_34",
            "trainable": true,
            "rate": 0.2
         }
      },
      {
         "class_name": "BatchNormalization",
         "config": {
            "beta_regularizer": null,
            "beta_constraint": null,
            "moving_variance_initializer": {
               "class_name": "Ones",
               "config": {}
            },
            "gamma_constraint": null,
            "moving_mean_initializer": {
               "class_name": "Zeros",
               "config": {}
            },
            "epsilon": 0.001,
            "beta_initializer": {
               "class_name": "Zeros",
               "config": {}
            },
            "gamma_regularizer": null,
            "name": "batch_normalization_35",
            "gamma_initializer": {
               "class_name": "Ones",
               "config": {}
            },
            "scale": true,
            "trainable": true,
            "momentum": 0.99,
            "center": true,
            "axis": -1
         }
      },
      {
         "class_name": "Activation",
         "config": {
            "activation": "relu",
            "name": "activation_35",
            "trainable": true
         }
      },
      {
         "class_name": "Conv2D",
         "config": {
            "kernel_size": [
               3,
               3
            ],
            "strides": [
               1,
               1
            ],
            "bias_regularizer": null,
            "kernel_initializer": {
               "class_name": "VarianceScaling",
               "config": {
                  "distribution": "uniform",
                  "mode": "fan_avg",
                  "scale": 1.0,
                  "seed": null
               }
            },
            "bias_initializer": {
               "class_name": "Zeros",
               "config": {}
            },
            "filters": 656,
            "padding": "same",
            "kernel_constraint": null,
            "activation": "linear",
            "name": "conv2d_36",
            "kernel_regularizer": null,
            "dilation_rate": [
               1,
               1
            ],
            "data_format": "channels_first",
            "trainable": true,
            "bias_constraint": null,
            "activity_regularizer": null,
            "use_bias": true
         }
      },
      {
         "class_name": "Dropout",
         "config": {
            "name": "dropout_35",
            "trainable": true,
            "rate": 0.2
         }
      },
      {
         "class_name": "BatchNormalization",
         "config": {
            "beta_regularizer": null,
            "beta_constraint": null,
            "moving_variance_initializer": {
               "class_name": "Ones",
               "config": {}
            },
            "gamma_constraint": null,
            "moving_mean_initializer": {
               "class_name": "Zeros",
               "config": {}
            },
            "epsilon": 0.001,
            "beta_initializer": {
               "class_name": "Zeros",
               "config": {}
            },
            "gamma_regularizer": null,
            "name": "batch_normalization_36",
            "gamma_initializer": {
               "class_name": "Ones",
               "config": {}
            },
            "scale": true,
            "trainable": true,
            "momentum": 0.99,
            "center": true,
            "axis": -1
         }
      },
      {
         "class_name": "Activation",
         "config": {
            "activation": "relu",
            "name": "activation_36",
            "trainable": true
         }
      },
      {
         "class_name": "Conv2D",
         "config": {
            "kernel_size": [
               3,
               3
            ],
            "strides": [
               1,
               1
            ],
            "bias_regularizer": null,
            "kernel_initializer": {
               "class_name": "VarianceScaling",
               "config": {
                  "distribution": "uniform",
                  "mode": "fan_avg",
                  "scale": 1.0,
                  "seed": null
               }
            },
            "bias_initializer": {
               "class_name": "Zeros",
               "config": {}
            },
            "filters": 656,
            "padding": "same",
            "kernel_constraint": null,
            "activation": "linear",
            "name": "conv2d_37",
            "kernel_regularizer": null,
            "dilation_rate": [
               1,
               1
            ],
            "data_format": "channels_first",
            "trainable": true,
            "bias_constraint": null,
            "activity_regularizer": null,
            "use_bias": true
         }
      },
      {
         "class_name": "Dropout",
         "config": {
            "name": "dropout_36",
            "trainable": true,
            "rate": 0.2
         }
      },
      {
         "class_name": "BatchNormalization",
         "config": {
            "beta_regularizer": null,
            "beta_constraint": null,
            "moving_variance_initializer": {
               "class_name": "Ones",
               "config": {}
            },
            "gamma_constraint": null,
            "moving_mean_initializer": {
               "class_name": "Zeros",
               "config": {}
            },
            "epsilon": 0.001,
            "beta_initializer": {
               "class_name": "Zeros",
               "config": {}
            },
            "gamma_regularizer": null,
            "name": "batch_normalization_37",
            "gamma_initializer": {
               "class_name": "Ones",
               "config": {}
            },
            "scale": true,
            "trainable": true,
            "momentum": 0.99,
            "center": true,
            "axis": -1
         }
      },
      {
         "class_name": "Activation",
         "config": {
            "activation": "relu",
            "name": "activation_37",
            "trainable": true
         }
      },
      {
         "class_name": "Conv2D",
         "config": {
            "kernel_size": [
               3,
               3
            ],
            "strides": [
               1,
               1
            ],
            "bias_regularizer": null,
            "kernel_initializer": {
               "class_name": "VarianceScaling",
               "config": {
                  "distribution": "uniform",
                  "mode": "fan_avg",
                  "scale": 1.0,
                  "seed": null
               }
            },
            "bias_initializer": {
               "class_name": "Zeros",
               "config": {}
            },
            "filters": 656,
            "padding": "same",
            "kernel_constraint": null,
            "activation": "linear",
            "name": "conv2d_38",
            "kernel_regularizer": null,
            "dilation_rate": [
               1,
               1
            ],
            "data_format": "channels_first",
            "trainable": true,
            "bias_constraint": null,
            "activity_regularizer": null,
            "use_bias": true
         }
      },
      {
         "class_name": "Dropout",
         "config": {
            "name": "dropout_37",
            "trainable": true,
            "rate": 0.2
         }
      },
      {
         "class_name": "BatchNormalization",
         "config": {
            "beta_regularizer": null,
            "beta_constraint": null,
            "moving_variance_initializer": {
               "class_name": "Ones",
               "config": {}
            },
            "gamma_constraint": null,
            "moving_mean_initializer": {
               "class_name": "Zeros",
               "config": {}
            },
            "epsilon": 0.001,
            "beta_initializer": {
               "class_name": "Zeros",
               "config": {}
            },
            "gamma_regularizer": null,
            "name": "batch_normalization_38",
            "gamma_initializer": {
               "class_name": "Ones",
               "config": {}
            },
            "scale": true,
            "trainable": true,
            "momentum": 0.99,
            "center": true,
            "axis": -1
         }
      },
      {
         "class_name": "Activation",
         "config": {
            "activation": "relu",
            "name": "activation_38",
            "trainable": true
         }
      },
      {
         "class_name": "Conv2D",
         "config": {
            "kernel_size": [
               3,
               3
            ],
            "strides": [
               1,
               1
            ],
            "bias_regularizer": null,
            "kernel_initializer": {
               "class_name": "VarianceScaling",
               "config": {
                  "distribution": "uniform",
                  "mode": "fan_avg",
                  "scale": 1.0,
                  "seed": null
               }
            },
            "bias_initializer": {
               "class_name": "Zeros",
               "config": {}
            },
            "filters": 656,
            "padding": "same",
            "kernel_constraint": null,
            "activation": "linear",
            "name": "conv2d_39",
            "kernel_regularizer": null,
            "dilation_rate": [
               1,
               1
            ],
            "data_format": "channels_first",
            "trainable": true,
            "bias_constraint": null,
            "activity_regularizer": null,
            "use_bias": true
         }
      },
      {
         "class_name": "Dropout",
         "config": {
            "name": "dropout_38",
            "trainable": true,
            "rate": 0.2
         }
      },
      {
         "class_name": "BatchNormalization",
         "config": {
            "beta_regularizer": null,
            "beta_constraint": null,
            "moving_variance_initializer": {
               "class_name": "Ones",
               "config": {}
            },
            "gamma_constraint": null,
            "moving_mean_initializer": {
               "class_name": "Zeros",
               "config": {}
            },
            "epsilon": 0.001,
            "beta_initializer": {
               "class_name": "Zeros",
               "config": {}
            },
            "gamma_regularizer": null,
            "name": "batch_normalization_39",
            "gamma_initializer": {
               "class_name": "Ones",
               "config": {}
            },
            "scale": true,
            "trainable": true,
            "momentum": 0.99,
            "center": true,
            "axis": -1
         }
      },
      {
         "class_name": "Activation",
         "config": {
            "activation": "relu",
            "name": "activation_39",
            "trainable": true
         }
      },
      {
         "class_name": "Conv2D",
         "config": {
            "kernel_size": [
               3,
               3
            ],
            "strides": [
               1,
               1
            ],
            "bias_regularizer": null,
            "kernel_initializer": {
               "class_name": "VarianceScaling",
               "config": {
                  "distribution": "uniform",
                  "mode": "fan_avg",
                  "scale": 1.0,
                  "seed": null
               }
            },
            "bias_initializer": {
               "class_name": "Zeros",
               "config": {}
            },
            "filters": 656,
            "padding": "same",
            "kernel_constraint": null,
            "activation": "linear",
            "name": "conv2d_40",
            "kernel_regularizer": null,
            "dilation_rate": [
               1,
               1
            ],
            "data_format": "channels_first",
            "trainable": true,
            "bias_constraint": null,
            "activity_regularizer": null,
            "use_bias": true
         }
      },
      {
         "class_name": "Dropout",
         "config": {
            "name": "dropout_39",
            "trainable": true,
            "rate": 0.2
         }
      },
      {
         "class_name": "BatchNormalization",
         "config": {
            "beta_regularizer": null,
            "beta_constraint": null,
            "moving_variance_initializer": {
               "class_name": "Ones",
               "config": {}
            },
            "gamma_constraint": null,
            "moving_mean_initializer": {
               "class_name": "Zeros",
               "config": {}
            },
            "epsilon": 0.001,
            "beta_initializer": {
               "class_name": "Zeros",
               "config": {}
            },
            "gamma_regularizer": null,
            "name": "batch_normalization_40",
            "gamma_initializer": {
               "class_name": "Ones",
               "config": {}
            },
            "scale": true,
            "trainable": true,
            "momentum": 0.99,
            "center": true,
            "axis": -1
         }
      },
      {
         "class_name": "Activation",
         "config": {
            "activation": "relu",
            "name": "activation_40",
            "trainable": true
         }
      },
      {
         "class_name": "Conv2D",
         "config": {
            "kernel_size": [
               3,
               3
            ],
            "strides": [
               1,
               1
            ],
            "bias_regularizer": null,
            "kernel_initializer": {
               "class_name": "VarianceScaling",
               "config": {
                  "distribution": "uniform",
                  "mode": "fan_avg",
                  "scale": 1.0,
                  "seed": null
               }
            },
            "bias_initializer": {
               "class_name": "Zeros",
               "config": {}
            },
            "filters": 656,
            "padding": "same",
            "kernel_constraint": null,
            "activation": "linear",
            "name": "conv2d_41",
            "kernel_regularizer": null,
            "dilation_rate": [
               1,
               1
            ],
            "data_format": "channels_first",
            "trainable": true,
            "bias_constraint": null,
            "activity_regularizer": null,
            "use_bias": true
         }
      },
      {
         "class_name": "Dropout",
         "config": {
            "name": "dropout_40",
            "trainable": true,
            "rate": 0.2
         }
      },
      {
         "class_name": "BatchNormalization",
         "config": {
            "beta_regularizer": null,
            "beta_constraint": null,
            "moving_variance_initializer": {
               "class_name": "Ones",
               "config": {}
            },
            "gamma_constraint": null,
            "moving_mean_initializer": {
               "class_name": "Zeros",
               "config": {}
            },
            "epsilon": 0.001,
            "beta_initializer": {
               "class_name": "Zeros",
               "config": {}
            },
            "gamma_regularizer": null,
            "name": "batch_normalization_41",
            "gamma_initializer": {
               "class_name": "Ones",
               "config": {}
            },
            "scale": true,
            "trainable": true,
            "momentum": 0.99,
            "center": true,
            "axis": -1
         }
      },
      {
         "class_name": "Activation",
         "config": {
            "activation": "relu",
            "name": "activation_41",
            "trainable": true
         }
      },
      {
         "class_name": "Conv2D",
         "config": {
            "kernel_size": [
               3,
               3
            ],
            "strides": [
               1,
               1
            ],
            "bias_regularizer": null,
            "kernel_initializer": {
               "class_name": "VarianceScaling",
               "config": {
                  "distribution": "uniform",
                  "mode": "fan_avg",
                  "scale": 1.0,
                  "seed": null
               }
            },
            "bias_initializer": {
               "class_name": "Zeros",
               "config": {}
            },
            "filters": 656,
            "padding": "same",
            "kernel_constraint": null,
            "activation": "linear",
            "name": "conv2d_42",
            "kernel_regularizer": null,
            "dilation_rate": [
               1,
               1
            ],
            "data_format": "channels_first",
            "trainable": true,
            "bias_constraint": null,
            "activity_regularizer": null,
            "use_bias": true
         }
      },
      {
         "class_name": "Dropout",
         "config": {
            "name": "dropout_41",
            "trainable": true,
            "rate": 0.2
         }
      },
      {
         "class_name": "BatchNormalization",
         "config": {
            "beta_regularizer": null,
            "beta_constraint": null,
            "moving_variance_initializer": {
               "class_name": "Ones",
               "config": {}
            },
            "gamma_constraint": null,
            "moving_mean_initializer": {
               "class_name": "Zeros",
               "config": {}
            },
            "epsilon": 0.001,
            "beta_initializer": {
               "class_name": "Zeros",
               "config": {}
            },
            "gamma_regularizer": null,
            "name": "batch_normalization_42",
            "gamma_initializer": {
               "class_name": "Ones",
               "config": {}
            },
            "scale": true,
            "trainable": true,
            "momentum": 0.99,
            "center": true,
            "axis": -1
         }
      },
      {
         "class_name": "Activation",
         "config": {
            "activation": "relu",
            "name": "activation_42",
            "trainable": true
         }
      },
      {
         "class_name": "Conv2D",
         "config": {
            "kernel_size": [
               3,
               3
            ],
            "strides": [
               1,
               1
            ],
            "bias_regularizer": null,
            "kernel_initializer": {
               "class_name": "VarianceScaling",
               "config": {
                  "distribution": "uniform",
                  "mode": "fan_avg",
                  "scale": 1.0,
                  "seed": null
               }
            },
            "bias_initializer": {
               "class_name": "Zeros",
               "config": {}
            },
            "filters": 656,
            "padding": "same",
            "kernel_constraint": null,
            "activation": "linear",
            "name": "conv2d_43",
            "kernel_regularizer": null,
            "dilation_rate": [
               1,
               1
            ],
            "data_format": "channels_first",
            "trainable": true,
            "bias_constraint": null,
            "activity_regularizer": null,
            "use_bias": true
         }
      },
      {
         "class_name": "Dropout",
         "config": {
            "name": "dropout_42",
            "trainable": true,
            "rate": 0.2
         }
      },
      {
         "class_name": "BatchNormalization",
         "config": {
            "beta_regularizer": null,
            "beta_constraint": null,
            "moving_variance_initializer": {
               "class_name": "Ones",
               "config": {}
            },
            "gamma_constraint": null,
            "moving_mean_initializer": {
               "class_name": "Zeros",
               "config": {}
            },
            "epsilon": 0.001,
            "beta_initializer": {
               "class_name": "Zeros",
               "config": {}
            },
            "gamma_regularizer": null,
            "name": "batch_normalization_43",
            "gamma_initializer": {
               "class_name": "Ones",
               "config": {}
            },
            "scale": true,
            "trainable": true,
            "momentum": 0.99,
            "center": true,
            "axis": -1
         }
      },
      {
         "class_name": "Activation",
         "config": {
            "activation": "relu",
            "name": "activation_43",
            "trainable": true
         }
      },
      {
         "class_name": "Conv2D",
         "config": {
            "kernel_size": [
               1,
               1
            ],
            "strides": [
               1,
               1
            ],
            "bias_regularizer": null,
            "kernel_initializer": {
               "class_name": "VarianceScaling",
               "config": {
                  "distribution": "uniform",
                  "mode": "fan_avg",
                  "scale": 1.0,
                  "seed": null
               }
            },
            "bias_initializer": {
               "class_name": "Zeros",
               "config": {}
            },
            "filters": 656,
            "padding": "same",
            "kernel_constraint": null,
            "activation": "linear",
            "name": "conv2d_44",
            "kernel_regularizer": null,
            "dilation_rate": [
               1,
               1
            ],
            "data_format": "channels_first",
            "trainable": true,
            "bias_constraint": null,
            "activity_regularizer": null,
            "use_bias": true
         }
      },
      {
         "class_name": "Dropout",
         "config": {
            "name": "dropout_43",
            "trainable": true,
            "rate": 0.2
         }
      },
      {
         "class_name": "MaxPooling2D",
         "config": {
            "pool_size": [
               2,
               2
            ],
            "name": "max_pooling2d_5",
            "strides": [
               2,
               2
            ],
            "data_format": "channels_first",
            "trainable": true,
            "padding": "valid"
         }
      },
      {
         "class_name": "BatchNormalization",
         "config": {
            "beta_regularizer": null,
            "beta_constraint": null,
            "moving_variance_initializer": {
               "class_name": "Ones",
               "config": {}
            },
            "gamma_constraint": null,
            "moving_mean_initializer": {
               "class_name": "Zeros",
               "config": {}
            },
            "epsilon": 0.001,
            "beta_initializer": {
               "class_name": "Zeros",
               "config": {}
            },
            "gamma_regularizer": null,
            "name": "batch_normalization_44",
            "gamma_initializer": {
               "class_name": "Ones",
               "config": {}
            },
            "scale": true,
            "trainable": true,
            "momentum": 0.99,
            "center": true,
            "axis": -1
         }
      },
      {
         "class_name": "Activation",
         "config": {
            "activation": "relu",
            "name": "activation_44",
            "trainable": true
         }
      },
      {
         "class_name": "Conv2D",
         "config": {
            "kernel_size": [
               3,
               3
            ],
            "strides": [
               1,
               1
            ],
            "bias_regularizer": null,
            "kernel_initializer": {
               "class_name": "VarianceScaling",
               "config": {
                  "distribution": "uniform",
                  "mode": "fan_avg",
                  "scale": 1.0,
                  "seed": null
               }
            },
            "bias_initializer": {
               "class_name": "Zeros",
               "config": {}
            },
            "filters": 896,
            "padding": "same",
            "kernel_constraint": null,
            "activation": "linear",
            "name": "conv2d_45",
            "kernel_regularizer": null,
            "dilation_rate": [
               1,
               1
            ],
            "data_format": "channels_first",
            "trainable": true,
            "bias_constraint": null,
            "activity_regularizer": null,
            "use_bias": true
         }
      },
      {
         "class_name": "Dropout",
         "config": {
            "name": "dropout_44",
            "trainable": true,
            "rate": 0.2
         }
      },
      {
         "class_name": "BatchNormalization",
         "config": {
            "beta_regularizer": null,
            "beta_constraint": null,
            "moving_variance_initializer": {
               "class_name": "Ones",
               "config": {}
            },
            "gamma_constraint": null,
            "moving_mean_initializer": {
               "class_name": "Zeros",
               "config": {}
            },
            "epsilon": 0.001,
            "beta_initializer": {
               "class_name": "Zeros",
               "config": {}
            },
            "gamma_regularizer": null,
            "name": "batch_normalization_45",
            "gamma_initializer": {
               "class_name": "Ones",
               "config": {}
            },
            "scale": true,
            "trainable": true,
            "momentum": 0.99,
            "center": true,
            "axis": -1
         }
      },
      {
         "class_name": "Activation",
         "config": {
            "activation": "relu",
            "name": "activation_45",
            "trainable": true
         }
      },
      {
         "class_name": "Conv2D",
         "config": {
            "kernel_size": [
               3,
               3
            ],
            "strides": [
               1,
               1
            ],
            "bias_regularizer": null,
            "kernel_initializer": {
               "class_name": "VarianceScaling",
               "config": {
                  "distribution": "uniform",
                  "mode": "fan_avg",
                  "scale": 1.0,
                  "seed": null
               }
            },
            "bias_initializer": {
               "class_name": "Zeros",
               "config": {}
            },
            "filters": 896,
            "padding": "same",
            "kernel_constraint": null,
            "activation": "linear",
            "name": "conv2d_46",
            "kernel_regularizer": null,
            "dilation_rate": [
               1,
               1
            ],
            "data_format": "channels_first",
            "trainable": true,
            "bias_constraint": null,
            "activity_regularizer": null,
            "use_bias": true
         }
      },
      {
         "class_name": "Dropout",
         "config": {
            "name": "dropout_45",
            "trainable": true,
            "rate": 0.2
         }
      },
      {
         "class_name": "BatchNormalization",
         "config": {
            "beta_regularizer": null,
            "beta_constraint": null,
            "moving_variance_initializer": {
               "class_name": "Ones",
               "config": {}
            },
            "gamma_constraint": null,
            "moving_mean_initializer": {
               "class_name": "Zeros",
               "config": {}
            },
            "epsilon": 0.001,
            "beta_initializer": {
               "class_name": "Zeros",
               "config": {}
            },
            "gamma_regularizer": null,
            "name": "batch_normalization_46",
            "gamma_initializer": {
               "class_name": "Ones",
               "config": {}
            },
            "scale": true,
            "trainable": true,
            "momentum": 0.99,
            "center": true,
            "axis": -1
         }
      },
      {
         "class_name": "Activation",
         "config": {
            "activation": "relu",
            "name": "activation_46",
            "trainable": true
         }
      },
      {
         "class_name": "Conv2D",
         "config": {
            "kernel_size": [
               3,
               3
            ],
            "strides": [
               1,
               1
            ],
            "bias_regularizer": null,
            "kernel_initializer": {
               "class_name": "VarianceScaling",
               "config": {
                  "distribution": "uniform",
                  "mode": "fan_avg",
                  "scale": 1.0,
                  "seed": null
               }
            },
            "bias_initializer": {
               "class_name": "Zeros",
               "config": {}
            },
            "filters": 896,
            "padding": "same",
            "kernel_constraint": null,
            "activation": "linear",
            "name": "conv2d_47",
            "kernel_regularizer": null,
            "dilation_rate": [
               1,
               1
            ],
            "data_format": "channels_first",
            "trainable": true,
            "bias_constraint": null,
            "activity_regularizer": null,
            "use_bias": true
         }
      },
      {
         "class_name": "Dropout",
         "config": {
            "name": "dropout_46",
            "trainable": true,
            "rate": 0.2
         }
      },
      {
         "class_name": "BatchNormalization",
         "config": {
            "beta_regularizer": null,
            "beta_constraint": null,
            "moving_variance_initializer": {
               "class_name": "Ones",
               "config": {}
            },
            "gamma_constraint": null,
            "moving_mean_initializer": {
               "class_name": "Zeros",
               "config": {}
            },
            "epsilon": 0.001,
            "beta_initializer": {
               "class_name": "Zeros",
               "config": {}
            },
            "gamma_regularizer": null,
            "name": "batch_normalization_47",
            "gamma_initializer": {
               "class_name": "Ones",
               "config": {}
            },
            "scale": true,
            "trainable": true,
            "momentum": 0.99,
            "center": true,
            "axis": -1
         }
      },
      {
         "class_name": "Activation",
         "config": {
            "activation": "relu",
            "name": "activation_47",
            "trainable": true
         }
      },
      {
         "class_name": "Conv2D",
         "config": {
            "kernel_size": [
               3,
               3
            ],
            "strides": [
               1,
               1
            ],
            "bias_regularizer": null,
            "kernel_initializer": {
               "class_name": "VarianceScaling",
               "config": {
                  "distribution": "uniform",
                  "mode": "fan_avg",
                  "scale": 1.0,
                  "seed": null
               }
            },
            "bias_initializer": {
               "class_name": "Zeros",
               "config": {}
            },
            "filters": 896,
            "padding": "same",
            "kernel_constraint": null,
            "activation": "linear",
            "name": "conv2d_48",
            "kernel_regularizer": null,
            "dilation_rate": [
               1,
               1
            ],
            "data_format": "channels_first",
            "trainable": true,
            "bias_constraint": null,
            "activity_regularizer": null,
            "use_bias": true
         }
      },
      {
         "class_name": "Dropout",
         "config": {
            "name": "dropout_47",
            "trainable": true,
            "rate": 0.2
         }
      },
      {
         "class_name": "BatchNormalization",
         "config": {
            "beta_regularizer": null,
            "beta_constraint": null,
            "moving_variance_initializer": {
               "class_name": "Ones",
               "config": {}
            },
            "gamma_constraint": null,
            "moving_mean_initializer": {
               "class_name": "Zeros",
               "config": {}
            },
            "epsilon": 0.001,
            "beta_initializer": {
               "class_name": "Zeros",
               "config": {}
            },
            "gamma_regularizer": null,
            "name": "batch_normalization_48",
            "gamma_initializer": {
               "class_name": "Ones",
               "config": {}
            },
            "scale": true,
            "trainable": true,
            "momentum": 0.99,
            "center": true,
            "axis": -1
         }
      },
      {
         "class_name": "Activation",
         "config": {
            "activation": "relu",
            "name": "activation_48",
            "trainable": true
         }
      },
      {
         "class_name": "Conv2D",
         "config": {
            "kernel_size": [
               3,
               3
            ],
            "strides": [
               1,
               1
            ],
            "bias_regularizer": null,
            "kernel_initializer": {
               "class_name": "VarianceScaling",
               "config": {
                  "distribution": "uniform",
                  "mode": "fan_avg",
                  "scale": 1.0,
                  "seed": null
               }
            },
            "bias_initializer": {
               "class_name": "Zeros",
               "config": {}
            },
            "filters": 896,
            "padding": "same",
            "kernel_constraint": null,
            "activation": "linear",
            "name": "conv2d_49",
            "kernel_regularizer": null,
            "dilation_rate": [
               1,
               1
            ],
            "data_format": "channels_first",
            "trainable": true,
            "bias_constraint": null,
            "activity_regularizer": null,
            "use_bias": true
         }
      },
      {
         "class_name": "Dropout",
         "config": {
            "name": "dropout_48",
            "trainable": true,
            "rate": 0.2
         }
      },
      {
         "class_name": "BatchNormalization",
         "config": {
            "beta_regularizer": null,
            "beta_constraint": null,
            "moving_variance_initializer": {
               "class_name": "Ones",
               "config": {}
            },
            "gamma_constraint": null,
            "moving_mean_initializer": {
               "class_name": "Zeros",
               "config": {}
            },
            "epsilon": 0.001,
            "beta_initializer": {
               "class_name": "Zeros",
               "config": {}
            },
            "gamma_regularizer": null,
            "name": "batch_normalization_49",
            "gamma_initializer": {
               "class_name": "Ones",
               "config": {}
            },
            "scale": true,
            "trainable": true,
            "momentum": 0.99,
            "center": true,
            "axis": -1
         }
      },
      {
         "class_name": "Activation",
         "config": {
            "activation": "relu",
            "name": "activation_49",
            "trainable": true
         }
      },
      {
         "class_name": "Conv2D",
         "config": {
            "kernel_size": [
               3,
               3
            ],
            "strides": [
               1,
               1
            ],
            "bias_regularizer": null,
            "kernel_initializer": {
               "class_name": "VarianceScaling",
               "config": {
                  "distribution": "uniform",
                  "mode": "fan_avg",
                  "scale": 1.0,
                  "seed": null
               }
            },
            "bias_initializer": {
               "class_name": "Zeros",
               "config": {}
            },
            "filters": 896,
            "padding": "same",
            "kernel_constraint": null,
            "activation": "linear",
            "name": "conv2d_50",
            "kernel_regularizer": null,
            "dilation_rate": [
               1,
               1
            ],
            "data_format": "channels_first",
            "trainable": true,
            "bias_constraint": null,
            "activity_regularizer": null,
            "use_bias": true
         }
      },
      {
         "class_name": "Dropout",
         "config": {
            "name": "dropout_49",
            "trainable": true,
            "rate": 0.2
         }
      },
      {
         "class_name": "BatchNormalization",
         "config": {
            "beta_regularizer": null,
            "beta_constraint": null,
            "moving_variance_initializer": {
               "class_name": "Ones",
               "config": {}
            },
            "gamma_constraint": null,
            "moving_mean_initializer": {
               "class_name": "Zeros",
               "config": {}
            },
            "epsilon": 0.001,
            "beta_initializer": {
               "class_name": "Zeros",
               "config": {}
            },
            "gamma_regularizer": null,
            "name": "batch_normalization_50",
            "gamma_initializer": {
               "class_name": "Ones",
               "config": {}
            },
            "scale": true,
            "trainable": true,
            "momentum": 0.99,
            "center": true,
            "axis": -1
         }
      },
      {
         "class_name": "Activation",
         "config": {
            "activation": "relu",
            "name": "activation_50",
            "trainable": true
         }
      },
      {
         "class_name": "Conv2D",
         "config": {
            "kernel_size": [
               3,
               3
            ],
            "strides": [
               1,
               1
            ],
            "bias_regularizer": null,
            "kernel_initializer": {
               "class_name": "VarianceScaling",
               "config": {
                  "distribution": "uniform",
                  "mode": "fan_avg",
                  "scale": 1.0,
                  "seed": null
               }
            },
            "bias_initializer": {
               "class_name": "Zeros",
               "config": {}
            },
            "filters": 896,
            "padding": "same",
            "kernel_constraint": null,
            "activation": "linear",
            "name": "conv2d_51",
            "kernel_regularizer": null,
            "dilation_rate": [
               1,
               1
            ],
            "data_format": "channels_first",
            "trainable": true,
            "bias_constraint": null,
            "activity_regularizer": null,
            "use_bias": true
         }
      },
      {
         "class_name": "Dropout",
         "config": {
            "name": "dropout_50",
            "trainable": true,
            "rate": 0.2
         }
      },
      {
         "class_name": "BatchNormalization",
         "config": {
            "beta_regularizer": null,
            "beta_constraint": null,
            "moving_variance_initializer": {
               "class_name": "Ones",
               "config": {}
            },
            "gamma_constraint": null,
            "moving_mean_initializer": {
               "class_name": "Zeros",
               "config": {}
            },
            "epsilon": 0.001,
            "beta_initializer": {
               "class_name": "Zeros",
               "config": {}
            },
            "gamma_regularizer": null,
            "name": "batch_normalization_51",
            "gamma_initializer": {
               "class_name": "Ones",
               "config": {}
            },
            "scale": true,
            "trainable": true,
            "momentum": 0.99,
            "center": true,
            "axis": -1
         }
      },
      {
         "class_name": "Activation",
         "config": {
            "activation": "relu",
            "name": "activation_51",
            "trainable": true
         }
      },
      {
         "class_name": "Conv2D",
         "config": {
            "kernel_size": [
               3,
               3
            ],
            "strides": [
               1,
               1
            ],
            "bias_regularizer": null,
            "kernel_initializer": {
               "class_name": "VarianceScaling",
               "config": {
                  "distribution": "uniform",
                  "mode": "fan_avg",
                  "scale": 1.0,
                  "seed": null
               }
            },
            "bias_initializer": {
               "class_name": "Zeros",
               "config": {}
            },
            "filters": 896,
            "padding": "same",
            "kernel_constraint": null,
            "activation": "linear",
            "name": "conv2d_52",
            "kernel_regularizer": null,
            "dilation_rate": [
               1,
               1
            ],
            "data_format": "channels_first",
            "trainable": true,
            "bias_constraint": null,
            "activity_regularizer": null,
            "use_bias": true
         }
      },
      {
         "class_name": "Dropout",
         "config": {
            "name": "dropout_51",
            "trainable": true,
            "rate": 0.2
         }
      },
      {
         "class_name": "BatchNormalization",
         "config": {
            "beta_regularizer": null,
            "beta_constraint": null,
            "moving_variance_initializer": {
               "class_name": "Ones",
               "config": {}
            },
            "gamma_constraint": null,
            "moving_mean_initializer": {
               "class_name": "Zeros",
               "config": {}
            },
            "epsilon": 0.001,
            "beta_initializer": {
               "class_name": "Zeros",
               "config": {}
            },
            "gamma_regularizer": null,
            "name": "batch_normalization_52",
            "gamma_initializer": {
               "class_name": "Ones",
               "config": {}
            },
            "scale": true,
            "trainable": true,
            "momentum": 0.99,
            "center": true,
            "axis": -1
         }
      },
      {
         "class_name": "Activation",
         "config": {
            "activation": "relu",
            "name": "activation_52",
            "trainable": true
         }
      },
      {
         "class_name": "Conv2D",
         "config": {
            "kernel_size": [
               3,
               3
            ],
            "strides": [
               1,
               1
            ],
            "bias_regularizer": null,
            "kernel_initializer": {
               "class_name": "VarianceScaling",
               "config": {
                  "distribution": "uniform",
                  "mode": "fan_avg",
                  "scale": 1.0,
                  "seed": null
               }
            },
            "bias_initializer": {
               "class_name": "Zeros",
               "config": {}
            },
            "filters": 896,
            "padding": "same",
            "kernel_constraint": null,
            "activation": "linear",
            "name": "conv2d_53",
            "kernel_regularizer": null,
            "dilation_rate": [
               1,
               1
            ],
            "data_format": "channels_first",
            "trainable": true,
            "bias_constraint": null,
            "activity_regularizer": null,
            "use_bias": true
         }
      },
      {
         "class_name": "Dropout",
         "config": {
            "name": "dropout_52",
            "trainable": true,
            "rate": 0.2
         }
      },
      {
         "class_name": "BatchNormalization",
         "config": {
            "beta_regularizer": null,
            "beta_constraint": null,
            "moving_variance_initializer": {
               "class_name": "Ones",
               "config": {}
            },
            "gamma_constraint": null,
            "moving_mean_initializer": {
               "class_name": "Zeros",
               "config": {}
            },
            "epsilon": 0.001,
            "beta_initializer": {
               "class_name": "Zeros",
               "config": {}
            },
            "gamma_regularizer": null,
            "name": "batch_normalization_53",
            "gamma_initializer": {
               "class_name": "Ones",
               "config": {}
            },
            "scale": true,
            "trainable": true,
            "momentum": 0.99,
            "center": true,
            "axis": -1
         }
      },
      {
         "class_name": "Activation",
         "config": {
            "activation": "relu",
            "name": "activation_53",
            "trainable": true
         }
      },
      {
         "class_name": "Conv2D",
         "config": {
            "kernel_size": [
               3,
               3
            ],
            "strides": [
               1,
               1
            ],
            "bias_regularizer": null,
            "kernel_initializer": {
               "class_name": "VarianceScaling",
               "config": {
                  "distribution": "uniform",
                  "mode": "fan_avg",
                  "scale": 1.0,
                  "seed": null
               }
            },
            "bias_initializer": {
               "class_name": "Zeros",
               "config": {}
            },
            "filters": 896,
            "padding": "same",
            "kernel_constraint": null,
            "activation": "linear",
            "name": "conv2d_54",
            "kernel_regularizer": null,
            "dilation_rate": [
               1,
               1
            ],
            "data_format": "channels_first",
            "trainable": true,
            "bias_constraint": null,
            "activity_regularizer": null,
            "use_bias": true
         }
      },
      {
         "class_name": "Dropout",
         "config": {
            "name": "dropout_53",
            "trainable": true,
            "rate": 0.2
         }
      },
      {
         "class_name": "BatchNormalization",
         "config": {
            "beta_regularizer": null,
            "beta_constraint": null,
            "moving_variance_initializer": {
               "class_name": "Ones",
               "config": {}
            },
            "gamma_constraint": null,
            "moving_mean_initializer": {
               "class_name": "Zeros",
               "config": {}
            },
            "epsilon": 0.001,
            "beta_initializer": {
               "class_name": "Zeros",
               "config": {}
            },
            "gamma_regularizer": null,
            "name": "batch_normalization_54",
            "gamma_initializer": {
               "class_name": "Ones",
               "config": {}
            },
            "scale": true,
            "trainable": true,
            "momentum": 0.99,
            "center": true,
            "axis": -1
         }
      },
      {
         "class_name": "Activation",
         "config": {
            "activation": "relu",
            "name": "activation_54",
            "trainable": true
         }
      },
      {
         "class_name": "Conv2D",
         "config": {
            "kernel_size": [
               3,
               3
            ],
            "strides": [
               1,
               1
            ],
            "bias_regularizer": null,
            "kernel_initializer": {
               "class_name": "VarianceScaling",
               "config": {
                  "distribution": "uniform",
                  "mode": "fan_avg",
                  "scale": 1.0,
                  "seed": null
               }
            },
            "bias_initializer": {
               "class_name": "Zeros",
               "config": {}
            },
            "filters": 896,
            "padding": "same",
            "kernel_constraint": null,
            "activation": "linear",
            "name": "conv2d_55",
            "kernel_regularizer": null,
            "dilation_rate": [
               1,
               1
            ],
            "data_format": "channels_first",
            "trainable": true,
            "bias_constraint": null,
            "activity_regularizer": null,
            "use_bias": true
         }
      },
      {
         "class_name": "Dropout",
         "config": {
            "name": "dropout_54",
            "trainable": true,
            "rate": 0.2
         }
      },
      {
         "class_name": "BatchNormalization",
         "config": {
            "beta_regularizer": null,
            "beta_constraint": null,
            "moving_variance_initializer": {
               "class_name": "Ones",
               "config": {}
            },
            "gamma_constraint": null,
            "moving_mean_initializer": {
               "class_name": "Zeros",
               "config": {}
            },
            "epsilon": 0.001,
            "beta_initializer": {
               "class_name": "Zeros",
               "config": {}
            },
            "gamma_regularizer": null,
            "name": "batch_normalization_55",
            "gamma_initializer": {
               "class_name": "Ones",
               "config": {}
            },
            "scale": true,
            "trainable": true,
            "momentum": 0.99,
            "center": true,
            "axis": -1
         }
      },
      {
         "class_name": "Activation",
         "config": {
            "activation": "relu",
            "name": "activation_55",
            "trainable": true
         }
      },
      {
         "class_name": "Conv2D",
         "config": {
            "kernel_size": [
               3,
               3
            ],
            "strides": [
               1,
               1
            ],
            "bias_regularizer": null,
            "kernel_initializer": {
               "class_name": "VarianceScaling",
               "config": {
                  "distribution": "uniform",
                  "mode": "fan_avg",
                  "scale": 1.0,
                  "seed": null
               }
            },
            "bias_initializer": {
               "class_name": "Zeros",
               "config": {}
            },
            "filters": 896,
            "padding": "same",
            "kernel_constraint": null,
            "activation": "linear",
            "name": "conv2d_56",
            "kernel_regularizer": null,
            "dilation_rate": [
               1,
               1
            ],
            "data_format": "channels_first",
            "trainable": true,
            "bias_constraint": null,
            "activity_regularizer": null,
            "use_bias": true
         }
      },
      {
         "class_name": "Dropout",
         "config": {
            "name": "dropout_55",
            "trainable": true,
            "rate": 0.2
         }
      },
      {
         "class_name": "BatchNormalization",
         "config": {
            "beta_regularizer": null,
            "beta_constraint": null,
            "moving_variance_initializer": {
               "class_name": "Ones",
               "config": {}
            },
            "gamma_constraint": null,
            "moving_mean_initializer": {
               "class_name": "Zeros",
               "config": {}
            },
            "epsilon": 0.001,
            "beta_initializer": {
               "class_name": "Zeros",
               "config": {}
            },
            "gamma_regularizer": null,
            "name": "batch_normalization_56",
            "gamma_initializer": {
               "class_name": "Ones",
               "config": {}
            },
            "scale": true,
            "trainable": true,
            "momentum": 0.99,
            "center": true,
            "axis": -1
         }
      },
      {
         "class_name": "Activation",
         "config": {
            "activation": "relu",
            "name": "activation_56",
            "trainable": true
         }
      },
      {
         "class_name": "Conv2D",
         "config": {
            "kernel_size": [
               3,
               3
            ],
            "strides": [
               1,
               1
            ],
            "bias_regularizer": null,
            "kernel_initializer": {
               "class_name": "VarianceScaling",
               "config": {
                  "distribution": "uniform",
                  "mode": "fan_avg",
                  "scale": 1.0,
                  "seed": null
               }
            },
            "bias_initializer": {
               "class_name": "Zeros",
               "config": {}
            },
            "filters": 896,
            "padding": "same",
            "kernel_constraint": null,
            "activation": "linear",
            "name": "conv2d_57",
            "kernel_regularizer": null,
            "dilation_rate": [
               1,
               1
            ],
            "data_format": "channels_first",
            "trainable": true,
            "bias_constraint": null,
            "activity_regularizer": null,
            "use_bias": true
         }
      },
      {
         "class_name": "Dropout",
         "config": {
            "name": "dropout_56",
            "trainable": true,
            "rate": 0.2
         }
      },
      {
         "class_name": "BatchNormalization",
         "config": {
            "beta_regularizer": null,
            "beta_constraint": null,
            "moving_variance_initializer": {
               "class_name": "Ones",
               "config": {}
            },
            "gamma_constraint": null,
            "moving_mean_initializer": {
               "class_name": "Zeros",
               "config": {}
            },
            "epsilon": 0.001,
            "beta_initializer": {
               "class_name": "Zeros",
               "config": {}
            },
            "gamma_regularizer": null,
            "name": "batch_normalization_57",
            "gamma_initializer": {
               "class_name": "Ones",
               "config": {}
            },
            "scale": true,
            "trainable": true,
            "momentum": 0.99,
            "center": true,
            "axis": -1
         }
      },
      {
         "class_name": "Activation",
         "config": {
            "activation": "relu",
            "name": "activation_57",
            "trainable": true
         }
      },
      {
         "class_name": "Conv2D",
         "config": {
            "kernel_size": [
               3,
               3
            ],
            "strides": [
               1,
               1
            ],
            "bias_regularizer": null,
            "kernel_initializer": {
               "class_name": "VarianceScaling",
               "config": {
                  "distribution": "uniform",
                  "mode": "fan_avg",
                  "scale": 1.0,
                  "seed": null
               }
            },
            "bias_initializer": {
               "class_name": "Zeros",
               "config": {}
            },
            "filters": 896,
            "padding": "same",
            "kernel_constraint": null,
            "activation": "linear",
            "name": "conv2d_58",
            "kernel_regularizer": null,
            "dilation_rate": [
               1,
               1
            ],
            "data_format": "channels_first",
            "trainable": true,
            "bias_constraint": null,
            "activity_regularizer": null,
            "use_bias": true
         }
      },
      {
         "class_name": "Dropout",
         "config": {
            "name": "dropout_57",
            "trainable": true,
            "rate": 0.2
         }
      },
      {
         "class_name": "BatchNormalization",
         "config": {
            "beta_regularizer": null,
            "beta_constraint": null,
            "moving_variance_initializer": {
               "class_name": "Ones",
               "config": {}
            },
            "gamma_constraint": null,
            "moving_mean_initializer": {
               "class_name": "Zeros",
               "config": {}
            },
            "epsilon": 0.001,
            "beta_initializer": {
               "class_name": "Zeros",
               "config": {}
            },
            "gamma_regularizer": null,
            "name": "batch_normalization_58",
            "gamma_initializer": {
               "class_name": "Ones",
               "config": {}
            },
            "scale": true,
            "trainable": true,
            "momentum": 0.99,
            "center": true,
            "axis": -1
         }
      },
      {
         "class_name": "Activation",
         "config": {
            "activation": "relu",
            "name": "activation_58",
            "trainable": true
         }
      },
      {
         "class_name": "Conv2D",
         "config": {
            "kernel_size": [
               3,
               3
            ],
            "strides": [
               1,
               1
            ],
            "bias_regularizer": null,
            "kernel_initializer": {
               "class_name": "VarianceScaling",
               "config": {
                  "distribution": "uniform",
                  "mode": "fan_avg",
                  "scale": 1.0,
                  "seed": null
               }
            },
            "bias_initializer": {
               "class_name": "Zeros",
               "config": {}
            },
            "filters": 896,
            "padding": "same",
            "kernel_constraint": null,
            "activation": "linear",
            "name": "conv2d_59",
            "kernel_regularizer": null,
            "dilation_rate": [
               1,
               1
            ],
            "data_format": "channels_first",
            "trainable": true,
            "bias_constraint": null,
            "activity_regularizer": null,
            "use_bias": true
         }
      },
      {
         "class_name": "Dropout",
         "config": {
            "name": "dropout_58",
            "trainable": true,
            "rate": 0.2
         }
      },
      {
         "class_name": "Conv2DTranspose",
         "config": {
            "kernel_size": [
               3,
               3
            ],
            "strides": [
               2,
               2
            ],
            "dtype": "float32",
            "bias_regularizer": null,
            "kernel_initializer": {
               "class_name": "VarianceScaling",
               "config": {
                  "distribution": "uniform",
                  "mode": "fan_avg",
                  "scale": 1.0,
                  "seed": null
               }
            },
            "batch_input_shape": [
               null,
               1088,
               7,
               7
            ],
            "filters": 1088,
            "padding": "same",
            "kernel_constraint": null,
            "activation": "linear",
            "name": "conv2d_transpose_1",
            "kernel_regularizer": null,
            "use_bias": true,
            "data_format": "channels_first",
            "trainable": true,
            "bias_constraint": null,
            "activity_regularizer": null,
            "bias_initializer": {
               "class_name": "Zeros",
               "config": {}
            }
         }
      },
      {
         "class_name": "BatchNormalization",
         "config": {
            "beta_regularizer": null,
            "beta_constraint": null,
            "moving_variance_initializer": {
               "class_name": "Ones",
               "config": {}
            },
            "gamma_constraint": null,
            "moving_mean_initializer": {
               "class_name": "Zeros",
               "config": {}
            },
            "epsilon": 0.001,
            "beta_initializer": {
               "class_name": "Zeros",
               "config": {}
            },
            "gamma_regularizer": null,
            "name": "batch_normalization_59",
            "gamma_initializer": {
               "class_name": "Ones",
               "config": {}
            },
            "scale": true,
            "trainable": true,
            "momentum": 0.99,
            "center": true,
            "axis": -1
         }
      },
      {
         "class_name": "Activation",
         "config": {
            "activation": "relu",
            "name": "activation_59",
            "trainable": true
         }
      },
      {
         "class_name": "Conv2D",
         "config": {
            "kernel_size": [
               3,
               3
            ],
            "strides": [
               1,
               1
            ],
            "bias_regularizer": null,
            "kernel_initializer": {
               "class_name": "VarianceScaling",
               "config": {
                  "distribution": "uniform",
                  "mode": "fan_avg",
                  "scale": 1.0,
                  "seed": null
               }
            },
            "bias_initializer": {
               "class_name": "Zeros",
               "config": {}
            },
            "filters": 1088,
            "padding": "same",
            "kernel_constraint": null,
            "activation": "linear",
            "name": "conv2d_60",
            "kernel_regularizer": null,
            "dilation_rate": [
               1,
               1
            ],
            "data_format": "channels_first",
            "trainable": true,
            "bias_constraint": null,
            "activity_regularizer": null,
            "use_bias": true
         }
      },
      {
         "class_name": "Dropout",
         "config": {
            "name": "dropout_59",
            "trainable": true,
            "rate": 0.2
         }
      },
      {
         "class_name": "BatchNormalization",
         "config": {
            "beta_regularizer": null,
            "beta_constraint": null,
            "moving_variance_initializer": {
               "class_name": "Ones",
               "config": {}
            },
            "gamma_constraint": null,
            "moving_mean_initializer": {
               "class_name": "Zeros",
               "config": {}
            },
            "epsilon": 0.001,
            "beta_initializer": {
               "class_name": "Zeros",
               "config": {}
            },
            "gamma_regularizer": null,
            "name": "batch_normalization_60",
            "gamma_initializer": {
               "class_name": "Ones",
               "config": {}
            },
            "scale": true,
            "trainable": true,
            "momentum": 0.99,
            "center": true,
            "axis": -1
         }
      },
      {
         "class_name": "Activation",
         "config": {
            "activation": "relu",
            "name": "activation_60",
            "trainable": true
         }
      },
      {
         "class_name": "Conv2D",
         "config": {
            "kernel_size": [
…
            "data_format": "channels_first",
            "trainable": true,
            "bias_constraint": null,
            "activity_regularizer": null,
            "use_bias": true
         }
      },
      {
         "class_name": "Dropout",
         "config": {
            "name": "dropout_78",
            "trainable": true,
            "rate": 0.2
         }
      },
      {
         "class_name": "BatchNormalization",
         "config": {
            "beta_regularizer": null,
            "beta_constraint": null,
            "moving_variance_initializer": {
               "class_name": "Ones",
               "config": {}
            },
            "gamma_constraint": null,
            "moving_mean_initializer": {
               "class_name": "Zeros",
               "config": {}
            },
            "epsilon": 0.001,
            "beta_initializer": {
               "class_name": "Zeros",
               "config": {}
            },
            "gamma_regularizer": null,
            "name": "batch_normalization_79",
            "gamma_initializer": {
               "class_name": "Ones",
               "config": {}
            },
            "scale": true,
            "trainable": true,
            "momentum": 0.99,
            "center": true,
            "axis": -1
         }
      },
      {
         "class_name": "Activation",
         "config": {
            "activation": "relu",
            "name": "activation_79",
            "trainable": true
         }
      },
      {
         "class_name": "Conv2D",
         "config": {
            "kernel_size": [
               3,
               3
            ],
            "strides": [
               1,
               1
            ],
            "bias_regularizer": null,
            "kernel_initializer": {
               "class_name": "VarianceScaling",
               "config": {
                  "distribution": "uniform",
                  "mode": "fan_avg",
                  "scale": 1.0,
                  "seed": null
               }
            },
            "bias_initializer": {
               "class_name": "Zeros",
               "config": {}
            },
            "filters": 816,
            "padding": "same",
            "kernel_constraint": null,
            "activation": "linear",
            "name": "conv2d_80",
            "kernel_regularizer": null,
            "dilation_rate": [
               1,
               1
            ],
            "data_format": "channels_first",
            "trainable": true,
            "bias_constraint": null,
            "activity_regularizer": null,
            "use_bias": true
         }
      },
      {
         "class_name": "Dropout",
         "config": {
            "name": "dropout_79",
            "trainable": true,
            "rate": 0.2
         }
      },
      {
         "class_name": "BatchNormalization",
         "config": {
            "beta_regularizer": null,
            "beta_constraint": null,
            "moving_variance_initializer": {
               "class_name": "Ones",
               "config": {}
            },
            "gamma_constraint": null,
            "moving_mean_initializer": {
               "class_name": "Zeros",
               "config": {}
            },
            "epsilon": 0.001,
            "beta_initializer": {
               "class_name": "Zeros",
               "config": {}
            },
            "gamma_regularizer": null,
            "name": "batch_normalization_80",
            "gamma_initializer": {
               "class_name": "Ones",
               "config": {}
            },
            "scale": true,
            "trainable": true,
            "momentum": 0.99,
            "center": true,
            "axis": -1
         }
      },
      {
         "class_name": "Activation",
         "config": {
            "activation": "relu",
            "name": "activation_80",
            "trainable": true
         }
      },
      {
         "class_name": "Conv2D",
         "config": {
            "kernel_size": [
               3,
               3
            ],
            "strides": [
               1,
               1
            ],
            "bias_regularizer": null,
            "kernel_initializer": {
               "class_name": "VarianceScaling",
               "config": {
                  "distribution": "uniform",
                  "mode": "fan_avg",
                  "scale": 1.0,
                  "seed": null
               }
            },
            "bias_initializer": {
               "class_name": "Zeros",
               "config": {}
            },
            "filters": 816,
            "padding": "same",
            "kernel_constraint": null,
            "activation": "linear",
            "name": "conv2d_81",
            "kernel_regularizer": null,
            "dilation_rate": [
               1,
               1
            ],
            "data_format": "channels_first",
            "trainable": true,
            "bias_constraint": null,
            "activity_regularizer": null,
            "use_bias": true
         }
      },
      {
         "class_name": "Dropout",
         "config": {
            "name": "dropout_80",
            "trainable": true,
            "rate": 0.2
         }
      },
      {
         "class_name": "Conv2DTranspose",
         "config": {
            "kernel_size": [
               3,
               3
            ],
            "strides": [
               2,
               2
            ],
            "dtype": "float32",
            "bias_regularizer": null,
            "kernel_initializer": {
               "class_name": "VarianceScaling",
               "config": {
                  "distribution": "uniform",
                  "mode": "fan_avg",
                  "scale": 1.0,
                  "seed": null
               }
            },
            "batch_input_shape": [
               null,
               576,
               28,
               28
            ],
            "filters": 576,
            "padding": "same",
            "kernel_constraint": null,
            "activation": "linear",
            "name": "conv2d_transpose_3",
            "kernel_regularizer": null,
            "use_bias": true,
            "data_format": "channels_first",
            "trainable": true,
            "bias_constraint": null,
            "activity_regularizer": null,
            "bias_initializer": {
               "class_name": "Zeros",
               "config": {}
            }
         }
      },
      {
         "class_name": "BatchNormalization",
         "config": {
            "beta_regularizer": null,
            "beta_constraint": null,
            "moving_variance_initializer": {
               "class_name": "Ones",
               "config": {}
            },
            "gamma_constraint": null,
            "moving_mean_initializer": {
               "class_name": "Zeros",
               "config": {}
            },
            "epsilon": 0.001,
            "beta_initializer": {
               "class_name": "Zeros",
               "config": {}
            },
            "gamma_regularizer": null,
            "name": "batch_normalization_81",
            "gamma_initializer": {
               "class_name": "Ones",
               "config": {}
            },
            "scale": true,
            "trainable": true,
            "momentum": 0.99,
            "center": true,
            "axis": -1
         }
      },
      {
         "class_name": "Activation",
         "config": {
            "activation": "relu",
            "name": "activation_81",
            "trainable": true
         }
      },
      {
         "class_name": "Conv2D",
         "config": {
            "kernel_size": [
               3,
               3
            ],
            "strides": [
               1,
               1
            ],
            "bias_regularizer": null,
            "kernel_initializer": {
               "class_name": "VarianceScaling",
               "config": {
                  "distribution": "uniform",
                  "mode": "fan_avg",
                  "scale": 1.0,
                  "seed": null
               }
            },
            "bias_initializer": {
               "class_name": "Zeros",
               "config": {}
            },
            "filters": 576,
            "padding": "same",
            "kernel_constraint": null,
            "activation": "linear",
            "name": "conv2d_82",
            "kernel_regularizer": null,
            "dilation_rate": [
               1,
               1
            ],
            "data_format": "channels_first",
            "trainable": true,
            "bias_constraint": null,
            "activity_regularizer": null,
            "use_bias": true
         }
      },
      {
         "class_name": "Dropout",
         "config": {
            "name": "dropout_81",
            "trainable": true,
            "rate": 0.2
         }
      },
      {
         "class_name": "BatchNormalization",
         "config": {
            "beta_regularizer": null,
            "beta_constraint": null,
            "moving_variance_initializer": {
               "class_name": "Ones",
               "config": {}
            },
            "gamma_constraint": null,
            "moving_mean_initializer": {
               "class_name": "Zeros",
               "config": {}
            },
            "epsilon": 0.001,
            "beta_initializer": {
               "class_name": "Zeros",
               "config": {}
            },
            "gamma_regularizer": null,
            "name": "batch_normalization_82",
            "gamma_initializer": {
               "class_name": "Ones",
               "config": {}
            },
            "scale": true,
            "trainable": true,
            "momentum": 0.99,
            "center": true,
            "axis": -1
         }
      },
      {
         "class_name": "Activation",
         "config": {
            "activation": "relu",
            "name": "activation_82",
            "trainable": true
         }
      },
      {
         "class_name": "Conv2D",
         "config": {
            "kernel_size": [
               3,
               3
            ],
            "strides": [
               1,
               1
            ],
            "bias_regularizer": null,
            "kernel_initializer": {
               "class_name": "VarianceScaling",
               "config": {
                  "distribution": "uniform",
                  "mode": "fan_avg",
                  "scale": 1.0,
                  "seed": null
               }
            },
            "bias_initializer": {
               "class_name": "Zeros",
               "config": {}
            },
            "filters": 576,
            "padding": "same",
            "kernel_constraint": null,
            "activation": "linear",
            "name": "conv2d_83",
            "kernel_regularizer": null,
            "dilation_rate": [
               1,
               1
            ],
            "data_format": "channels_first",
            "trainable": true,
            "bias_constraint": null,
            "activity_regularizer": null,
            "use_bias": true
         }
      },
      {
         "class_name": "Dropout",
         "config": {
            "name": "dropout_82",
            "trainable": true,
            "rate": 0.2
         }
      },
      {
         "class_name": "BatchNormalization",
         "config": {
            "beta_regularizer": null,
            "beta_constraint": null,
            "moving_variance_initializer": {
               "class_name": "Ones",
               "config": {}
            },
            "gamma_constraint": null,
            "moving_mean_initializer": {
               "class_name": "Zeros",
               "config": {}
            },
            "epsilon": 0.001,
            "beta_initializer": {
               "class_name": "Zeros",
               "config": {}
            },
            "gamma_regularizer": null,
            "name": "batch_normalization_83",
            "gamma_initializer": {
               "class_name": "Ones",
               "config": {}
            },
            "scale": true,
            "trainable": true,
            "momentum": 0.99,
            "center": true,
            "axis": -1
         }
      },
      {
         "class_name": "Activation",
         "config": {
            "activation": "relu",
            "name": "activation_83",
            "trainable": true
         }
      },
      {
         "class_name": "Conv2D",
         "config": {
            "kernel_size": [
               3,
               3
            ],
            "strides": [
               1,
               1
            ],
            "bias_regularizer": null,
            "kernel_initializer": {
               "class_name": "VarianceScaling",
               "config": {
                  "distribution": "uniform",
                  "mode": "fan_avg",
                  "scale": 1.0,
                  "seed": null
               }
            },
            "bias_initializer": {
               "class_name": "Zeros",
               "config": {}
            },
            "filters": 576,
            "padding": "same",
            "kernel_constraint": null,
            "activation": "linear",
            "name": "conv2d_84",
            "kernel_regularizer": null,
            "dilation_rate": [
               1,
               1
            ],
            "data_format": "channels_first",
            "trainable": true,
            "bias_constraint": null,
            "activity_regularizer": null,
            "use_bias": true
         }
      },
      {
         "class_name": "Dropout",
         "config": {
            "name": "dropout_83",
            "trainable": true,
            "rate": 0.2
         }
      },
      {
         "class_name": "BatchNormalization",
         "config": {
            "beta_regularizer": null,
            "beta_constraint": null,
            "moving_variance_initializer": {
               "class_name": "Ones",
               "config": {}
            },
            "gamma_constraint": null,
            "moving_mean_initializer": {
               "class_name": "Zeros",
               "config": {}
            },
            "epsilon": 0.001,
            "beta_initializer": {
               "class_name": "Zeros",
               "config": {}
            },
            "gamma_regularizer": null,
            "name": "batch_normalization_84",
            "gamma_initializer": {
               "class_name": "Ones",
               "config": {}
            },
            "scale": true,
            "trainable": true,
            "momentum": 0.99,
            "center": true,
            "axis": -1
         }
      },
      {
         "class_name": "Activation",
         "config": {
            "activation": "relu",
            "name": "activation_84",
            "trainable": true
         }
      },
      {
         "class_name": "Conv2D",
         "config": {
            "kernel_size": [
               3,
               3
            ],
            "strides": [
               1,
               1
            ],
            "bias_regularizer": null,
            "kernel_initializer": {
               "class_name": "VarianceScaling",
               "config": {
                  "distribution": "uniform",
                  "mode": "fan_avg",
                  "scale": 1.0,
                  "seed": null
               }
            },
            "bias_initializer": {
               "class_name": "Zeros",
               "config": {}
            },
            "filters": 576,
            "padding": "same",
            "kernel_constraint": null,
            "activation": "linear",
            "name": "conv2d_85",
            "kernel_regularizer": null,
            "dilation_rate": [
               1,
               1
            ],
            "data_format": "channels_first",
            "trainable": true,
            "bias_constraint": null,
            "activity_regularizer": null,
            "use_bias": true
         }
      },
      {
         "class_name": "Dropout",
         "config": {
            "name": "dropout_84",
            "trainable": true,
            "rate": 0.2
         }
      },
      {
         "class_name": "BatchNormalization",
         "config": {
            "beta_regularizer": null,
            "beta_constraint": null,
            "moving_variance_initializer": {
               "class_name": "Ones",
               "config": {}
            },
            "gamma_constraint": null,
            "moving_mean_initializer": {
               "class_name": "Zeros",
               "config": {}
            },
            "epsilon": 0.001,
            "beta_initializer": {
               "class_name": "Zeros",
               "config": {}
            },
            "gamma_regularizer": null,
            "name": "batch_normalization_85",
            "gamma_initializer": {
               "class_name": "Ones",
               "config": {}
            },
            "scale": true,
            "trainable": true,
            "momentum": 0.99,
            "center": true,
            "axis": -1
         }
      },
      {
         "class_name": "Activation",
         "config": {
            "activation": "relu",
            "name": "activation_85",
            "trainable": true
         }
      },
      {
         "class_name": "Conv2D",
         "config": {
            "kernel_size": [
               3,
               3
            ],
            "strides": [
               1,
               1
            ],
            "bias_regularizer": null,
            "kernel_initializer": {
               "class_name": "VarianceScaling",
               "config": {
                  "distribution": "uniform",
                  "mode": "fan_avg",
                  "scale": 1.0,
                  "seed": null
               }
            },
            "bias_initializer": {
               "class_name": "Zeros",
               "config": {}
            },
            "filters": 576,
            "padding": "same",
            "kernel_constraint": null,
            "activation": "linear",
            "name": "conv2d_86",
            "kernel_regularizer": null,
            "dilation_rate": [
               1,
               1
            ],
            "data_format": "channels_first",
            "trainable": true,
            "bias_constraint": null,
            "activity_regularizer": null,
            "use_bias": true
         }
      },
      {
         "class_name": "Dropout",
         "config": {
            "name": "dropout_85",
            "trainable": true,
            "rate": 0.2
         }
      },
      {
         "class_name": "BatchNormalization",
         "config": {
            "beta_regularizer": null,
            "beta_constraint": null,
            "moving_variance_initializer": {
               "class_name": "Ones",
               "config": {}
            },
            "gamma_constraint": null,
            "moving_mean_initializer": {
               "class_name": "Zeros",
               "config": {}
            },
            "epsilon": 0.001,
            "beta_initializer": {
               "class_name": "Zeros",
               "config": {}
            },
            "gamma_regularizer": null,
            "name": "batch_normalization_86",
            "gamma_initializer": {
               "class_name": "Ones",
               "config": {}
            },
            "scale": true,
            "trainable": true,
            "momentum": 0.99,
            "center": true,
            "axis": -1
         }
      },
      {
         "class_name": "Activation",
         "config": {
            "activation": "relu",
            "name": "activation_86",
            "trainable": true
         }
      },
      {
         "class_name": "Conv2D",
         "config": {
            "kernel_size": [
               3,
               3
            ],
            "strides": [
               1,
               1
            ],
            "bias_regularizer": null,
            "kernel_initializer": {
               "class_name": "VarianceScaling",
               "config": {
                  "distribution": "uniform",
                  "mode": "fan_avg",
                  "scale": 1.0,
                  "seed": null
               }
            },
            "bias_initializer": {
               "class_name": "Zeros",
               "config": {}
            },
            "filters": 576,
            "padding": "same",
            "kernel_constraint": null,
            "activation": "linear",
            "name": "conv2d_87",
            "kernel_regularizer": null,
            "dilation_rate": [
               1,
               1
            ],
            "data_format": "channels_first",
            "trainable": true,
            "bias_constraint": null,
            "activity_regularizer": null,
            "use_bias": true
         }
      },
      {
         "class_name": "Dropout",
         "config": {
            "name": "dropout_86",
            "trainable": true,
            "rate": 0.2
         }
      },
      {
         "class_name": "BatchNormalization",
         "config": {
            "beta_regularizer": null,
            "beta_constraint": null,
            "moving_variance_initializer": {
               "class_name": "Ones",
               "config": {}
            },
            "gamma_constraint": null,
            "moving_mean_initializer": {
               "class_name": "Zeros",
               "config": {}
            },
            "epsilon": 0.001,
            "beta_initializer": {
               "class_name": "Zeros",
               "config": {}
            },
            "gamma_regularizer": null,
            "name": "batch_normalization_87",
            "gamma_initializer": {
               "class_name": "Ones",
               "config": {}
            },
            "scale": true,
            "trainable": true,
            "momentum": 0.99,
            "center": true,
            "axis": -1
         }
      },
      {
         "class_name": "Activation",
         "config": {
            "activation": "relu",
            "name": "activation_87",
            "trainable": true
         }
      },
      {
         "class_name": "Conv2D",
         "config": {
            "kernel_size": [
               3,
               3
            ],
            "strides": [
               1,
               1
            ],
            "bias_regularizer": null,
            "kernel_initializer": {
               "class_name": "VarianceScaling",
               "config": {
                  "distribution": "uniform",
                  "mode": "fan_avg",
                  "scale": 1.0,
                  "seed": null
               }
            },
            "bias_initializer": {
               "class_name": "Zeros",
               "config": {}
            },
            "filters": 576,
            "padding": "same",
            "kernel_constraint": null,
            "activation": "linear",
            "name": "conv2d_88",
            "kernel_regularizer": null,
            "dilation_rate": [
               1,
               1
            ],
            "data_format": "channels_first",
            "trainable": true,
            "bias_constraint": null,
            "activity_regularizer": null,
            "use_bias": true
         }
      },
      {
         "class_name": "Dropout",
         "config": {
            "name": "dropout_87",
            "trainable": true,
            "rate": 0.2
         }
      },
      {
         "class_name": "Conv2DTranspose",
         "config": {
            "kernel_size": [
               3,
               3
            ],
            "strides": [
               2,
               2
            ],
            "dtype": "float32",
            "bias_regularizer": null,
            "kernel_initializer": {
               "class_name": "VarianceScaling",
               "config": {
                  "distribution": "uniform",
                  "mode": "fan_avg",
                  "scale": 1.0,
                  "seed": null
               }
            },
            "batch_input_shape": [
               null,
               384,
               56,
               56
            ],
            "filters": 384,
            "padding": "same",
            "kernel_constraint": null,
            "activation": "linear",
            "name": "conv2d_transpose_4",
            "kernel_regularizer": null,
            "use_bias": true,
            "data_format": "channels_first",
            "trainable": true,
            "bias_constraint": null,
            "activity_regularizer": null,
            "bias_initializer": {
               "class_name": "Zeros",
               "config": {}
            }
         }
      },
      {
         "class_name": "BatchNormalization",
         "config": {
            "beta_regularizer": null,
            "beta_constraint": null,
            "moving_variance_initializer": {
               "class_name": "Ones",
               "config": {}
            },
            "gamma_constraint": null,
            "moving_mean_initializer": {
               "class_name": "Zeros",
               "config": {}
            },
            "epsilon": 0.001,
            "beta_initializer": {
               "class_name": "Zeros",
               "config": {}
            },
            "gamma_regularizer": null,
            "name": "batch_normalization_88",
            "gamma_initializer": {
               "class_name": "Ones",
               "config": {}
            },
            "scale": true,
            "trainable": true,
            "momentum": 0.99,
            "center": true,
            "axis": -1
         }
      },
      {
         "class_name": "Activation",
         "config": {
            "activation": "relu",
            "name": "activation_88",
            "trainable": true
         }
      },
      {
         "class_name": "Conv2D",
         "config": {
            "kernel_size": [
               3,
               3
            ],
            "strides": [
               1,
               1
            ],
            "bias_regularizer": null,
            "kernel_initializer": {
               "class_name": "VarianceScaling",
               "config": {
                  "distribution": "uniform",
                  "mode": "fan_avg",
                  "scale": 1.0,
                  "seed": null
               }
            },
            "bias_initializer": {
               "class_name": "Zeros",
               "config": {}
            },
            "filters": 384,
            "padding": "same",
            "kernel_constraint": null,
            "activation": "linear",
            "name": "conv2d_89",
            "kernel_regularizer": null,
            "dilation_rate": [
               1,
               1
            ],
            "data_format": "channels_first",
            "trainable": true,
            "bias_constraint": null,
            "activity_regularizer": null,
            "use_bias": true
         }
      },
      {
         "class_name": "Dropout",
         "config": {
            "name": "dropout_88",
            "trainable": true,
            "rate": 0.2
         }
      },
      {
         "class_name": "BatchNormalization",
         "config": {
            "beta_regularizer": null,
            "beta_constraint": null,
            "moving_variance_initializer": {
               "class_name": "Ones",
               "config": {}
            },
            "gamma_constraint": null,
            "moving_mean_initializer": {
               "class_name": "Zeros",
               "config": {}
            },
            "epsilon": 0.001,
            "beta_initializer": {
               "class_name": "Zeros",
               "config": {}
            },
            "gamma_regularizer": null,
            "name": "batch_normalization_89",
            "gamma_initializer": {
               "class_name": "Ones",
               "config": {}
            },
            "scale": true,
            "trainable": true,
            "momentum": 0.99,
            "center": true,
            "axis": -1
         }
      },
      {
         "class_name": "Activation",
         "config": {
            "activation": "relu",
            "name": "activation_89",
            "trainable": true
         }
      },
      {
         "class_name": "Conv2D",
         "config": {
            "kernel_size": [
               3,
               3
            ],
            "strides": [
               1,
               1
            ],
            "bias_regularizer": null,
            "kernel_initializer": {
               "class_name": "VarianceScaling",
               "config": {
                  "distribution": "uniform",
                  "mode": "fan_avg",
                  "scale": 1.0,
                  "seed": null
               }
            },
            "bias_initializer": {
               "class_name": "Zeros",
               "config": {}
            },
            "filters": 384,
            "padding": "same",
            "kernel_constraint": null,
            "activation": "linear",
            "name": "conv2d_90",
            "kernel_regularizer": null,
            "dilation_rate": [
               1,
               1
            ],
            "data_format": "channels_first",
            "trainable": true,
            "bias_constraint": null,
            "activity_regularizer": null,
            "use_bias": true
         }
      },
      {
         "class_name": "Dropout",
         "config": {
            "name": "dropout_89",
            "trainable": true,
            "rate": 0.2
         }
      },
      {
         "class_name": "BatchNormalization",
         "config": {
            "beta_regularizer": null,
            "beta_constraint": null,
            "moving_variance_initializer": {
               "class_name": "Ones",
               "config": {}
            },
            "gamma_constraint": null,
            "moving_mean_initializer": {
               "class_name": "Zeros",
               "config": {}
            },
            "epsilon": 0.001,
            "beta_initializer": {
               "class_name": "Zeros",
               "config": {}
            },
            "gamma_regularizer": null,
            "name": "batch_normalization_90",
            "gamma_initializer": {
               "class_name": "Ones",
               "config": {}
            },
            "scale": true,
            "trainable": true,
            "momentum": 0.99,
            "center": true,
            "axis": -1
         }
      },
      {
         "class_name": "Activation",
         "config": {
            "activation": "relu",
            "name": "activation_90",
            "trainable": true
         }
      },
      {
         "class_name": "Conv2D",
         "config": {
            "kernel_size": [
               3,
               3
            ],
            "strides": [
               1,
               1
            ],
            "bias_regularizer": null,
            "kernel_initializer": {
               "class_name": "VarianceScaling",
               "config": {
                  "distribution": "uniform",
                  "mode": "fan_avg",
                  "scale": 1.0,
                  "seed": null
               }
            },
            "bias_initializer": {
               "class_name": "Zeros",
               "config": {}
            },
            "filters": 384,
            "padding": "same",
            "kernel_constraint": null,
            "activation": "linear",
            "name": "conv2d_91",
            "kernel_regularizer": null,
            "dilation_rate": [
               1,
               1
            ],
            "data_format": "channels_first",
            "trainable": true,
            "bias_constraint": null,
            "activity_regularizer": null,
            "use_bias": true
         }
      },
      {
         "class_name": "Dropout",
         "config": {
            "name": "dropout_90",
            "trainable": true,
            "rate": 0.2
         }
      },
      {
         "class_name": "BatchNormalization",
         "config": {
            "beta_regularizer": null,
            "beta_constraint": null,
            "moving_variance_initializer": {
               "class_name": "Ones",
               "config": {}
            },
            "gamma_constraint": null,
            "moving_mean_initializer": {
               "class_name": "Zeros",
               "config": {}
            },
            "epsilon": 0.001,
            "beta_initializer": {
               "class_name": "Zeros",
               "config": {}
            },
            "gamma_regularizer": null,
            "name": "batch_normalization_91",
            "gamma_initializer": {
               "class_name": "Ones",
               "config": {}
            },
            "scale": true,
            "trainable": true,
            "momentum": 0.99,
            "center": true,
            "axis": -1
         }
      },
      {
         "class_name": "Activation",
         "config": {
            "activation": "relu",
            "name": "activation_91",
            "trainable": true
         }
      },
      {
         "class_name": "Conv2D",
         "config": {
            "kernel_size": [
               3,
               3
            ],
            "strides": [
               1,
               1
            ],
            "bias_regularizer": null,
            "kernel_initializer": {
               "class_name": "VarianceScaling",
               "config": {
                  "distribution": "uniform",
                  "mode": "fan_avg",
                  "scale": 1.0,
                  "seed": null
               }
            },
            "bias_initializer": {
               "class_name": "Zeros",
               "config": {}
            },
            "filters": 384,
            "padding": "same",
            "kernel_constraint": null,
            "activation": "linear",
            "name": "conv2d_92",
            "kernel_regularizer": null,
            "dilation_rate": [
               1,
               1
            ],
            "data_format": "channels_first",
            "trainable": true,
            "bias_constraint": null,
            "activity_regularizer": null,
            "use_bias": true
         }
      },
      {
         "class_name": "Dropout",
         "config": {
            "name": "dropout_91",
            "trainable": true,
            "rate": 0.2
         }
      },
      {
         "class_name": "BatchNormalization",
         "config": {
            "beta_regularizer": null,
            "beta_constraint": null,
            "moving_variance_initializer": {
               "class_name": "Ones",
               "config": {}
            },
            "gamma_constraint": null,
            "moving_mean_initializer": {
               "class_name": "Zeros",
               "config": {}
            },
            "epsilon": 0.001,
            "beta_initializer": {
               "class_name": "Zeros",
               "config": {}
            },
            "gamma_regularizer": null,
            "name": "batch_normalization_92",
            "gamma_initializer": {
               "class_name": "Ones",
               "config": {}
            },
            "scale": true,
            "trainable": true,
            "momentum": 0.99,
            "center": true,
            "axis": -1
         }
      },
      {
         "class_name": "Activation",
         "config": {
            "activation": "relu",
            "name": "activation_92",
            "trainable": true
         }
      },
      {
         "class_name": "Conv2D",
         "config": {
            "kernel_size": [
               3,
               3
            ],
            "strides": [
               1,
               1
            ],
            "bias_regularizer": null,
            "kernel_initializer": {
               "class_name": "VarianceScaling",
               "config": {
                  "distribution": "uniform",
                  "mode": "fan_avg",
                  "scale": 1.0,
                  "seed": null
               }
            },
            "bias_initializer": {
               "class_name": "Zeros",
               "config": {}
            },
            "filters": 384,
            "padding": "same",
            "kernel_constraint": null,
            "activation": "linear",
            "name": "conv2d_93",
            "kernel_regularizer": null,
            "dilation_rate": [
               1,
               1
            ],
            "data_format": "channels_first",
            "trainable": true,
            "bias_constraint": null,
            "activity_regularizer": null,
            "use_bias": true
         }
      },
      {
         "class_name": "Dropout",
         "config": {
            "name": "dropout_92",
            "trainable": true,
            "rate": 0.2
         }
      },
      {
         "class_name": "Conv2DTranspose",
         "config": {
            "kernel_size": [
               3,
               3
            ],
            "strides": [
               2,
               2
            ],
            "dtype": "float32",
            "bias_regularizer": null,
            "kernel_initializer": {
               "class_name": "VarianceScaling",
               "config": {
                  "distribution": "uniform",
                  "mode": "fan_avg",
                  "scale": 1.0,
                  "seed": null
               }
            },
            "batch_input_shape": [
               null,
               256,
               112,
               112
            ],
            "filters": 256,
            "padding": "same",
            "kernel_constraint": null,
            "activation": "linear",
            "name": "conv2d_transpose_5",
            "kernel_regularizer": null,
            "use_bias": true,
            "data_format": "channels_first",
            "trainable": true,
            "bias_constraint": null,
            "activity_regularizer": null,
            "bias_initializer": {
               "class_name": "Zeros",
               "config": {}
            }
         }
      },
      {
         "class_name": "BatchNormalization",
         "config": {
            "beta_regularizer": null,
            "beta_constraint": null,
            "moving_variance_initializer": {
               "class_name": "Ones",
               "config": {}
            },
            "gamma_constraint": null,
            "moving_mean_initializer": {
               "class_name": "Zeros",
               "config": {}
            },
            "epsilon": 0.001,
            "beta_initializer": {
               "class_name": "Zeros",
               "config": {}
            },
            "gamma_regularizer": null,
            "name": "batch_normalization_93",
            "gamma_initializer": {
               "class_name": "Ones",
               "config": {}
            },
            "scale": true,
            "trainable": true,
            "momentum": 0.99,
            "center": true,
            "axis": -1
         }
      },
      {
         "class_name": "Activation",
         "config": {
            "activation": "relu",
            "name": "activation_93",
            "trainable": true
         }
      },
      {
         "class_name": "Conv2D",
         "config": {
            "kernel_size": [
               3,
               3
            ],
            "strides": [
               1,
               1
            ],
            "bias_regularizer": null,
            "kernel_initializer": {
               "class_name": "VarianceScaling",
               "config": {
                  "distribution": "uniform",
                  "mode": "fan_avg",
                  "scale": 1.0,
                  "seed": null
               }
            },
            "bias_initializer": {
               "class_name": "Zeros",
               "config": {}
            },
            "filters": 256,
            "padding": "same",
            "kernel_constraint": null,
            "activation": "linear",
            "name": "conv2d_94",
            "kernel_regularizer": null,
            "dilation_rate": [
               1,
               1
            ],
            "data_format": "channels_first",
            "trainable": true,
            "bias_constraint": null,
            "activity_regularizer": null,
            "use_bias": true
         }
      },
      {
         "class_name": "Dropout",
         "config": {
            "name": "dropout_93",
            "trainable": true,
            "rate": 0.2
         }
      },
      {
         "class_name": "BatchNormalization",
         "config": {
            "beta_regularizer": null,
            "beta_constraint": null,
            "moving_variance_initializer": {
               "class_name": "Ones",
               "config": {}
            },
            "gamma_constraint": null,
            "moving_mean_initializer": {
               "class_name": "Zeros",
               "config": {}
            },
            "epsilon": 0.001,
            "beta_initializer": {
               "class_name": "Zeros",
               "config": {}
            },
            "gamma_regularizer": null,
            "name": "batch_normalization_94",
            "gamma_initializer": {
               "class_name": "Ones",
               "config": {}
            },
            "scale": true,
            "trainable": true,
            "momentum": 0.99,
            "center": true,
            "axis": -1
         }
      },
      {
         "class_name": "Activation",
         "config": {
            "activation": "relu",
            "name": "activation_94",
            "trainable": true
         }
      },
      {
         "class_name": "Conv2D",
         "config": {
            "kernel_size": [
               3,
               3
            ],
            "strides": [
               1,
               1
            ],
            "bias_regularizer": null,
            "kernel_initializer": {
               "class_name": "VarianceScaling",
               "config": {
                  "distribution": "uniform",
                  "mode": "fan_avg",
                  "scale": 1.0,
                  "seed": null
               }
            },
            "bias_initializer": {
               "class_name": "Zeros",
               "config": {}
            },
            "filters": 256,
            "padding": "same",
            "kernel_constraint": null,
            "activation": "linear",
            "name": "conv2d_95",
            "kernel_regularizer": null,
            "dilation_rate": [
               1,
               1
            ],
            "data_format": "channels_first",
            "trainable": true,
            "bias_constraint": null,
            "activity_regularizer": null,
            "use_bias": true
         }
      },
      {
         "class_name": "Dropout",
         "config": {
            "name": "dropout_94",
            "trainable": true,
            "rate": 0.2
         }
      },
      {
         "class_name": "BatchNormalization",
         "config": {
            "beta_regularizer": null,
            "beta_constraint": null,
            "moving_variance_initializer": {
               "class_name": "Ones",
               "config": {}
            },
            "gamma_constraint": null,
            "moving_mean_initializer": {
               "class_name": "Zeros",
               "config": {}
            },
            "epsilon": 0.001,
            "beta_initializer": {
               "class_name": "Zeros",
               "config": {}
            },
            "gamma_regularizer": null,
            "name": "batch_normalization_95",
            "gamma_initializer": {
               "class_name": "Ones",
               "config": {}
            },
            "scale": true,
            "trainable": true,
            "momentum": 0.99,
            "center": true,
            "axis": -1
         }
      },
      {
         "class_name": "Activation",
         "config": {
            "activation": "relu",
            "name": "activation_95",
            "trainable": true
         }
      },
      {
         "class_name": "Conv2D",
         "config": {
            "kernel_size": [
               3,
               3
            ],
            "strides": [
               1,
               1
            ],
            "bias_regularizer": null,
            "kernel_initializer": {
               "class_name": "VarianceScaling",
               "config": {
                  "distribution": "uniform",
                  "mode": "fan_avg",
                  "scale": 1.0,
                  "seed": null
               }
            },
            "bias_initializer": {
               "class_name": "Zeros",
               "config": {}
            },
            "filters": 256,
            "padding": "same",
            "kernel_constraint": null,
            "activation": "linear",
            "name": "conv2d_96",
            "kernel_regularizer": null,
            "dilation_rate": [
               1,
               1
            ],
            "data_format": "channels_first",
            "trainable": true,
            "bias_constraint": null,
            "activity_regularizer": null,
            "use_bias": true
         }
      },
      {
         "class_name": "Dropout",
         "config": {
            "name": "dropout_95",
            "trainable": true,
            "rate": 0.2
         }
      },
      {
         "class_name": "BatchNormalization",
         "config": {
            "beta_regularizer": null,
            "beta_constraint": null,
            "moving_variance_initializer": {
               "class_name": "Ones",
               "config": {}
            },
            "gamma_constraint": null,
            "moving_mean_initializer": {
               "class_name": "Zeros",
               "config": {}
            },
            "epsilon": 0.001,
            "beta_initializer": {
               "class_name": "Zeros",
               "config": {}
            },
            "gamma_regularizer": null,
            "name": "batch_normalization_96",
            "gamma_initializer": {
               "class_name": "Ones",
               "config": {}
            },
            "scale": true,
            "trainable": true,
            "momentum": 0.99,
            "center": true,
            "axis": -1
         }
      },
      {
         "class_name": "Activation",
         "config": {
            "activation": "relu",
            "name": "activation_96",
            "trainable": true
         }
      },
      {
         "class_name": "Conv2D",
         "config": {
            "kernel_size": [
               3,
               3
            ],
            "strides": [
               1,
               1
            ],
            "bias_regularizer": null,
            "kernel_initializer": {
               "class_name": "VarianceScaling",
               "config": {
                  "distribution": "uniform",
                  "mode": "fan_avg",
                  "scale": 1.0,
                  "seed": null
               }
            },
            "bias_initializer": {
               "class_name": "Zeros",
               "config": {}
            },
            "filters": 256,
            "padding": "same",
            "kernel_constraint": null,
            "activation": "linear",
            "name": "conv2d_97",
            "kernel_regularizer": null,
            "dilation_rate": [
               1,
               1
            ],
            "data_format": "channels_first",
            "trainable": true,
            "bias_constraint": null,
            "activity_regularizer": null,
            "use_bias": true
         }
      },
      {
         "class_name": "Dropout",
         "config": {
            "name": "dropout_96",
            "trainable": true,
            "rate": 0.2
         }
      },
      {
         "class_name": "Conv2D",
         "config": {
            "kernel_size": [
               3,
               3
            ],
            "strides": [
               1,
               1
            ],
            "bias_regularizer": null,
            "kernel_initializer": {
               "class_name": "VarianceScaling",
               "config": {
                  "distribution": "uniform",
                  "mode": "fan_avg",
                  "scale": 1.0,
                  "seed": null
               }
            },
            "bias_initializer": {
               "class_name": "Zeros",
               "config": {}
            },
            "filters": 12,
            "padding": "same",
            "kernel_constraint": null,
            "activation": "linear",
            "name": "conv2d_98",
            "kernel_regularizer": null,
            "dilation_rate": [
               1,
               1
            ],
            "data_format": "channels_first",
            "trainable": true,
            "bias_constraint": null,
            "activity_regularizer": null,
            "use_bias": true
         }
      },
      {
         "class_name": "Reshape",
         "config": {
            "name": "reshape_1",
            "trainable": true,
            "target_shape": [
               12,
               50176
            ]
         }
      },
      {
         "class_name": "Permute",
         "config": {
            "dims": [
               2,
               1
            ],
            "name": "permute_1",
            "trainable": true
         }
      },
      {
         "class_name": "Activation",
         "config": {
            "activation": "softmax",
            "name": "activation_97",
            "trainable": true
         }
      }
   ],
   "class_name": "Sequential",
   "backend": "tensorflow",
   "keras_version": "2.0.2"
}