{
   "class_name": "Sequential", 
   "keras_version": "2.0.1", 
   "config": [
      {
         "class_name": "Conv2D", 
         "config": {
            "kernel_initializer": {
               "class_name": "VarianceScaling", 
               "config": {
                  "distribution": "uniform", 
                  "scale": 1.0, 
                  "seed": null, 
                  "mode": "fan_avg"
               }
            }, 
            "name": "conv2d_1", 
            "kernel_constraint": null, 
            "bias_regularizer": null, 
            "bias_constraint": null, 
            "dtype": "float32", 
            "activation": "linear", 
            "trainable": true, 
            "data_format": "channels_first", 
            "padding": "same", 
            "strides": [
               1, 
               1
            ], 
            "dilation_rate": [
               1, 
               1
            ], 
            "kernel_regularizer": null, 
            "filters": 48, 
            "bias_initializer": {
               "class_name": "Zeros", 
               "config": {}
            }, 
            "batch_input_shape": [
               null, 
               3, 
               224, 
               224
            ], 
            "use_bias": true, 
            "activity_regularizer": null, 
            "kernel_size": [
               3, 
               3
            ]
         }
      }, 
      {
         "class_name": "BatchNormalization", 
         "config": {
            "gamma_initializer": {
               "class_name": "Ones", 
               "config": {}
            }, 
            "moving_mean_initializer": {
               "class_name": "Zeros", 
               "config": {}
            }, 
            "name": "batch_normalization_1", 
            "epsilon": 0.001, 
            "trainable": true, 
            "center": true, 
            "moving_variance_initializer": {
               "class_name": "Ones", 
               "config": {}
            }, 
            "beta_initializer": {
               "class_name": "Zeros", 
               "config": {}
            }, 
            "scale": true, 
            "gamma_regularizer": null, 
            "gamma_constraint": null, 
            "beta_constraint": null, 
            "beta_regularizer": null, 
            "momentum": 0.99, 
            "axis": -1
         }
      }, 
      {
         "class_name": "Activation", 
         "config": {
            "activation": "relu", 
            "trainable": true, 
            "name": "activation_1"
         }
      }, 
      {
         "class_name": "Conv2D", 
         "config": {
            "kernel_initializer": {
               "class_name": "VarianceScaling", 
               "config": {
                  "distribution": "uniform", 
                  "scale": 1.0, 
                  "seed": null, 
                  "mode": "fan_avg"
               }
            }, 
            "name": "conv2d_2", 
            "kernel_constraint": null, 
            "bias_regularizer": null, 
            "bias_constraint": null, 
            "activation": "linear", 
            "trainable": true, 
            "data_format": "channels_first", 
            "padding": "same", 
            "strides": [
               1, 
               1
            ], 
            "dilation_rate": [
               1, 
               1
            ], 
            "kernel_regularizer": null, 
            "filters": 112, 
            "bias_initializer": {
               "class_name": "Zeros", 
               "config": {}
            }, 
            "use_bias": true, 
            "activity_regularizer": null, 
            "kernel_size": [
               3, 
               3
            ]
         }
      }, 
      {
         "class_name": "Dropout", 
         "config": {
            "rate": 0.2, 
            "trainable": true, 
            "name": "dropout_1"
         }
      }, 
      {
         "class_name": "BatchNormalization", 
         "config": {
            "gamma_initializer": {
               "class_name": "Ones", 
               "config": {}
            }, 
            "moving_mean_initializer": {
               "class_name": "Zeros", 
               "config": {}
            }, 
            "name": "batch_normalization_2", 
            "epsilon": 0.001, 
            "trainable": true, 
            "center": true, 
            "moving_variance_initializer": {
               "class_name": "Ones", 
               "config": {}
            }, 
            "beta_initializer": {
               "class_name": "Zeros", 
               "config": {}
            }, 
            "scale": true, 
            "gamma_regularizer": null, 
            "gamma_constraint": null, 
            "beta_constraint": null, 
            "beta_regularizer": null, 
            "momentum": 0.99, 
            "axis": -1
         }
      }, 
      {
         "class_name": "Activation", 
         "config": {
            "activation": "relu", 
            "trainable": true, 
            "name": "activation_2"
         }
      }, 
      {
         "class_name": "Conv2D", 
         "config": {
            "kernel_initializer": {
               "class_name": "VarianceScaling", 
               "config": {
                  "distribution": "uniform", 
                  "scale": 1.0, 
                  "seed": null, 
                  "mode": "fan_avg"
               }
            }, 
            "name": "conv2d_3", 
            "kernel_constraint": null, 
            "bias_regularizer": null, 
            "bias_constraint": null, 
            "activation": "linear", 
            "trainable": true, 
            "data_format": "channels_first", 
            "padding": "same", 
            "strides": [
               1, 
               1
            ], 
            "dilation_rate": [
               1, 
               1
            ], 
            "kernel_regularizer": null, 
            "filters": 112, 
            "bias_initializer": {
               "class_name": "Zeros", 
               "config": {}
            }, 
            "use_bias": true, 
            "activity_regularizer": null, 
            "kernel_size": [
               3, 
               3
            ]
         }
      }, 
      {
         "class_name": "Dropout", 
         "config": {
            "rate": 0.2, 
            "trainable": true, 
            "name": "dropout_2"
         }
      }, 
      {
         "class_name": "BatchNormalization", 
         "config": {
            "gamma_initializer": {
               "class_name": "Ones", 
               "config": {}
            }, 
            "moving_mean_initializer": {
               "class_name": "Zeros", 
               "config": {}
            }, 
            "name": "batch_normalization_3", 
            "epsilon": 0.001, 
            "trainable": true, 
            "center": true, 
            "moving_variance_initializer": {
               "class_name": "Ones", 
               "config": {}
            }, 
            "beta_initializer": {
               "class_name": "Zeros", 
               "config": {}
            }, 
            "scale": true, 
            "gamma_regularizer": null, 
            "gamma_constraint": null, 
            "beta_constraint": null, 
            "beta_regularizer": null, 
            "momentum": 0.99, 
            "axis": -1
         }
      }, 
      {
         "class_name": "Activation", 
         "config": {
            "activation": "relu", 
            "trainable": true, 
            "name": "activation_3"
         }
      }, 
      {
         "class_name": "Conv2D", 
         "config": {
            "kernel_initializer": {
               "class_name": "VarianceScaling", 
               "config": {
                  "distribution": "uniform", 
                  "scale": 1.0, 
                  "seed": null, 
                  "mode": "fan_avg"
               }
            }, 
            "name": "conv2d_4", 
            "kernel_constraint": null, 
            "bias_regularizer": null, 
            "bias_constraint": null, 
            "activation": "linear", 
            "trainable": true, 
            "data_format": "channels_first", 
            "padding": "same", 
            "strides": [
               1, 
               1
            ], 
            "dilation_rate": [
               1, 
               1
            ], 
            "kernel_regularizer": null, 
            "filters": 112, 
            "bias_initializer": {
               "class_name": "Zeros", 
               "config": {}
            }, 
            "use_bias": true, 
            "activity_regularizer": null, 
            "kernel_size": [
               3, 
               3
            ]
         }
      }, 
      {
         "class_name": "Dropout", 
         "config": {
            "rate": 0.2, 
            "trainable": true, 
            "name": "dropout_3"
         }
      }, 
      {
         "class_name": "BatchNormalization", 
         "config": {
            "gamma_initializer": {
               "class_name": "Ones", 
               "config": {}
            }, 
            "moving_mean_initializer": {
               "class_name": "Zeros", 
               "config": {}
            }, 
            "name": "batch_normalization_4", 
            "epsilon": 0.001, 
            "trainable": true, 
            "center": true, 
            "moving_variance_initializer": {
               "class_name": "Ones", 
               "config": {}
            }, 
            "beta_initializer": {
               "class_name": "Zeros", 
               "config": {}
            }, 
            "scale": true, 
            "gamma_regularizer": null, 
            "gamma_constraint": null, 
            "beta_constraint": null, 
            "beta_regularizer": null, 
            "momentum": 0.99, 
            "axis": -1
         }
      }, 
      {
         "class_name": "Activation", 
         "config": {
            "activation": "relu", 
            "trainable": true, 
            "name": "activation_4"
         }
      }, 
      {
         "class_name": "Conv2D", 
         "config": {
            "kernel_initializer": {
               "class_name": "VarianceScaling", 
               "config": {
                  "distribution": "uniform", 
                  "scale": 1.0, 
                  "seed": null, 
                  "mode": "fan_avg"
               }
            }, 
            "name": "conv2d_5", 
            "kernel_constraint": null, 
            "bias_regularizer": null, 
            "bias_constraint": null, 
            "activation": "linear", 
            "trainable": true, 
            "data_format": "channels_first", 
            "padding": "same", 
            "strides": [
               1, 
               1
            ], 
            "dilation_rate": [
               1, 
               1
            ], 
            "kernel_regularizer": null, 
            "filters": 112, 
            "bias_initializer": {
               "class_name": "Zeros", 
               "config": {}
            }, 
            "use_bias": true, 
            "activity_regularizer": null, 
            "kernel_size": [
               3, 
               3
            ]
         }
      }, 
      {
         "class_name": "Dropout", 
         "config": {
            "rate": 0.2, 
            "trainable": true, 
            "name": "dropout_4"
         }
      }, 
      {
         "class_name": "BatchNormalization", 
         "config": {
            "gamma_initializer": {
               "class_name": "Ones", 
               "config": {}
            }, 
            "moving_mean_initializer": {
               "class_name": "Zeros", 
               "config": {}
            }, 
            "name": "batch_normalization_5", 
            "epsilon": 0.001, 
            "trainable": true, 
            "center": true, 
            "moving_variance_initializer": {
               "class_name": "Ones", 
               "config": {}
            }, 
            "beta_initializer": {
               "class_name": "Zeros", 
               "config": {}
            }, 
            "scale": true, 
            "gamma_regularizer": null, 
            "gamma_constraint": null, 
            "beta_constraint": null, 
            "beta_regularizer": null, 
            "momentum": 0.99, 
            "axis": -1
         }
      }, 
      {
         "class_name": "Activation", 
         "config": {
            "activation": "relu", 
            "trainable": true, 
            "name": "activation_5"
         }
      }, 
      {
         "class_name": "Conv2D", 
         "config": {
            "kernel_initializer": {
               "class_name": "VarianceScaling", 
               "config": {
                  "distribution": "uniform", 
                  "scale": 1.0, 
                  "seed": null, 
                  "mode": "fan_avg"
               }
            }, 
            "name": "conv2d_6", 
            "kernel_constraint": null, 
            "bias_regularizer": null, 
            "bias_constraint": null, 
            "activation": "linear", 
            "trainable": true, 
            "data_format": "channels_first", 
            "padding": "same", 
            "strides": [
               1, 
               1
            ], 
            "dilation_rate": [
               1, 
               1
            ], 
            "kernel_regularizer": null, 
            "filters": 112, 
            "bias_initializer": {
               "class_name": "Zeros", 
               "config": {}
            }, 
            "use_bias": true, 
            "activity_regularizer": null, 
            "kernel_size": [
               1, 
               1
            ]
         }
      }, 
      {
         "class_name": "Dropout", 
         "config": {
            "rate": 0.2, 
            "trainable": true, 
            "name": "dropout_5"
         }
      }, 
      {
         "class_name": "MaxPooling2D", 
         "config": {
            "name": "max_pooling2d_1", 
            "trainable": true, 
            "data_format": "channels_first", 
            "pool_size": [
               2, 
               2
            ], 
            "padding": "valid", 
            "strides": [
               2, 
               2
            ]
         }
      }, 
      {
         "class_name": "BatchNormalization", 
         "config": {
            "gamma_initializer": {
               "class_name": "Ones", 
               "config": {}
            }, 
            "moving_mean_initializer": {
               "class_name": "Zeros", 
               "config": {}
            }, 
            "name": "batch_normalization_6", 
            "epsilon": 0.001, 
            "trainable": true, 
            "center": true, 
            "moving_variance_initializer": {
               "class_name": "Ones", 
               "config": {}
            }, 
            "beta_initializer": {
               "class_name": "Zeros", 
               "config": {}
            }, 
            "scale": true, 
            "gamma_regularizer": null, 
            "gamma_constraint": null, 
            "beta_constraint": null, 
            "beta_regularizer": null, 
            "momentum": 0.99, 
            "axis": -1
         }
      }, 
      {
         "class_name": "Activation", 
         "config": {
            "activation": "relu", 
            "trainable": true, 
            "name": "activation_6"
         }
      }, 
      {
         "class_name": "Conv2D", 
         "config": {
            "kernel_initializer": {
               "class_name": "VarianceScaling", 
               "config": {
                  "distribution": "uniform", 
                  "scale": 1.0, 
                  "seed": null, 
                  "mode": "fan_avg"
               }
            }, 
            "name": "conv2d_7", 
            "kernel_constraint": null, 
            "bias_regularizer": null, 
            "bias_constraint": null, 
            "activation": "linear", 
            "trainable": true, 
            "data_format": "channels_first", 
            "padding": "same", 
            "strides": [
               1, 
               1
            ], 
            "dilation_rate": [
               1, 
               1
            ], 
            "kernel_regularizer": null, 
            "filters": 192, 
            "bias_initializer": {
               "class_name": "Zeros", 
               "config": {}
            }, 
            "use_bias": true, 
            "activity_regularizer": null, 
            "kernel_size": [
               3, 
               3
            ]
         }
      }, 
      {
         "class_name": "Dropout", 
         "config": {
            "rate": 0.2, 
            "trainable": true, 
            "name": "dropout_6"
         }
      }, 
      {
         "class_name": "BatchNormalization", 
         "config": {
            "gamma_initializer": {
               "class_name": "Ones", 
               "config": {}
            }, 
            "moving_mean_initializer": {
               "class_name": "Zeros", 
               "config": {}
            }, 
            "name": "batch_normalization_7", 
            "epsilon": 0.001, 
            "trainable": true, 
            "center": true, 
            "moving_variance_initializer": {
               "class_name": "Ones", 
               "config": {}
            }, 
            "beta_initializer": {
               "class_name": "Zeros", 
               "config": {}
            }, 
            "scale": true, 
            "gamma_regularizer": null, 
            "gamma_constraint": null, 
            "beta_constraint": null, 
            "beta_regularizer": null, 
            "momentum": 0.99, 
            "axis": -1
         }
      }, 
      {
         "class_name": "Activation", 
         "config": {
            "activation": "relu", 
            "trainable": true, 
            "name": "activation_7"
         }
      }, 
      {
         "class_name": "Conv2D", 
         "config": {
            "kernel_initializer": {
               "class_name": "VarianceScaling", 
               "config": {
                  "distribution": "uniform", 
                  "scale": 1.0, 
                  "seed": null, 
                  "mode": "fan_avg"
               }
            }, 
            "name": "conv2d_8", 
            "kernel_constraint": null, 
            "bias_regularizer": null, 
            "bias_constraint": null, 
            "activation": "linear", 
            "trainable": true, 
            "data_format": "channels_first", 
            "padding": "same", 
            "strides": [
               1, 
               1
            ], 
            "dilation_rate": [
               1, 
               1
            ], 
            "kernel_regularizer": null, 
            "filters": 192, 
            "bias_initializer": {
               "class_name": "Zeros", 
               "config": {}
            }, 
            "use_bias": true, 
            "activity_regularizer": null, 
            "kernel_size": [
               3, 
               3
            ]
         }
      }, 
      {
         "class_name": "Dropout", 
         "config": {
            "rate": 0.2, 
            "trainable": true, 
            "name": "dropout_7"
         }
      }, 
      {
         "class_name": "BatchNormalization", 
         "config": {
            "gamma_initializer": {
               "class_name": "Ones", 
               "config": {}
            }, 
            "moving_mean_initializer": {
               "class_name": "Zeros", 
               "config": {}
            }, 
            "name": "batch_normalization_8", 
            "epsilon": 0.001, 
            "trainable": true, 
            "center": true, 
            "moving_variance_initializer": {
               "class_name": "Ones", 
               "config": {}
            }, 
            "beta_initializer": {
               "class_name": "Zeros", 
               "config": {}
            }, 
            "scale": true, 
            "gamma_regularizer": null, 
            "gamma_constraint": null, 
            "beta_constraint": null, 
            "beta_regularizer": null, 
            "momentum": 0.99, 
            "axis": -1
         }
      }, 
      {
         "class_name": "Activation", 
         "config": {
            "activation": "relu", 
            "trainable": true, 
            "name": "activation_8"
         }
      }, 
      {
         "class_name": "Conv2D", 
         "config": {
            "kernel_initializer": {
               "class_name": "VarianceScaling", 
               "config": {
                  "distribution": "uniform", 
                  "scale": 1.0, 
                  "seed": null, 
                  "mode": "fan_avg"
               }
            }, 
            "name": "conv2d_9", 
            "kernel_constraint": null, 
            "bias_regularizer": null, 
            "bias_constraint": null, 
            "activation": "linear", 
            "trainable": true, 
            "data_format": "channels_first", 
            "padding": "same", 
            "strides": [
               1, 
               1
            ], 
            "dilation_rate": [
               1, 
               1
            ], 
            "kernel_regularizer": null, 
            "filters": 192, 
            "bias_initializer": {
               "class_name": "Zeros", 
               "config": {}
            }, 
            "use_bias": true, 
            "activity_regularizer": null, 
            "kernel_size": [
               3, 
               3
            ]
         }
      }, 
      {
         "class_name": "Dropout", 
         "config": {
            "rate": 0.2, 
            "trainable": true, 
            "name": "dropout_8"
         }
      }, 
      {
         "class_name": "BatchNormalization", 
         "config": {
            "gamma_initializer": {
               "class_name": "Ones", 
               "config": {}
            }, 
            "moving_mean_initializer": {
               "class_name": "Zeros", 
               "config": {}
            }, 
            "name": "batch_normalization_9", 
            "epsilon": 0.001, 
            "trainable": true, 
            "center": true, 
            "moving_variance_initializer": {
               "class_name": "Ones", 
               "config": {}
            }, 
            "beta_initializer": {
               "class_name": "Zeros", 
               "config": {}
            }, 
            "scale": true, 
            "gamma_regularizer": null, 
            "gamma_constraint": null, 
            "beta_constraint": null, 
            "beta_regularizer": null, 
            "momentum": 0.99, 
            "axis": -1
         }
      }, 
      {
         "class_name": "Activation", 
         "config": {
            "activation": "relu", 
            "trainable": true, 
            "name": "activation_9"
         }
      }, 
      {
         "class_name": "Conv2D", 
         "config": {
            "kernel_initializer": {
               "class_name": "VarianceScaling", 
               "config": {
                  "distribution": "uniform", 
                  "scale": 1.0, 
                  "seed": null, 
                  "mode": "fan_avg"
               }
            }, 
            "name": "conv2d_10", 
            "kernel_constraint": null, 
            "bias_regularizer": null, 
            "bias_constraint": null, 
            "activation": "linear", 
            "trainable": true, 
            "data_format": "channels_first", 
            "padding": "same", 
            "strides": [
               1, 
               1
            ], 
            "dilation_rate": [
               1, 
               1
            ], 
            "kernel_regularizer": null, 
            "filters": 192, 
            "bias_initializer": {
               "class_name": "Zeros", 
               "config": {}
            }, 
            "use_bias": true, 
            "activity_regularizer": null, 
            "kernel_size": [
               3, 
               3
            ]
         }
      }, 
      {
         "class_name": "Dropout", 
         "config": {
            "rate": 0.2, 
            "trainable": true, 
            "name": "dropout_9"
         }
      }, 
      {
         "class_name": "BatchNormalization", 
         "config": {
            "gamma_initializer": {
               "class_name": "Ones", 
               "config": {}
            }, 
            "moving_mean_initializer": {
               "class_name": "Zeros", 
               "config": {}
            }, 
            "name": "batch_normalization_10", 
            "epsilon": 0.001, 
            "trainable": true, 
            "center": true, 
            "moving_variance_initializer": {
               "class_name": "Ones", 
               "config": {}
            }, 
            "beta_initializer": {
               "class_name": "Zeros", 
               "config": {}
            }, 
            "scale": true, 
            "gamma_regularizer": null, 
            "gamma_constraint": null, 
            "beta_constraint": null, 
            "beta_regularizer": null, 
            "momentum": 0.99, 
            "axis": -1
         }
      }, 
      {
         "class_name": "Activation", 
         "config": {
            "activation": "relu", 
            "trainable": true, 
            "name": "activation_10"
         }
      }, 
      {
         "class_name": "Conv2D", 
         "config": {
            "kernel_initializer": {
               "class_name": "VarianceScaling", 
               "config": {
                  "distribution": "uniform", 
                  "scale": 1.0, 
                  "seed": null, 
                  "mode": "fan_avg"
               }
            }, 
            "name": "conv2d_11", 
            "kernel_constraint": null, 
            "bias_regularizer": null, 
            "bias_constraint": null, 
            "activation": "linear", 
            "trainable": true, 
            "data_format": "channels_first", 
            "padding": "same", 
            "strides": [
               1, 
               1
            ], 
            "dilation_rate": [
               1, 
               1
            ], 
            "kernel_regularizer": null, 
            "filters": 192, 
            "bias_initializer": {
               "class_name": "Zeros", 
               "config": {}
            }, 
            "use_bias": true, 
            "activity_regularizer": null, 
            "kernel_size": [
               3, 
               3
            ]
         }
      }, 
      {
         "class_name": "Dropout", 
         "config": {
            "rate": 0.2, 
            "trainable": true, 
            "name": "dropout_10"
         }
      }, 
      {
         "class_name": "BatchNormalization", 
         "config": {
            "gamma_initializer": {
               "class_name": "Ones", 
               "config": {}
            }, 
            "moving_mean_initializer": {
               "class_name": "Zeros", 
               "config": {}
            }, 
            "name": "batch_normalization_11", 
            "epsilon": 0.001, 
            "trainable": true, 
            "center": true, 
            "moving_variance_initializer": {
               "class_name": "Ones", 
               "config": {}
            }, 
            "beta_initializer": {
               "class_name": "Zeros", 
               "config": {}
            }, 
            "scale": true, 
            "gamma_regularizer": null, 
            "gamma_constraint": null, 
            "beta_constraint": null, 
            "beta_regularizer": null, 
            "momentum": 0.99, 
            "axis": -1
         }
      }, 
      {
         "class_name": "Activation", 
         "config": {
            "activation": "relu", 
            "trainable": true, 
            "name": "activation_11"
         }
      }, 
      {
         "class_name": "Conv2D", 
         "config": {
            "kernel_initializer": {
               "class_name": "VarianceScaling", 
               "config": {
                  "distribution": "uniform", 
                  "scale": 1.0, 
                  "seed": null, 
                  "mode": "fan_avg"
               }
            }, 
            "name": "conv2d_12", 
            "kernel_constraint": null, 
            "bias_regularizer": null, 
            "bias_constraint": null, 
            "activation": "linear", 
            "trainable": true, 
            "data_format": "channels_first", 
            "padding": "same", 
            "strides": [
               1, 
               1
            ], 
            "dilation_rate": [
               1, 
               1
            ], 
            "kernel_regularizer": null, 
            "filters": 192, 
            "bias_initializer": {
               "class_name": "Zeros", 
               "config": {}
            }, 
            "use_bias": true, 
            "activity_regularizer": null, 
            "kernel_size": [
               1, 
               1
            ]
         }
      }, 
      {
         "class_name": "Dropout", 
         "config": {
            "rate": 0.2, 
            "trainable": true, 
            "name": "dropout_11"
         }
      }, 
      {
         "class_name": "MaxPooling2D", 
         "config": {
            "name": "max_pooling2d_2", 
            "trainable": true, 
            "data_format": "channels_first", 
            "pool_size": [
               2, 
               2
            ], 
            "padding": "valid", 
            "strides": [
               2, 
               2
            ]
         }
      }, 
      {
         "class_name": "BatchNormalization", 
         "config": {
            "gamma_initializer": {
               "class_name": "Ones", 
               "config": {}
            }, 
            "moving_mean_initializer": {
               "class_name": "Zeros", 
               "config": {}
            }, 
            "name": "batch_normalization_12", 
            "epsilon": 0.001, 
            "trainable": true, 
            "center": true, 
            "moving_variance_initializer": {
               "class_name": "Ones", 
               "config": {}
            }, 
            "beta_initializer": {
               "class_name": "Zeros", 
               "config": {}
            }, 
            "scale": true, 
            "gamma_regularizer": null, 
            "gamma_constraint": null, 
            "beta_constraint": null, 
            "beta_regularizer": null, 
            "momentum": 0.99, 
            "axis": -1
         }
      }, 
      {
         "class_name": "Activation", 
         "config": {
            "activation": "relu", 
            "trainable": true, 
            "name": "activation_12"
         }
      }, 
      {
         "class_name": "Conv2D", 
         "config": {
            "kernel_initializer": {
               "class_name": "VarianceScaling", 
               "config": {
                  "distribution": "uniform", 
                  "scale": 1.0, 
                  "seed": null, 
                  "mode": "fan_avg"
               }
            }, 
            "name": "conv2d_13", 
            "kernel_constraint": null, 
            "bias_regularizer": null, 
            "bias_constraint": null, 
            "activation": "linear", 
            "trainable": true, 
            "data_format": "channels_first", 
            "padding": "same", 
            "strides": [
               1, 
               1
            ], 
            "dilation_rate": [
               1, 
               1
            ], 
            "kernel_regularizer": null, 
            "filters": 304, 
            "bias_initializer": {
               "class_name": "Zeros", 
               "config": {}
            }, 
            "use_bias": true, 
            "activity_regularizer": null, 
            "kernel_size": [
               3, 
               3
            ]
         }
      }, 
      {
         "class_name": "Dropout", 
         "config": {
            "rate": 0.2, 
            "trainable": true, 
            "name": "dropout_12"
         }
      }, 
      {
         "class_name": "BatchNormalization", 
         "config": {
            "gamma_initializer": {
               "class_name": "Ones", 
               "config": {}
            }, 
            "moving_mean_initializer": {
               "class_name": "Zeros", 
               "config": {}
            }, 
            "name": "batch_normalization_13", 
            "epsilon": 0.001, 
            "trainable": true, 
            "center": true, 
            "moving_variance_initializer": {
               "class_name": "Ones", 
               "config": {}
            }, 
            "beta_initializer": {
               "class_name": "Zeros", 
               "config": {}
            }, 
            "scale": true, 
            "gamma_regularizer": null, 
            "gamma_constraint": null, 
            "beta_constraint": null, 
            "beta_regularizer": null, 
            "momentum": 0.99, 
            "axis": -1
         }
      }, 
      {
         "class_name": "Activation", 
         "config": {
            "activation": "relu", 
            "trainable": true, 
            "name": "activation_13"
         }
      }, 
      {
         "class_name": "Conv2D", 
         "config": {
            "kernel_initializer": {
               "class_name": "VarianceScaling", 
               "config": {
                  "distribution": "uniform", 
                  "scale": 1.0, 
                  "seed": null, 
                  "mode": "fan_avg"
               }
            }, 
            "name": "conv2d_14", 
            "kernel_constraint": null, 
            "bias_regularizer": null, 
            "bias_constraint": null, 
            "activation": "linear", 
            "trainable": true, 
            "data_format": "channels_first", 
            "padding": "same", 
            "strides": [
               1, 
               1
            ], 
            "dilation_rate": [
               1, 
               1
            ], 
            "kernel_regularizer": null, 
            "filters": 304, 
            "bias_initializer": {
               "class_name": "Zeros", 
               "config": {}
            }, 
            "use_bias": true, 
            "activity_regularizer": null, 
            "kernel_size": [
               3, 
               3
            ]
         }
      }, 
      {
         "class_name": "Dropout", 
         "config": {
            "rate": 0.2, 
            "trainable": true, 
            "name": "dropout_13"
         }
      }, 
      {
         "class_name": "BatchNormalization", 
         "config": {
            "gamma_initializer": {
               "class_name": "Ones", 
               "config": {}
            }, 
            "moving_mean_initializer": {
               "class_name": "Zeros", 
               "config": {}
            }, 
            "name": "batch_normalization_14", 
            "epsilon": 0.001, 
            "trainable": true, 
            "center": true, 
            "moving_variance_initializer": {
               "class_name": "Ones", 
               "config": {}
            }, 
            "beta_initializer": {
               "class_name": "Zeros", 
               "config": {}
            }, 
            "scale": true, 
            "gamma_regularizer": null, 
            "gamma_constraint": null, 
            "beta_constraint": null, 
            "beta_regularizer": null, 
            "momentum": 0.99, 
            "axis": -1
         }
      }, 
      {
         "class_name": "Activation", 
         "config": {
            "activation": "relu", 
            "trainable": true, 
            "name": "activation_14"
         }
      }, 
      {
         "class_name": "Conv2D", 
         "config": {
            "kernel_initializer": {
               "class_name": "VarianceScaling", 
               "config": {
                  "distribution": "uniform", 
                  "scale": 1.0, 
                  "seed": null, 
                  "mode": "fan_avg"
               }
            }, 
            "name": "conv2d_15", 
            "kernel_constraint": null, 
            "bias_regularizer": null, 
            "bias_constraint": null, 
            "activation": "linear", 
            "trainable": true, 
            "data_format": "channels_first", 
            "padding": "same", 
            "strides": [
               1, 
               1
            ], 
            "dilation_rate": [
               1, 
               1
            ], 
            "kernel_regularizer": null, 
            "filters": 304, 
            "bias_initializer": {
               "class_name": "Zeros", 
               "config": {}
            }, 
            "use_bias": true, 
            "activity_regularizer": null, 
            "kernel_size": [
               3, 
               3
            ]
         }
      }, 
      {
         "class_name": "Dropout", 
         "config": {
            "rate": 0.2, 
            "trainable": true, 
            "name": "dropout_14"
         }
      }, 
      {
         "class_name": "BatchNormalization", 
         "config": {
            "gamma_initializer": {
               "class_name": "Ones", 
               "config": {}
            }, 
            "moving_mean_initializer": {
               "class_name": "Zeros", 
               "config": {}
            }, 
            "name": "batch_normalization_15", 
            "epsilon": 0.001, 
            "trainable": true, 
            "center": true, 
            "moving_variance_initializer": {
               "class_name": "Ones", 
               "config": {}
            }, 
            "beta_initializer": {
               "class_name": "Zeros", 
               "config": {}
            }, 
            "scale": true, 
            "gamma_regularizer": null, 
            "gamma_constraint": null, 
            "beta_constraint": null, 
            "beta_regularizer": null, 
            "momentum": 0.99, 
            "axis": -1
         }
      }, 
      {
         "class_name": "Activation", 
         "config": {
            "activation": "relu", 
            "trainable": true, 
            "name": "activation_15"
         }
      }, 
      {
         "class_name": "Conv2D", 
         "config": {
            "kernel_initializer": {
               "class_name": "VarianceScaling", 
               "config": {
                  "distribution": "uniform", 
                  "scale": 1.0, 
                  "seed": null, 
                  "mode": "fan_avg"
               }
            }, 
            "name": "conv2d_16", 
            "kernel_constraint": null, 
            "bias_regularizer": null, 
            "bias_constraint": null, 
            "activation": "linear", 
            "trainable": true, 
            "data_format": "channels_first", 
            "padding": "same", 
            "strides": [
               1, 
               1
            ], 
            "dilation_rate": [
               1, 
               1
            ], 
            "kernel_regularizer": null, 
            "filters": 304, 
            "bias_initializer": {
               "class_name": "Zeros", 
               "config": {}
            }, 
            "use_bias": true, 
            "activity_regularizer": null, 
            "kernel_size": [
               3, 
               3
            ]
         }
      }, 
      {
         "class_name": "Dropout", 
         "config": {
            "rate": 0.2, 
            "trainable": true, 
            "name": "dropout_15"
         }
      }, 
      {
         "class_name": "BatchNormalization", 
         "config": {
            "gamma_initializer": {
               "class_name": "Ones", 
               "config": {}
            }, 
            "moving_mean_initializer": {
               "class_name": "Zeros", 
               "config": {}
            }, 
            "name": "batch_normalization_16", 
            "epsilon": 0.001, 
            "trainable": true, 
            "center": true, 
            "moving_variance_initializer": {
               "class_name": "Ones", 
               "config": {}
            }, 
            "beta_initializer": {
               "class_name": "Zeros", 
               "config": {}
            }, 
            "scale": true, 
            "gamma_regularizer": null, 
            "gamma_constraint": null, 
            "beta_constraint": null, 
            "beta_regularizer": null, 
            "momentum": 0.99, 
            "axis": -1
         }
      }, 
      {
         "class_name": "Activation", 
         "config": {
            "activation": "relu", 
            "trainable": true, 
            "name": "activation_16"
         }
      }, 
      {
         "class_name": "Conv2D", 
         "config": {
            "kernel_initializer": {
               "class_name": "VarianceScaling", 
               "config": {
                  "distribution": "uniform", 
                  "scale": 1.0, 
                  "seed": null, 
                  "mode": "fan_avg"
               }
            }, 
            "name": "conv2d_17", 
            "kernel_constraint": null, 
            "bias_regularizer": null, 
            "bias_constraint": null, 
            "activation": "linear", 
            "trainable": true, 
            "data_format": "channels_first", 
            "padding": "same", 
            "strides": [
               1, 
               1
            ], 
            "dilation_rate": [
               1, 
               1
            ], 
            "kernel_regularizer": null, 
            "filters": 304, 
            "bias_initializer": {
               "class_name": "Zeros", 
               "config": {}
            }, 
            "use_bias": true, 
            "activity_regularizer": null, 
            "kernel_size": [
               3, 
               3
            ]
         }
      }, 
      {
         "class_name": "Dropout", 
         "config": {
            "rate": 0.2, 
            "trainable": true, 
            "name": "dropout_16"
         }
      }, 
      {
         "class_name": "BatchNormalization", 
         "config": {
            "gamma_initializer": {
               "class_name": "Ones", 
               "config": {}
            }, 
            "moving_mean_initializer": {
               "class_name": "Zeros", 
               "config": {}
            }, 
            "name": "batch_normalization_17", 
            "epsilon": 0.001, 
            "trainable": true, 
            "center": true, 
            "moving_variance_initializer": {
               "class_name": "Ones", 
               "config": {}
            }, 
            "beta_initializer": {
               "class_name": "Zeros", 
               "config": {}
            }, 
            "scale": true, 
            "gamma_regularizer": null, 
            "gamma_constraint": null, 
            "beta_constraint": null, 
            "beta_regularizer": null, 
            "momentum": 0.99, 
            "axis": -1
         }
      }, 
      {
         "class_name": "Activation", 
         "config": {
            "activation": "relu", 
            "trainable": true, 
            "name": "activation_17"
         }
      }, 
      {
         "class_name": "Conv2D", 
         "config": {
            "kernel_initializer": {
               "class_name": "VarianceScaling", 
               "config": {
                  "distribution": "uniform", 
                  "scale": 1.0, 
                  "seed": null, 
                  "mode": "fan_avg"
               }
            }, 
            "name": "conv2d_18", 
            "kernel_constraint": null, 
            "bias_regularizer": null, 
            "bias_constraint": null, 
            "activation": "linear", 
            "trainable": true, 
            "data_format": "channels_first", 
            "padding": "same", 
            "strides": [
               1, 
               1
            ], 
            "dilation_rate": [
               1, 
               1
            ], 
            "kernel_regularizer": null, 
            "filters": 304, 
            "bias_initializer": {
               "class_name": "Zeros", 
               "config": {}
            }, 
            "use_bias": true, 
            "activity_regularizer": null, 
            "kernel_size": [
               3, 
               3
            ]
         }
      }, 
      {
         "class_name": "Dropout", 
         "config": {
            "rate": 0.2, 
            "trainable": true, 
            "name": "dropout_17"
         }
      }, 
      {
         "class_name": "BatchNormalization", 
         "config": {
            "gamma_initializer": {
               "class_name": "Ones", 
               "config": {}
            }, 
            "moving_mean_initializer": {
               "class_name": "Zeros", 
               "config": {}
            }, 
            "name": "batch_normalization_18", 
            "epsilon": 0.001, 
            "trainable": true, 
            "center": true, 
            "moving_variance_initializer": {
               "class_name": "Ones", 
               "config": {}
            }, 
            "beta_initializer": {
               "class_name": "Zeros", 
               "config": {}
            }, 
            "scale": true, 
            "gamma_regularizer": null, 
            "gamma_constraint": null, 
            "beta_constraint": null, 
            "beta_regularizer": null, 
            "momentum": 0.99, 
            "axis": -1
         }
      }, 
      {
         "class_name": "Activation", 
         "config": {
            "activation": "relu", 
            "trainable": true, 
            "name": "activation_18"
         }
      }, 
      {
         "class_name": "Conv2D", 
         "config": {
            "kernel_initializer": {
               "class_name": "VarianceScaling", 
               "config": {
                  "distribution": "uniform", 
                  "scale": 1.0, 
                  "seed": null, 
                  "mode": "fan_avg"
               }
            }, 
            "name": "conv2d_19", 
            "kernel_constraint": null, 
            "bias_regularizer": null, 
            "bias_constraint": null, 
            "activation": "linear", 
            "trainable": true, 
            "data_format": "channels_first", 
            "padding": "same", 
            "strides": [
               1, 
               1
            ], 
            "dilation_rate": [
               1, 
               1
            ], 
            "kernel_regularizer": null, 
            "filters": 304, 
            "bias_initializer": {
               "class_name": "Zeros", 
               "config": {}
            }, 
            "use_bias": true, 
            "activity_regularizer": null, 
            "kernel_size": [
               3, 
               3
            ]
         }
      }, 
      {
         "class_name": "Dropout", 
         "config": {
            "rate": 0.2, 
            "trainable": true, 
            "name": "dropout_18"
         }
      }, 
      {
         "class_name": "BatchNormalization", 
         "config": {
            "gamma_initializer": {
               "class_name": "Ones", 
               "config": {}
            }, 
            "moving_mean_initializer": {
               "class_name": "Zeros", 
               "config": {}
            }, 
            "name": "batch_normalization_19", 
            "epsilon": 0.001, 
            "trainable": true, 
            "center": true, 
            "moving_variance_initializer": {
               "class_name": "Ones", 
               "config": {}
            }, 
            "beta_initializer": {
               "class_name": "Zeros", 
               "config": {}
            }, 
            "scale": true, 
            "gamma_regularizer": null, 
            "gamma_constraint": null, 
            "beta_constraint": null, 
            "beta_regularizer": null, 
            "momentum": 0.99, 
            "axis": -1
         }
      }, 
      {
         "class_name": "Activation", 
         "config": {
            "activation": "relu", 
            "trainable": true, 
            "name": "activation_19"
         }
      }, 
      {
         "class_name": "Conv2D", 
         "config": {
            "kernel_initializer": {
               "class_name": "VarianceScaling", 
               "config": {
                  "distribution": "uniform", 
                  "scale": 1.0, 
                  "seed": null, 
                  "mode": "fan_avg"
               }
            }, 
            "name": "conv2d_20", 
            "kernel_constraint": null, 
            "bias_regularizer": null, 
            "bias_constraint": null, 
            "activation": "linear", 
            "trainable": true, 
            "data_format": "channels_first", 
            "padding": "same", 
            "strides": [
               1, 
               1
            ], 
            "dilation_rate": [
               1, 
               1
            ], 
            "kernel_regularizer": null, 
            "filters": 304, 
            "bias_initializer": {
               "class_name": "Zeros", 
               "config": {}
            }, 
            "use_bias": true, 
            "activity_regularizer": null, 
            "kernel_size": [
               1, 
               1
            ]
         }
      }, 
      {
         "class_name": "Dropout", 
         "config": {
            "rate": 0.2, 
            "trainable": true, 
            "name": "dropout_19"
         }
      }, 
      {
         "class_name": "MaxPooling2D", 
         "config": {
            "name": "max_pooling2d_3", 
            "trainable": true, 
            "data_format": "channels_first", 
            "pool_size": [
               2, 
               2
            ], 
            "padding": "valid", 
            "strides": [
               2, 
               2
            ]
         }
      }, 
      {
         "class_name": "BatchNormalization", 
         "config": {
            "gamma_initializer": {
               "class_name": "Ones", 
               "config": {}
            }, 
            "moving_mean_initializer": {
               "class_name": "Zeros", 
               "config": {}
            }, 
            "name": "batch_normalization_20", 
            "epsilon": 0.001, 
            "trainable": true, 
            "center": true, 
            "moving_variance_initializer": {
               "class_name": "Ones", 
               "config": {}
            }, 
            "beta_initializer": {
               "class_name": "Zeros", 
               "config": {}
            }, 
            "scale": true, 
            "gamma_regularizer": null, 
            "gamma_constraint": null, 
            "beta_constraint": null, 
            "beta_regularizer": null, 
            "momentum": 0.99, 
            "axis": -1
         }
      }, 
      {
         "class_name": "Activation", 
         "config": {
            "activation": "relu", 
            "trainable": true, 
            "name": "activation_20"
         }
      }, 
      {
         "class_name": "Conv2D", 
         "config": {
            "kernel_initializer": {
               "class_name": "VarianceScaling", 
               "config": {
                  "distribution": "uniform", 
                  "scale": 1.0, 
                  "seed": null, 
                  "mode": "fan_avg"
               }
            }, 
            "name": "conv2d_21", 
            "kernel_constraint": null, 
            "bias_regularizer": null, 
            "bias_constraint": null, 
            "activation": "linear", 
            "trainable": true, 
            "data_format": "channels_first", 
            "padding": "same", 
            "strides": [
               1, 
               1
            ], 
            "dilation_rate": [
               1, 
               1
            ], 
            "kernel_regularizer": null, 
            "filters": 464, 
            "bias_initializer": {
               "class_name": "Zeros", 
               "config": {}
            }, 
            "use_bias": true, 
            "activity_regularizer": null, 
            "kernel_size": [
               3, 
               3
            ]
         }
      }, 
      {
         "class_name": "Dropout", 
         "config": {
            "rate": 0.2, 
            "trainable": true, 
            "name": "dropout_20"
         }
      }, 
      {
         "class_name": "BatchNormalization", 
         "config": {
            "gamma_initializer": {
               "class_name": "Ones", 
               "config": {}
            }, 
            "moving_mean_initializer": {
               "class_name": "Zeros", 
               "config": {}
            }, 
            "name": "batch_normalization_21", 
            "epsilon": 0.001, 
            "trainable": true, 
            "center": true, 
            "moving_variance_initializer": {
               "class_name": "Ones", 
               "config": {}
            }, 
            "beta_initializer": {
               "class_name": "Zeros", 
               "config": {}
            }, 
            "scale": true, 
            "gamma_regularizer": null, 
            "gamma_constraint": null, 
            "beta_constraint": null, 
            "beta_regularizer": null, 
            "momentum": 0.99, 
            "axis": -1
         }
      }, 
      {
         "class_name": "Activation", 
         "config": {
            "activation": "relu", 
            "trainable": true, 
            "name": "activation_21"
         }
      }, 
      {
         "class_name": "Conv2D", 
         "config": {
            "kernel_initializer": {
               "class_name": "VarianceScaling", 
               "config": {
                  "distribution": "uniform", 
                  "scale": 1.0, 
                  "seed": null, 
                  "mode": "fan_avg"
               }
            }, 
            "name": "conv2d_22", 
            "kernel_constraint": null, 
            "bias_regularizer": null, 
            "bias_constraint": null, 
            "activation": "linear", 
            "trainable": true, 
            "data_format": "channels_first", 
            "padding": "same", 
            "strides": [
               1, 
               1
            ], 
            "dilation_rate": [
               1, 
               1
            ], 
            "kernel_regularizer": null, 
            "filters": 464, 
            "bias_initializer": {
               "class_name": "Zeros", 
               "config": {}
            }, 
            "use_bias": true, 
            "activity_regularizer": null, 
            "kernel_size": [
               3, 
               3
            ]
         }
      }, 
      {
         "class_name": "Dropout", 
         "config": {
            "rate": 0.2, 
            "trainable": true, 
            "name": "dropout_21"
         }
      }, 
      {
         "class_name": "BatchNormalization", 
         "config": {
            "gamma_initializer": {
               "class_name": "Ones", 
               "config": {}
            }, 
            "moving_mean_initializer": {
               "class_name": "Zeros", 
               "config": {}
            }, 
            "name": "batch_normalization_22", 
            "epsilon": 0.001, 
            "trainable": true, 
            "center": true, 
            "moving_variance_initializer": {
               "class_name": "Ones", 
               "config": {}
            }, 
            "beta_initializer": {
               "class_name": "Zeros", 
               "config": {}
            }, 
            "scale": true, 
            "gamma_regularizer": null, 
            "gamma_constraint": null, 
            "beta_constraint": null, 
            "beta_regularizer": null, 
            "momentum": 0.99, 
            "axis": -1
         }
      }, 
      {
         "class_name": "Activation", 
         "config": {
            "activation": "relu", 
            "trainable": true, 
            "name": "activation_22"
         }
      }, 
      {
         "class_name": "Conv2D", 
         "config": {
            "kernel_initializer": {
               "class_name": "VarianceScaling", 
               "config": {
                  "distribution": "uniform", 
                  "scale": 1.0, 
                  "seed": null, 
                  "mode": "fan_avg"
               }
            }, 
            "name": "conv2d_23", 
            "kernel_constraint": null, 
            "bias_regularizer": null, 
            "bias_constraint": null, 
            "activation": "linear", 
            "trainable": true, 
            "data_format": "channels_first", 
            "padding": "same", 
            "strides": [
               1, 
               1
            ], 
            "dilation_rate": [
               1, 
               1
            ], 
            "kernel_regularizer": null, 
            "filters": 464, 
            "bias_initializer": {
               "class_name": "Zeros", 
               "config": {}
            }, 
            "use_bias": true, 
            "activity_regularizer": null, 
            "kernel_size": [
               3, 
               3
            ]
         }
      }, 
      {
         "class_name": "Dropout", 
         "config": {
            "rate": 0.2, 
            "trainable": true, 
            "name": "dropout_22"
         }
      }, 
      {
         "class_name": "BatchNormalization", 
         "config": {
            "gamma_initializer": {
               "class_name": "Ones", 
               "config": {}
            }, 
            "moving_mean_initializer": {
               "class_name": "Zeros", 
               "config": {}
            }, 
            "name": "batch_normalization_23", 
            "epsilon": 0.001, 
            "trainable": true, 
            "center": true, 
            "moving_variance_initializer": {
               "class_name": "Ones", 
               "config": {}
            }, 
            "beta_initializer": {
               "class_name": "Zeros", 
               "config": {}
            }, 
            "scale": true, 
            "gamma_regularizer": null, 
            "gamma_constraint": null, 
            "beta_constraint": null, 
            "beta_regularizer": null, 
            "momentum": 0.99, 
            "axis": -1
         }
      }, 
      {
         "class_name": "Activation", 
         "config": {
            "activation": "relu", 
            "trainable": true, 
            "name": "activation_23"
         }
      }, 
      {
         "class_name": "Conv2D", 
         "config": {
            "kernel_initializer": {
               "class_name": "VarianceScaling", 
               "config": {
                  "distribution": "uniform", 
                  "scale": 1.0, 
                  "seed": null, 
                  "mode": "fan_avg"
               }
            }, 
            "name": "conv2d_24", 
            "kernel_constraint": null, 
            "bias_regularizer": null, 
            "bias_constraint": null, 
            "activation": "linear", 
            "trainable": true, 
            "data_format": "channels_first", 
            "padding": "same", 
            "strides": [
               1, 
               1
            ], 
            "dilation_rate": [
               1, 
               1
            ], 
            "kernel_regularizer": null, 
            "filters": 464, 
            "bias_initializer": {
               "class_name": "Zeros", 
               "config": {}
            }, 
            "use_bias": true, 
            "activity_regularizer": null, 
            "kernel_size": [
               3, 
               3
            ]
         }
      }, 
      {
         "class_name": "Dropout", 
         "config": {
            "rate": 0.2, 
            "trainable": true, 
            "name": "dropout_23"
         }
      }, 
      {
         "class_name": "BatchNormalization", 
         "config": {
            "gamma_initializer": {
               "class_name": "Ones", 
               "config": {}
            }, 
            "moving_mean_initializer": {
               "class_name": "Zeros", 
               "config": {}
            }, 
            "name": "batch_normalization_24", 
            "epsilon": 0.001, 
            "trainable": true, 
            "center": true, 
            "moving_variance_initializer": {
               "class_name": "Ones", 
               "config": {}
            }, 
            "beta_initializer": {
               "class_name": "Zeros", 
               "config": {}
            }, 
            "scale": true, 
            "gamma_regularizer": null, 
            "gamma_constraint": null, 
            "beta_constraint": null, 
            "beta_regularizer": null, 
            "momentum": 0.99, 
            "axis": -1
         }
      }, 
      {
         "class_name": "Activation", 
         "config": {
            "activation": "relu", 
            "trainable": true, 
            "name": "activation_24"
         }
      }, 
      {
         "class_name": "Conv2D", 
         "config": {
            "kernel_initializer": {
               "class_name": "VarianceScaling", 
               "config": {
                  "distribution": "uniform", 
                  "scale": 1.0, 
                  "seed": null, 
                  "mode": "fan_avg"
               }
            }, 
            "name": "conv2d_25", 
            "kernel_constraint": null, 
            "bias_regularizer": null, 
            "bias_constraint": null, 
            "activation": "linear", 
            "trainable": true, 
            "data_format": "channels_first", 
            "padding": "same", 
            "strides": [
               1, 
               1
            ], 
            "dilation_rate": [
               1, 
               1
            ], 
            "kernel_regularizer": null, 
            "filters": 464, 
            "bias_initializer": {
               "class_name": "Zeros", 
               "config": {}
            }, 
            "use_bias": true, 
            "activity_regularizer": null, 
            "kernel_size": [
               3, 
               3
            ]
         }
      }, 
      {
         "class_name": "Dropout", 
         "config": {
            "rate": 0.2, 
            "trainable": true, 
            "name": "dropout_24"
         }
      }, 
      {
         "class_name": "BatchNormalization", 
         "config": {
            "gamma_initializer": {
               "class_name": "Ones", 
               "config": {}
            }, 
            "moving_mean_initializer": {
               "class_name": "Zeros", 
               "config": {}
            }, 
            "name": "batch_normalization_25", 
            "epsilon": 0.001, 
            "trainable": true, 
            "center": true, 
            "moving_variance_initializer": {
               "class_name": "Ones", 
               "config": {}
            }, 
            "beta_initializer": {
               "class_name": "Zeros", 
               "config": {}
            }, 
            "scale": true, 
            "gamma_regularizer": null, 
            "gamma_constraint": null, 
            "beta_constraint": null, 
            "beta_regularizer": null, 
            "momentum": 0.99, 
            "axis": -1
         }
      }, 
      {
         "class_name": "Activation", 
         "config": {
            "activation": "relu", 
            "trainable": true, 
            "name": "activation_25"
         }
      }, 
      {
         "class_name": "Conv2D", 
         "config": {
            "kernel_initializer": {
               "class_name": "VarianceScaling", 
               "config": {
                  "distribution": "uniform", 
                  "scale": 1.0, 
                  "seed": null, 
                  "mode": "fan_avg"
               }
            }, 
            "name": "conv2d_26", 
            "kernel_constraint": null, 
            "bias_regularizer": null, 
            "bias_constraint": null, 
            "activation": "linear", 
            "trainable": true, 
            "data_format": "channels_first", 
            "padding": "same", 
            "strides": [
               1, 
               1
            ], 
            "dilation_rate": [
               1, 
               1
            ], 
            "kernel_regularizer": null, 
            "filters": 464, 
            "bias_initializer": {
               "class_name": "Zeros", 
               "config": {}
            }, 
            "use_bias": true, 
            "activity_regularizer": null, 
            "kernel_size": [
               3, 
               3
            ]
         }
      }, 
      {
         "class_name": "Dropout", 
         "config": {
            "rate": 0.2, 
            "trainable": true, 
            "name": "dropout_25"
         }
      }, 
      {
         "class_name": "BatchNormalization", 
         "config": {
            "gamma_initializer": {
               "class_name": "Ones", 
               "config": {}
            }, 
            "moving_mean_initializer": {
               "class_name": "Zeros", 
               "config": {}
            }, 
            "name": "batch_normalization_26", 
            "epsilon": 0.001, 
            "trainable": true, 
            "center": true, 
            "moving_variance_initializer": {
               "class_name": "Ones", 
               "config": {}
            }, 
            "beta_initializer": {
               "class_name": "Zeros", 
               "config": {}
            }, 
            "scale": true, 
            "gamma_regularizer": null, 
            "gamma_constraint": null, 
            "beta_constraint": null, 
            "beta_regularizer": null, 
            "momentum": 0.99, 
            "axis": -1
         }
      }, 
      {
         "class_name": "Activation", 
         "config": {
            "activation": "relu", 
            "trainable": true, 
            "name": "activation_26"
         }
      }, 
      {
         "class_name": "Conv2D", 
         "config": {
            "kernel_initializer": {
               "class_name": "VarianceScaling", 
               "config": {
                  "distribution": "uniform", 
                  "scale": 1.0, 
                  "seed": null, 
                  "mode": "fan_avg"
               }
            }, 
            "name": "conv2d_27", 
            "kernel_constraint": null, 
            "bias_regularizer": null, 
            "bias_constraint": null, 
            "activation": "linear", 
            "trainable": true, 
            "data_format": "channels_first", 
            "padding": "same", 
            "strides": [
               1, 
               1
            ], 
            "dilation_rate": [
               1, 
               1
            ], 
            "kernel_regularizer": null, 
            "filters": 464, 
            "bias_initializer": {
               "class_name": "Zeros", 
               "config": {}
            }, 
            "use_bias": true, 
            "activity_regularizer": null, 
            "kernel_size": [
               3, 
               3
            ]
         }
      }, 
      {
         "class_name": "Dropout", 
         "config": {
            "rate": 0.2, 
            "trainable": true, 
            "name": "dropout_26"
         }
      }, 
      {
         "class_name": "BatchNormalization", 
         "config": {
            "gamma_initializer": {
               "class_name": "Ones", 
               "config": {}
            }, 
            "moving_mean_initializer": {
               "class_name": "Zeros", 
               "config": {}
            }, 
            "name": "batch_normalization_27", 
            "epsilon": 0.001, 
            "trainable": true, 
            "center": true, 
            "moving_variance_initializer": {
               "class_name": "Ones", 
               "config": {}
            }, 
            "beta_initializer": {
               "class_name": "Zeros", 
               "config": {}
            }, 
            "scale": true, 
            "gamma_regularizer": null, 
            "gamma_constraint": null, 
            "beta_constraint": null, 
            "beta_regularizer": null, 
            "momentum": 0.99, 
            "axis": -1
         }
      }, 
      {
         "class_name": "Activation", 
         "config": {
            "activation": "relu", 
            "trainable": true, 
            "name": "activation_27"
         }
      }, 
      {
         "class_name": "Conv2D", 
         "config": {
            "kernel_initializer": {
               "class_name": "VarianceScaling", 
               "config": {
                  "distribution": "uniform", 
                  "scale": 1.0, 
                  "seed": null, 
                  "mode": "fan_avg"
               }
            }, 
            "name": "conv2d_28", 
            "kernel_constraint": null, 
            "bias_regularizer": null, 
            "bias_constraint": null, 
            "activation": "linear", 
            "trainable": true, 
            "data_format": "channels_first", 
            "padding": "same", 
            "strides": [
               1, 
               1
            ], 
            "dilation_rate": [
               1, 
               1
            ], 
            "kernel_regularizer": null, 
            "filters": 464, 
            "bias_initializer": {
               "class_name": "Zeros", 
               "config": {}
            }, 
            "use_bias": true, 
            "activity_regularizer": null, 
            "kernel_size": [
               3, 
               3
            ]
         }
      }, 
      {
         "class_name": "Dropout", 
         "config": {
            "rate": 0.2, 
            "trainable": true, 
            "name": "dropout_27"
         }
      }, 
      {
         "class_name": "BatchNormalization", 
         "config": {
            "gamma_initializer": {
               "class_name": "Ones", 
               "config": {}
            }, 
            "moving_mean_initializer": {
               "class_name": "Zeros", 
               "config": {}
            }, 
            "name": "batch_normalization_28", 
            "epsilon": 0.001, 
            "trainable": true, 
            "center": true, 
            "moving_variance_initializer": {
               "class_name": "Ones", 
               "config": {}
            }, 
            "beta_initializer": {
               "class_name": "Zeros", 
               "config": {}
            }, 
            "scale": true, 
            "gamma_regularizer": null, 
            "gamma_constraint": null, 
            "beta_constraint": null, 
            "beta_regularizer": null, 
            "momentum": 0.99, 
            "axis": -1
         }
      }, 
      {
         "class_name": "Activation", 
         "config": {
            "activation": "relu", 
            "trainable": true, 
            "name": "activation_28"
         }
      }, 
      {
         "class_name": "Conv2D", 
         "config": {
            "kernel_initializer": {
               "class_name": "VarianceScaling", 
               "config": {
                  "distribution": "uniform", 
                  "scale": 1.0, 
                  "seed": null, 
                  "mode": "fan_avg"
               }
            }, 
            "name": "conv2d_29", 
            "kernel_constraint": null, 
            "bias_regularizer": null, 
            "bias_constraint": null, 
            "activation": "linear", 
            "trainable": true, 
            "data_format": "channels_first", 
            "padding": "same", 
            "strides": [
               1, 
               1
            ], 
            "dilation_rate": [
               1, 
               1
            ], 
            "kernel_regularizer": null, 
            "filters": 464, 
            "bias_initializer": {
               "class_name": "Zeros", 
               "config": {}
            }, 
            "use_bias": true, 
            "activity_regularizer": null, 
            "kernel_size": [
               3, 
               3
            ]
         }
      }, 
      {
         "class_name": "Dropout", 
         "config": {
            "rate": 0.2, 
            "trainable": true, 
            "name": "dropout_28"
         }
      }, 
      {
         "class_name": "BatchNormalization", 
         "config": {
            "gamma_initializer": {
               "class_name": "Ones", 
               "config": {}
            }, 
            "moving_mean_initializer": {
               "class_name": "Zeros", 
               "config": {}
            }, 
            "name": "batch_normalization_29", 
            "epsilon": 0.001, 
            "trainable": true, 
            "center": true, 
            "moving_variance_initializer": {
               "class_name": "Ones", 
               "config": {}
            }, 
            "beta_initializer": {
               "class_name": "Zeros", 
               "config": {}
            }, 
            "scale": true, 
            "gamma_regularizer": null, 
            "gamma_constraint": null, 
            "beta_constraint": null, 
            "beta_regularizer": null, 
            "momentum": 0.99, 
            "axis": -1
         }
      }, 
      {
         "class_name": "Activation", 
         "config": {
            "activation": "relu", 
            "trainable": true, 
            "name": "activation_29"
         }
      }, 
      {
         "class_name": "Conv2D", 
         "config": {
            "kernel_initializer": {
               "class_name": "VarianceScaling", 
               "config": {
                  "distribution": "uniform", 
                  "scale": 1.0, 
                  "seed": null, 
                  "mode": "fan_avg"
               }
            }, 
            "name": "conv2d_30", 
            "kernel_constraint": null, 
            "bias_regularizer": null, 
            "bias_constraint": null, 
            "activation": "linear", 
            "trainable": true, 
            "data_format": "channels_first", 
            "padding": "same", 
            "strides": [
               1, 
               1
            ], 
            "dilation_rate": [
               1, 
               1
            ], 
            "kernel_regularizer": null, 
            "filters": 464, 
            "bias_initializer": {
               "class_name": "Zeros", 
               "config": {}
            }, 
            "use_bias": true, 
            "activity_regularizer": null, 
            "kernel_size": [
               3, 
               3
            ]
         }
      }, 
      {
         "class_name": "Dropout", 
         "config": {
            "rate": 0.2, 
            "trainable": true, 
            "name": "dropout_29"
         }
      }, 
      {
         "class_name": "BatchNormalization", 
         "config": {
            "gamma_initializer": {
               "class_name": "Ones", 
               "config": {}
            }, 
            "moving_mean_initializer": {
               "class_name": "Zeros", 
               "config": {}
            }, 
            "name": "batch_normalization_30", 
            "epsilon": 0.001, 
            "trainable": true, 
            "center": true, 
            "moving_variance_initializer": {
               "class_name": "Ones", 
               "config": {}
            }, 
            "beta_initializer": {
               "class_name": "Zeros", 
               "config": {}
            }, 
            "scale": true, 
            "gamma_regularizer": null, 
            "gamma_constraint": null, 
            "beta_constraint": null, 
            "beta_regularizer": null, 
            "momentum": 0.99, 
            "axis": -1
         }
      }, 
      {
         "class_name": "Activation", 
         "config": {
            "activation": "relu", 
            "trainable": true, 
            "name": "activation_30"
         }
      }, 
      {
         "class_name": "Conv2D", 
         "config": {
            "kernel_initializer": {
               "class_name": "VarianceScaling", 
               "config": {
                  "distribution": "uniform", 
                  "scale": 1.0, 
                  "seed": null, 
                  "mode": "fan_avg"
               }
            }, 
            "name": "conv2d_31", 
            "kernel_constraint": null, 
            "bias_regularizer": null, 
            "bias_constraint": null, 
            "activation": "linear", 
            "trainable": true, 
            "data_format": "channels_first", 
            "padding": "same", 
            "strides": [
               1, 
               1
            ], 
            "dilation_rate": [
               1, 
               1
            ], 
            "kernel_regularizer": null, 
            "filters": 464, 
            "bias_initializer": {
               "class_name": "Zeros", 
               "config": {}
            }, 
            "use_bias": true, 
            "activity_regularizer": null, 
            "kernel_size": [
               1, 
               1
            ]
         }
      }, 
      {
         "class_name": "Dropout", 
         "config": {
            "rate": 0.2, 
            "trainable": true, 
            "name": "dropout_30"
         }
      }, 
      {
         "class_name": "MaxPooling2D", 
         "config": {
            "name": "max_pooling2d_4", 
            "trainable": true, 
            "data_format": "channels_first", 
            "pool_size": [
               2, 
               2
            ], 
            "padding": "valid", 
            "strides": [
               2, 
               2
            ]
         }
      }, 
      {
         "class_name": "BatchNormalization", 
         "config": {
            "gamma_initializer": {
               "class_name": "Ones", 
               "config": {}
            }, 
            "moving_mean_initializer": {
               "class_name": "Zeros", 
               "config": {}
            }, 
            "name": "batch_normalization_31", 
            "epsilon": 0.001, 
            "trainable": true, 
            "center": true, 
            "moving_variance_initializer": {
               "class_name": "Ones", 
               "config": {}
            }, 
            "beta_initializer": {
               "class_name": "Zeros", 
               "config": {}
            }, 
            "scale": true, 
            "gamma_regularizer": null, 
            "gamma_constraint": null, 
            "beta_constraint": null, 
            "beta_regularizer": null, 
            "momentum": 0.99, 
            "axis": -1
         }
      }, 
      {
         "class_name": "Activation", 
         "config": {
            "activation": "relu", 
            "trainable": true, 
            "name": "activation_31"
         }
      }, 
      {
         "class_name": "Conv2D", 
         "config": {
            "kernel_initializer": {
               "class_name": "VarianceScaling", 
               "config": {
                  "distribution": "uniform", 
                  "scale": 1.0, 
                  "seed": null, 
                  "mode": "fan_avg"
               }
            }, 
            "name": "conv2d_32", 
            "kernel_constraint": null, 
            "bias_regularizer": null, 
            "bias_constraint": null, 
            "activation": "linear", 
            "trainable": true, 
            "data_format": "channels_first", 
            "padding": "same", 
            "strides": [
               1, 
               1
            ], 
            "dilation_rate": [
               1, 
               1
            ], 
            "kernel_regularizer": null, 
            "filters": 656, 
            "bias_initializer": {
               "class_name": "Zeros", 
               "config": {}
            }, 
            "use_bias": true, 
            "activity_regularizer": null, 
            "kernel_size": [
               3, 
               3
            ]
         }
      }, 
      {
         "class_name": "Dropout", 
         "config": {
            "rate": 0.2, 
            "trainable": true, 
            "name": "dropout_31"
         }
      }, 
      {
         "class_name": "BatchNormalization", 
         "config": {
            "gamma_initializer": {
               "class_name": "Ones", 
               "config": {}
            }, 
            "moving_mean_initializer": {
               "class_name": "Zeros", 
               "config": {}
            }, 
            "name": "batch_normalization_32", 
            "epsilon": 0.001, 
            "trainable": true, 
            "center": true, 
            "moving_variance_initializer": {
               "class_name": "Ones", 
               "config": {}
            }, 
            "beta_initializer": {
               "class_name": "Zeros", 
               "config": {}
            }, 
            "scale": true, 
            "gamma_regularizer": null, 
            "gamma_constraint": null, 
            "beta_constraint": null, 
            "beta_regularizer": null, 
            "momentum": 0.99, 
            "axis": -1
         }
      }, 
      {
         "class_name": "Activation", 
         "config": {
            "activation": "relu", 
            "trainable": true, 
            "name": "activation_32"
         }
      }, 
      {
         "class_name": "Conv2D", 
         "config": {
            "kernel_initializer": {
               "class_name": "VarianceScaling", 
               "config": {
                  "distribution": "uniform", 
                  "scale": 1.0, 
                  "seed": null, 
                  "mode": "fan_avg"
               }
            }, 
            "name": "conv2d_33", 
            "kernel_constraint": null, 
            "bias_regularizer": null, 
            "bias_constraint": null, 
            "activation": "linear", 
            "trainable": true, 
            "data_format": "channels_first", 
            "padding": "same", 
            "strides": [
               1, 
               1
            ], 
            "dilation_rate": [
               1, 
               1
            ], 
            "kernel_regularizer": null, 
            "filters": 656, 
            "bias_initializer": {
               "class_name": "Zeros", 
               "config": {}
            }, 
            "use_bias": true, 
            "activity_regularizer": null, 
            "kernel_size": [
               3, 
               3
            ]
         }
      }, 
      {
         "class_name": "Dropout", 
         "config": {
            "rate": 0.2, 
            "trainable": true, 
            "name": "dropout_32"
         }
      }, 
      {
         "class_name": "BatchNormalization", 
         "config": {
            "gamma_initializer": {
               "class_name": "Ones", 
               "config": {}
            }, 
            "moving_mean_initializer": {
               "class_name": "Zeros", 
               "config": {}
            }, 
            "name": "batch_normalization_33", 
            "epsilon": 0.001, 
            "trainable": true, 
            "center": true, 
            "moving_variance_initializer": {
               "class_name": "Ones", 
               "config": {}
            }, 
            "beta_initializer": {
               "class_name": "Zeros", 
               "config": {}
            }, 
            "scale": true, 
            "gamma_regularizer": null, 
            "gamma_constraint": null, 
            "beta_constraint": null, 
            "beta_regularizer": null, 
            "momentum": 0.99, 
            "axis": -1
         }
      }, 
      {
         "class_name": "Activation", 
         "config": {
            "activation": "relu", 
            "trainable": true, 
            "name": "activation_33"
         }
      }, 
      {
         "class_name": "Conv2D", 
         "config": {
            "kernel_initializer": {
               "class_name": "VarianceScaling", 
               "config": {
                  "distribution": "uniform", 
                  "scale": 1.0, 
                  "seed": null, 
                  "mode": "fan_avg"
               }
            }, 
            "name": "conv2d_34", 
            "kernel_constraint": null, 
            "bias_regularizer": null, 
            "bias_constraint": null, 
            "activation": "linear", 
            "trainable": true, 
            "data_format": "channels_first", 
            "padding": "same", 
            "strides": [
               1, 
               1
            ], 
            "dilation_rate": [
               1, 
               1
            ], 
            "kernel_regularizer": null, 
            "filters": 656, 
            "bias_initializer": {
               "class_name": "Zeros", 
               "config": {}
            }, 
            "use_bias": true, 
            "activity_regularizer": null, 
            "kernel_size": [
               3, 
               3
            ]
         }
      }, 
      {
         "class_name": "Dropout", 
         "config": {
            "rate": 0.2, 
            "trainable": true, 
            "name": "dropout_33"
         }
      }, 
      {
         "class_name": "BatchNormalization", 
         "config": {
            "gamma_initializer": {
               "class_name": "Ones", 
               "config": {}
            }, 
            "moving_mean_initializer": {
               "class_name": "Zeros", 
               "config": {}
            }, 
            "name": "batch_normalization_34", 
            "epsilon": 0.001, 
            "trainable": true, 
            "center": true, 
            "moving_variance_initializer": {
               "class_name": "Ones", 
               "config": {}
            }, 
            "beta_initializer": {
               "class_name": "Zeros", 
               "config": {}
            }, 
            "scale": true, 
            "gamma_regularizer": null, 
            "gamma_constraint": null, 
            "beta_constraint": null, 
            "beta_regularizer": null, 
            "momentum": 0.99, 
            "axis": -1
         }
      }, 
      {
         "class_name": "Activation", 
         "config": {
            "activation": "relu", 
            "trainable": true, 
            "name": "activation_34"
         }
      }, 
      {
         "class_name": "Conv2D", 
         "config": {
            "kernel_initializer": {
               "class_name": "VarianceScaling", 
               "config": {
                  "distribution": "uniform", 
                  "scale": 1.0, 
                  "seed": null, 
                  "mode": "fan_avg"
               }
            }, 
            "name": "conv2d_35", 
            "kernel_constraint": null, 
            "bias_regularizer": null, 
            "bias_constraint": null, 
            "activation": "linear", 
            "trainable": true, 
            "data_format": "channels_first", 
            "padding": "same", 
            "strides": [
               1, 
               1
            ], 
            "dilation_rate": [
               1, 
               1
            ], 
            "kernel_regularizer": null, 
            "filters": 656, 
            "bias_initializer": {
               "class_name": "Zeros", 
               "config": {}
            }, 
            "use_bias": true, 
            "activity_regularizer": null, 
            "kernel_size": [
               3, 
               3
            ]
         }
      }, 
      {
         "class_name": "Dropout", 
         "config": {
            "rate": 0.2, 
            "trainable": true, 
            "name": "dropout_34"
         }
      }, 
      {
         "class_name": "BatchNormalization", 
         "config": {
            "gamma_initializer": {
               "class_name": "Ones", 
               "config": {}
            }, 
            "moving_mean_initializer": {
               "class_name": "Zeros", 
               "config": {}
            }, 
            "name": "batch_normalization_35", 
            "epsilon": 0.001, 
            "trainable": true, 
            "center": true, 
            "moving_variance_initializer": {
               "class_name": "Ones", 
               "config": {}
            }, 
            "beta_initializer": {
               "class_name": "Zeros", 
               "config": {}
            }, 
            "scale": true, 
            "gamma_regularizer": null, 
            "gamma_constraint": null, 
            "beta_constraint": null, 
            "beta_regularizer": null, 
            "momentum": 0.99, 
            "axis": -1
         }
      }, 
      {
         "class_name": "Activation", 
         "config": {
            "activation": "relu", 
            "trainable": true, 
            "name": "activation_35"
         }
      }, 
      {
         "class_name": "Conv2D", 
         "config": {
            "kernel_initializer": {
               "class_name": "VarianceScaling", 
               "config": {
                  "distribution": "uniform", 
                  "scale": 1.0, 
                  "seed": null, 
                  "mode": "fan_avg"
               }
            }, 
            "name": "conv2d_36", 
            "kernel_constraint": null, 
            "bias_regularizer": null, 
            "bias_constraint": null, 
            "activation": "linear", 
            "trainable": true, 
            "data_format": "channels_first", 
            "padding": "same", 
            "strides": [
               1, 
               1
            ], 
            "dilation_rate": [
               1, 
               1
            ], 
            "kernel_regularizer": null, 
            "filters": 656, 
            "bias_initializer": {
               "class_name": "Zeros", 
               "config": {}
            }, 
            "use_bias": true, 
            "activity_regularizer": null, 
            "kernel_size": [
               3, 
               3
            ]
         }
      }, 
      {
         "class_name": "Dropout", 
         "config": {
            "rate": 0.2, 
            "trainable": true, 
            "name": "dropout_35"
         }
      }, 
      {
         "class_name": "BatchNormalization", 
         "config": {
            "gamma_initializer": {
               "class_name": "Ones", 
               "config": {}
            }, 
            "moving_mean_initializer": {
               "class_name": "Zeros", 
               "config": {}
            }, 
            "name": "batch_normalization_36", 
            "epsilon": 0.001, 
            "trainable": true, 
            "center": true, 
            "moving_variance_initializer": {
               "class_name": "Ones", 
               "config": {}
            }, 
            "beta_initializer": {
               "class_name": "Zeros", 
               "config": {}
            }, 
            "scale": true, 
            "gamma_regularizer": null, 
            "gamma_constraint": null, 
            "beta_constraint": null, 
            "beta_regularizer": null, 
            "momentum": 0.99, 
            "axis": -1
         }
      }, 
      {
         "class_name": "Activation", 
         "config": {
            "activation": "relu", 
            "trainable": true, 
            "name": "activation_36"
         }
      }, 
      {
         "class_name": "Conv2D", 
         "config": {
            "kernel_initializer": {
               "class_name": "VarianceScaling", 
               "config": {
                  "distribution": "uniform", 
                  "scale": 1.0, 
                  "seed": null, 
                  "mode": "fan_avg"
               }
            }, 
            "name": "conv2d_37", 
            "kernel_constraint": null, 
            "bias_regularizer": null, 
            "bias_constraint": null, 
            "activation": "linear", 
            "trainable": true, 
            "data_format": "channels_first", 
            "padding": "same", 
            "strides": [
               1, 
               1
            ], 
            "dilation_rate": [
               1, 
               1
            ], 
            "kernel_regularizer": null, 
            "filters": 656, 
            "bias_initializer": {
               "class_name": "Zeros", 
               "config": {}
            }, 
            "use_bias": true, 
            "activity_regularizer": null, 
            "kernel_size": [
               3, 
               3
            ]
         }
      }, 
      {
         "class_name": "Dropout", 
         "config": {
            "rate": 0.2, 
            "trainable": true, 
            "name": "dropout_36"
         }
      }, 
      {
         "class_name": "BatchNormalization", 
         "config": {
            "gamma_initializer": {
               "class_name": "Ones", 
               "config": {}
            }, 
            "moving_mean_initializer": {
               "class_name": "Zeros", 
               "config": {}
            }, 
            "name": "batch_normalization_37", 
            "epsilon": 0.001, 
            "trainable": true, 
            "center": true, 
            "moving_variance_initializer": {
               "class_name": "Ones", 
               "config": {}
            }, 
            "beta_initializer": {
               "class_name": "Zeros", 
               "config": {}
            }, 
            "scale": true, 
            "gamma_regularizer": null, 
            "gamma_constraint": null, 
            "beta_constraint": null, 
            "beta_regularizer": null, 
            "momentum": 0.99, 
            "axis": -1
         }
      }, 
      {
         "class_name": "Activation", 
         "config": {
            "activation": "relu", 
            "trainable": true, 
            "name": "activation_37"
         }
      }, 
      {
         "class_name": "Conv2D", 
         "config": {
            "kernel_initializer": {
               "class_name": "VarianceScaling", 
               "config": {
                  "distribution": "uniform", 
                  "scale": 1.0, 
                  "seed": null, 
                  "mode": "fan_avg"
               }
            }, 
            "name": "conv2d_38", 
            "kernel_constraint": null, 
            "bias_regularizer": null, 
            "bias_constraint": null, 
            "activation": "linear", 
            "trainable": true, 
            "data_format": "channels_first", 
            "padding": "same", 
            "strides": [
               1, 
               1
            ], 
            "dilation_rate": [
               1, 
               1
            ], 
            "kernel_regularizer": null, 
            "filters": 656, 
            "bias_initializer": {
               "class_name": "Zeros", 
               "config": {}
            }, 
            "use_bias": true, 
            "activity_regularizer": null, 
            "kernel_size": [
               3, 
               3
            ]
         }
      }, 
      {
         "class_name": "Dropout", 
         "config": {
            "rate": 0.2, 
            "trainable": true, 
            "name": "dropout_37"
         }
      }, 
      {
         "class_name": "BatchNormalization", 
         "config": {
            "gamma_initializer": {
               "class_name": "Ones", 
               "config": {}
            }, 
            "moving_mean_initializer": {
               "class_name": "Zeros", 
               "config": {}
            }, 
            "name": "batch_normalization_38", 
            "epsilon": 0.001, 
            "trainable": true, 
            "center": true, 
            "moving_variance_initializer": {
               "class_name": "Ones", 
               "config": {}
            }, 
            "beta_initializer": {
               "class_name": "Zeros", 
               "config": {}
            }, 
            "scale": true, 
            "gamma_regularizer": null, 
            "gamma_constraint": null, 
            "beta_constraint": null, 
            "beta_regularizer": null, 
            "momentum": 0.99, 
            "axis": -1
         }
      }, 
      {
         "class_name": "Activation", 
         "config": {
            "activation": "relu", 
            "trainable": true, 
            "name": "activation_38"
         }
      }, 
      {
         "class_name": "Conv2D", 
         "config": {
            "kernel_initializer": {
               "class_name": "VarianceScaling", 
               "config": {
                  "distribution": "uniform", 
                  "scale": 1.0, 
                  "seed": null, 
                  "mode": "fan_avg"
               }
            }, 
            "name": "conv2d_39", 
            "kernel_constraint": null, 
            "bias_regularizer": null, 
            "bias_constraint": null, 
            "activation": "linear", 
            "trainable": true, 
            "data_format": "channels_first", 
            "padding": "same", 
            "strides": [
               1, 
               1
            ], 
            "dilation_rate": [
               1, 
               1
            ], 
            "kernel_regularizer": null, 
            "filters": 656, 
            "bias_initializer": {
               "class_name": "Zeros", 
               "config": {}
            }, 
            "use_bias": true, 
            "activity_regularizer": null, 
            "kernel_size": [
               3, 
               3
            ]
         }
      }, 
      {
         "class_name": "Dropout", 
         "config": {
            "rate": 0.2, 
            "trainable": true, 
            "name": "dropout_38"
         }
      }, 
      {
         "class_name": "BatchNormalization", 
         "config": {
            "gamma_initializer": {
               "class_name": "Ones", 
               "config": {}
            }, 
            "moving_mean_initializer": {
               "class_name": "Zeros", 
               "config": {}
            }, 
            "name": "batch_normalization_39", 
            "epsilon": 0.001, 
            "trainable": true, 
            "center": true, 
            "moving_variance_initializer": {
               "class_name": "Ones", 
               "config": {}
            }, 
            "beta_initializer": {
               "class_name": "Zeros", 
               "config": {}
            }, 
            "scale": true, 
            "gamma_regularizer": null, 
            "gamma_constraint": null, 
            "beta_constraint": null, 
            "beta_regularizer": null, 
            "momentum": 0.99, 
            "axis": -1
         }
      }, 
      {
         "class_name": "Activation", 
         "config": {
            "activation": "relu", 
            "trainable": true, 
            "name": "activation_39"
         }
      }, 
      {
         "class_name": "Conv2D", 
         "config": {
            "kernel_initializer": {
               "class_name": "VarianceScaling", 
               "config": {
                  "distribution": "uniform", 
                  "scale": 1.0, 
                  "seed": null, 
                  "mode": "fan_avg"
               }
            }, 
            "name": "conv2d_40", 
            "kernel_constraint": null, 
            "bias_regularizer": null, 
            "bias_constraint": null, 
            "activation": "linear", 
            "trainable": true, 
            "data_format": "channels_first", 
            "padding": "same", 
            "strides": [
               1, 
               1
            ], 
            "dilation_rate": [
               1, 
               1
            ], 
            "kernel_regularizer": null, 
            "filters": 656, 
            "bias_initializer": {
               "class_name": "Zeros", 
               "config": {}
            }, 
            "use_bias": true, 
            "activity_regularizer": null, 
            "kernel_size": [
               3, 
               3
            ]
         }
      }, 
      {
         "class_name": "Dropout", 
         "config": {
            "rate": 0.2, 
            "trainable": true, 
            "name": "dropout_39"
         }
      }, 
      {
         "class_name": "BatchNormalization", 
         "config": {
            "gamma_initializer": {
               "class_name": "Ones", 
               "config": {}
            }, 
            "moving_mean_initializer": {
               "class_name": "Zeros", 
               "config": {}
            }, 
            "name": "batch_normalization_40", 
            "epsilon": 0.001, 
            "trainable": true, 
            "center": true, 
            "moving_variance_initializer": {
               "class_name": "Ones", 
               "config": {}
            }, 
            "beta_initializer": {
               "class_name": "Zeros", 
               "config": {}
            }, 
            "scale": true, 
            "gamma_regularizer": null, 
            "gamma_constraint": null, 
            "beta_constraint": null, 
            "beta_regularizer": null, 
            "momentum": 0.99, 
            "axis": -1
         }
      }, 
      {
         "class_name": "Activation", 
         "config": {
            "activation": "relu", 
            "trainable": true, 
            "name": "activation_40"
         }
      }, 
      {
         "class_name": "Conv2D", 
         "config": {
            "kernel_initializer": {
               "class_name": "VarianceScaling", 
               "config": {
                  "distribution": "uniform", 
                  "scale": 1.0, 
                  "seed": null, 
                  "mode": "fan_avg"
               }
            }, 
            "name": "conv2d_41", 
            "kernel_constraint": null, 
            "bias_regularizer": null, 
            "bias_constraint": null, 
            "activation": "linear", 
            "trainable": true, 
            "data_format": "channels_first", 
            "padding": "same", 
            "strides": [
               1, 
               1
            ], 
            "dilation_rate": [
               1, 
               1
            ], 
            "kernel_regularizer": null, 
            "filters": 656, 
            "bias_initializer": {
               "class_name": "Zeros", 
               "config": {}
            }, 
            "use_bias": true, 
            "activity_regularizer": null, 
            "kernel_size": [
               3, 
               3
            ]
         }
      }, 
      {
         "class_name": "Dropout", 
         "config": {
            "rate": 0.2, 
            "trainable": true, 
            "name": "dropout_40"
         }
      }, 
      {
         "class_name": "BatchNormalization", 
         "config": {
            "gamma_initializer": {
               "class_name": "Ones", 
               "config": {}
            }, 
            "moving_mean_initializer": {
               "class_name": "Zeros", 
               "config": {}
            }, 
            "name": "batch_normalization_41", 
            "epsilon": 0.001, 
            "trainable": true, 
            "center": true, 
            "moving_variance_initializer": {
               "class_name": "Ones", 
               "config": {}
            }, 
            "beta_initializer": {
               "class_name": "Zeros", 
               "config": {}
            }, 
            "scale": true, 
            "gamma_regularizer": null, 
            "gamma_constraint": null, 
            "beta_constraint": null, 
            "beta_regularizer": null, 
            "momentum": 0.99, 
            "axis": -1
         }
      }, 
      {
         "class_name": "Activation", 
         "config": {
            "activation": "relu", 
            "trainable": true, 
            "name": "activation_41"
         }
      }, 
      {
         "class_name": "Conv2D", 
         "config": {
            "kernel_initializer": {
               "class_name": "VarianceScaling", 
               "config": {
                  "distribution": "uniform", 
                  "scale": 1.0, 
                  "seed": null, 
                  "mode": "fan_avg"
               }
            }, 
            "name": "conv2d_42", 
            "kernel_constraint": null, 
            "bias_regularizer": null, 
            "bias_constraint": null, 
            "activation": "linear", 
            "trainable": true, 
            "data_format": "channels_first", 
            "padding": "same", 
            "strides": [
               1, 
               1
            ], 
            "dilation_rate": [
               1, 
               1
            ], 
            "kernel_regularizer": null, 
            "filters": 656, 
            "bias_initializer": {
               "class_name": "Zeros", 
               "config": {}
            }, 
            "use_bias": true, 
            "activity_regularizer": null, 
            "kernel_size": [
               3, 
               3
            ]
         }
      }, 
      {
         "class_name": "Dropout", 
         "config": {
            "rate": 0.2, 
            "trainable": true, 
            "name": "dropout_41"
         }
      }, 
      {
         "class_name": "BatchNormalization", 
         "config": {
            "gamma_initializer": {
               "class_name": "Ones", 
               "config": {}
            }, 
            "moving_mean_initializer": {
               "class_name": "Zeros", 
               "config": {}
            }, 
            "name": "batch_normalization_42", 
            "epsilon": 0.001, 
            "trainable": true, 
            "center": true, 
            "moving_variance_initializer": {
               "class_name": "Ones", 
               "config": {}
            }, 
            "beta_initializer": {
               "class_name": "Zeros", 
               "config": {}
            }, 
            "scale": true, 
            "gamma_regularizer": null, 
            "gamma_constraint": null, 
            "beta_constraint": null, 
            "beta_regularizer": null, 
            "momentum": 0.99, 
            "axis": -1
         }
      }, 
      {
         "class_name": "Activation", 
         "config": {
            "activation": "relu", 
            "trainable": true, 
            "name": "activation_42"
         }
      }, 
      {
         "class_name": "Conv2D", 
         "config": {
            "kernel_initializer": {
               "class_name": "VarianceScaling", 
               "config": {
                  "distribution": "uniform", 
                  "scale": 1.0, 
                  "seed": null, 
                  "mode": "fan_avg"
               }
            }, 
            "name": "conv2d_43", 
            "kernel_constraint": null, 
            "bias_regularizer": null, 
            "bias_constraint": null, 
            "activation": "linear", 
            "trainable": true, 
            "data_format": "channels_first", 
            "padding": "same", 
            "strides": [
               1, 
               1
            ], 
            "dilation_rate": [
               1, 
               1
            ], 
            "kernel_regularizer": null, 
            "filters": 656, 
            "bias_initializer": {
               "class_name": "Zeros", 
               "config": {}
            }, 
            "use_bias": true, 
            "activity_regularizer": null, 
            "kernel_size": [
               3, 
               3
            ]
         }
      }, 
      {
         "class_name": "Dropout", 
         "config": {
            "rate": 0.2, 
            "trainable": true, 
            "name": "dropout_42"
         }
      }, 
      {
         "class_name": "BatchNormalization", 
         "config": {
            "gamma_initializer": {
               "class_name": "Ones", 
               "config": {}
            }, 
            "moving_mean_initializer": {
               "class_name": "Zeros", 
               "config": {}
            }, 
            "name": "batch_normalization_43", 
            "epsilon": 0.001, 
            "trainable": true, 
            "center": true, 
            "moving_variance_initializer": {
               "class_name": "Ones", 
               "config": {}
            }, 
            "beta_initializer": {
               "class_name": "Zeros", 
               "config": {}
            }, 
            "scale": true, 
            "gamma_regularizer": null, 
            "gamma_constraint": null, 
            "beta_constraint": null, 
            "beta_regularizer": null, 
            "momentum": 0.99, 
            "axis": -1
         }
      }, 
      {
         "class_name": "Activation", 
         "config": {
            "activation": "relu", 
            "trainable": true, 
            "name": "activation_43"
         }
      }, 
      {
         "class_name": "Conv2D", 
         "config": {
            "kernel_initializer": {
               "class_name": "VarianceScaling", 
               "config": {
                  "distribution": "uniform", 
                  "scale": 1.0, 
                  "seed": null, 
                  "mode": "fan_avg"
               }
            }, 
            "name": "conv2d_44", 
            "kernel_constraint": null, 
            "bias_regularizer": null, 
            "bias_constraint": null, 
            "activation": "linear", 
            "trainable": true, 
            "data_format": "channels_first", 
            "padding": "same", 
            "strides": [
               1, 
               1
            ], 
            "dilation_rate": [
               1, 
               1
            ], 
            "kernel_regularizer": null, 
            "filters": 656, 
            "bias_initializer": {
               "class_name": "Zeros", 
               "config": {}
            }, 
            "use_bias": true, 
            "activity_regularizer": null, 
            "kernel_size": [
               1, 
               1
            ]
         }
      }, 
      {
         "class_name": "Dropout", 
         "config": {
            "rate": 0.2, 
            "trainable": true, 
            "name": "dropout_43"
         }
      }, 
      {
         "class_name": "MaxPooling2D", 
         "config": {
            "name": "max_pooling2d_5", 
            "trainable": true, 
            "data_format": "channels_first", 
            "pool_size": [
               2, 
               2
            ], 
            "padding": "valid", 
            "strides": [
               2, 
               2
            ]
         }
      }, 
      {
         "class_name": "BatchNormalization", 
         "config": {
            "gamma_initializer": {
               "class_name": "Ones", 
               "config": {}
            }, 
            "moving_mean_initializer": {
               "class_name": "Zeros", 
               "config": {}
            }, 
            "name": "batch_normalization_44", 
            "epsilon": 0.001, 
            "trainable": true, 
            "center": true, 
            "moving_variance_initializer": {
               "class_name": "Ones", 
               "config": {}
            }, 
            "beta_initializer": {
               "class_name": "Zeros", 
               "config": {}
            }, 
            "scale": true, 
            "gamma_regularizer": null, 
            "gamma_constraint": null, 
            "beta_constraint": null, 
            "beta_regularizer": null, 
            "momentum": 0.99, 
            "axis": -1
         }
      }, 
      {
         "class_name": "Activation", 
         "config": {
            "activation": "relu", 
            "trainable": true, 
            "name": "activation_44"
         }
      }, 
      {
         "class_name": "Conv2D", 
         "config": {
            "kernel_initializer": {
               "class_name": "VarianceScaling", 
               "config": {
                  "distribution": "uniform", 
                  "scale": 1.0, 
                  "seed": null, 
                  "mode": "fan_avg"
               }
            }, 
            "name": "conv2d_45", 
            "kernel_constraint": null, 
            "bias_regularizer": null, 
            "bias_constraint": null, 
            "activation": "linear", 
            "trainable": true, 
            "data_format": "channels_first", 
            "padding": "same", 
            "strides": [
               1, 
               1
            ], 
            "dilation_rate": [
               1, 
               1
            ], 
            "kernel_regularizer": null, 
            "filters": 880, 
            "bias_initializer": {
               "class_name": "Zeros", 
               "config": {}
            }, 
            "use_bias": true, 
            "activity_regularizer": null, 
            "kernel_size": [
               3, 
               3
            ]
         }
      }, 
      {
         "class_name": "Dropout", 
         "config": {
            "rate": 0.2, 
            "trainable": true, 
            "name": "dropout_44"
         }
      }, 
      {
         "class_name": "BatchNormalization", 
         "config": {
            "gamma_initializer": {
               "class_name": "Ones", 
               "config": {}
            }, 
            "moving_mean_initializer": {
               "class_name": "Zeros", 
               "config": {}
            }, 
            "name": "batch_normalization_45", 
            "epsilon": 0.001, 
            "trainable": true, 
            "center": true, 
            "moving_variance_initializer": {
               "class_name": "Ones", 
               "config": {}
            }, 
            "beta_initializer": {
               "class_name": "Zeros", 
               "config": {}
            }, 
            "scale": true, 
            "gamma_regularizer": null, 
            "gamma_constraint": null, 
            "beta_constraint": null, 
            "beta_regularizer": null, 
            "momentum": 0.99, 
            "axis": -1
         }
      }, 
      {
         "class_name": "Activation", 
         "config": {
            "activation": "relu", 
            "trainable": true, 
            "name": "activation_45"
         }
      }, 
      {
         "class_name": "Conv2D", 
         "config": {
            "kernel_initializer": {
               "class_name": "VarianceScaling", 
               "config": {
                  "distribution": "uniform", 
                  "scale": 1.0, 
                  "seed": null, 
                  "mode": "fan_avg"
               }
            }, 
            "name": "conv2d_46", 
            "kernel_constraint": null, 
            "bias_regularizer": null, 
            "bias_constraint": null, 
            "activation": "linear", 
            "trainable": true, 
            "data_format": "channels_first", 
            "padding": "same", 
            "strides": [
               1, 
               1
            ], 
            "dilation_rate": [
               1, 
               1
            ], 
            "kernel_regularizer": null, 
            "filters": 880, 
            "bias_initializer": {
               "class_name": "Zeros", 
               "config": {}
            }, 
            "use_bias": true, 
            "activity_regularizer": null, 
            "kernel_size": [
               3, 
               3
            ]
         }
      }, 
      {
         "class_name": "Dropout", 
         "config": {
            "rate": 0.2, 
            "trainable": true, 
            "name": "dropout_45"
         }
      }, 
      {
         "class_name": "BatchNormalization", 
         "config": {
            "gamma_initializer": {
               "class_name": "Ones", 
               "config": {}
            }, 
            "moving_mean_initializer": {
               "class_name": "Zeros", 
               "config": {}
            }, 
            "name": "batch_normalization_46", 
            "epsilon": 0.001, 
            "trainable": true, 
            "center": true, 
            "moving_variance_initializer": {
               "class_name": "Ones", 
               "config": {}
            }, 
            "beta_initializer": {
               "class_name": "Zeros", 
               "config": {}
            }, 
            "scale": true, 
            "gamma_regularizer": null, 
            "gamma_constraint": null, 
            "beta_constraint": null, 
            "beta_regularizer": null, 
            "momentum": 0.99, 
            "axis": -1
         }
      }, 
      {
         "class_name": "Activation", 
         "config": {
            "activation": "relu", 
            "trainable": true, 
            "name": "activation_46"
         }
      }, 
      {
         "class_name": "Conv2D", 
         "config": {
            "kernel_initializer": {
               "class_name": "VarianceScaling", 
               "config": {
                  "distribution": "uniform", 
                  "scale": 1.0, 
                  "seed": null, 
                  "mode": "fan_avg"
               }
            }, 
            "name": "conv2d_47", 
            "kernel_constraint": null, 
            "bias_regularizer": null, 
            "bias_constraint": null, 
            "activation": "linear", 
            "trainable": true, 
            "data_format": "channels_first", 
            "padding": "same", 
            "strides": [
               1, 
               1
            ], 
            "dilation_rate": [
               1, 
               1
            ], 
            "kernel_regularizer": null, 
            "filters": 880, 
            "bias_initializer": {
               "class_name": "Zeros", 
               "config": {}
            }, 
            "use_bias": true, 
            "activity_regularizer": null, 
            "kernel_size": [
               3, 
               3
            ]
         }
      }, 
      {
         "class_name": "Dropout", 
         "config": {
            "rate": 0.2, 
            "trainable": true, 
            "name": "dropout_46"
         }
      }, 
      {
         "class_name": "BatchNormalization", 
         "config": {
            "gamma_initializer": {
               "class_name": "Ones", 
               "config": {}
            }, 
            "moving_mean_initializer": {
               "class_name": "Zeros", 
               "config": {}
            }, 
            "name": "batch_normalization_47", 
            "epsilon": 0.001, 
            "trainable": true, 
            "center": true, 
            "moving_variance_initializer": {
               "class_name": "Ones", 
               "config": {}
            }, 
            "beta_initializer": {
               "class_name": "Zeros", 
               "config": {}
            }, 
            "scale": true, 
            "gamma_regularizer": null, 
            "gamma_constraint": null, 
            "beta_constraint": null, 
            "beta_regularizer": null, 
            "momentum": 0.99, 
            "axis": -1
         }
      }, 
      {
         "class_name": "Activation", 
         "config": {
            "activation": "relu", 
            "trainable": true, 
            "name": "activation_47"
         }
      }, 
      {
         "class_name": "Conv2D", 
         "config": {
            "kernel_initializer": {
               "class_name": "VarianceScaling", 
               "config": {
                  "distribution": "uniform", 
                  "scale": 1.0, 
                  "seed": null, 
                  "mode": "fan_avg"
               }
            }, 
            "name": "conv2d_48", 
            "kernel_constraint": null, 
            "bias_regularizer": null, 
            "bias_constraint": null, 
            "activation": "linear", 
            "trainable": true, 
            "data_format": "channels_first", 
            "padding": "same", 
            "strides": [
               1, 
               1
            ], 
            "dilation_rate": [
               1, 
               1
            ], 
            "kernel_regularizer": null, 
            "filters": 880, 
            "bias_initializer": {
               "class_name": "Zeros", 
               "config": {}
            }, 
            "use_bias": true, 
            "activity_regularizer": null, 
            "kernel_size": [
               3, 
               3
            ]
         }
      }, 
      {
         "class_name": "Dropout", 
         "config": {
            "rate": 0.2, 
            "trainable": true, 
            "name": "dropout_47"
         }
      }, 
      {
         "class_name": "BatchNormalization", 
         "config": {
            "gamma_initializer": {
               "class_name": "Ones", 
               "config": {}
            }, 
            "moving_mean_initializer": {
               "class_name": "Zeros", 
               "config": {}
            }, 
            "name": "batch_normalization_48", 
            "epsilon": 0.001, 
            "trainable": true, 
            "center": true, 
            "moving_variance_initializer": {
               "class_name": "Ones", 
               "config": {}
            }, 
            "beta_initializer": {
               "class_name": "Zeros", 
               "config": {}
            }, 
            "scale": true, 
            "gamma_regularizer": null, 
            "gamma_constraint": null, 
            "beta_constraint": null, 
            "beta_regularizer": null, 
            "momentum": 0.99, 
            "axis": -1
         }
      }, 
      {
         "class_name": "Activation", 
         "config": {
            "activation": "relu", 
            "trainable": true, 
            "name": "activation_48"
         }
      }, 
      {
         "class_name": "Conv2D", 
         "config": {
            "kernel_initializer": {
               "class_name": "VarianceScaling", 
               "config": {
                  "distribution": "uniform", 
                  "scale": 1.0, 
                  "seed": null, 
                  "mode": "fan_avg"
               }
            }, 
            "name": "conv2d_49", 
            "kernel_constraint": null, 
            "bias_regularizer": null, 
            "bias_constraint": null, 
            "activation": "linear", 
            "trainable": true, 
            "data_format": "channels_first", 
            "padding": "same", 
            "strides": [
               1, 
               1
            ], 
            "dilation_rate": [
               1, 
               1
            ], 
            "kernel_regularizer": null, 
            "filters": 880, 
            "bias_initializer": {
               "class_name": "Zeros", 
               "config": {}
            }, 
            "use_bias": true, 
            "activity_regularizer": null, 
            "kernel_size": [
               3, 
               3
            ]
         }
      }, 
      {
         "class_name": "Dropout", 
         "config": {
            "rate": 0.2, 
            "trainable": true, 
            "name": "dropout_48"
         }
      }, 
      {
         "class_name": "BatchNormalization", 
         "config": {
            "gamma_initializer": {
               "class_name": "Ones", 
               "config": {}
            }, 
            "moving_mean_initializer": {
               "class_name": "Zeros", 
               "config": {}
            }, 
            "name": "batch_normalization_49", 
            "epsilon": 0.001, 
            "trainable": true, 
            "center": true, 
            "moving_variance_initializer": {
               "class_name": "Ones", 
               "config": {}
            }, 
            "beta_initializer": {
               "class_name": "Zeros", 
               "config": {}
            }, 
            "scale": true, 
            "gamma_regularizer": null, 
            "gamma_constraint": null, 
            "beta_constraint": null, 
            "beta_regularizer": null, 
            "momentum": 0.99, 
            "axis": -1
         }
      }, 
      {
         "class_name": "Activation", 
         "config": {
            "activation": "relu", 
            "trainable": true, 
            "name": "activation_49"
         }
      }, 
      {
         "class_name": "Conv2D", 
         "config": {
            "kernel_initializer": {
               "class_name": "VarianceScaling", 
               "config": {
                  "distribution": "uniform", 
                  "scale": 1.0, 
                  "seed": null, 
                  "mode": "fan_avg"
               }
            }, 
            "name": "conv2d_50", 
            "kernel_constraint": null, 
            "bias_regularizer": null, 
            "bias_constraint": null, 
            "activation": "linear", 
            "trainable": true, 
            "data_format": "channels_first", 
            "padding": "same", 
            "strides": [
               1, 
               1
            ], 
            "dilation_rate": [
               1, 
               1
            ], 
            "kernel_regularizer": null, 
            "filters": 880, 
            "bias_initializer": {
               "class_name": "Zeros", 
               "config": {}
            }, 
            "use_bias": true, 
            "activity_regularizer": null, 
            "kernel_size": [
               3, 
               3
            ]
         }
      }, 
      {
         "class_name": "Dropout", 
         "config": {
            "rate": 0.2, 
            "trainable": true, 
            "name": "dropout_49"
         }
      }, 
      {
         "class_name": "BatchNormalization", 
         "config": {
            "gamma_initializer": {
               "class_name": "Ones", 
               "config": {}
            }, 
            "moving_mean_initializer": {
               "class_name": "Zeros", 
               "config": {}
            }, 
            "name": "batch_normalization_50", 
            "epsilon": 0.001, 
            "trainable": true, 
            "center": true, 
            "moving_variance_initializer": {
               "class_name": "Ones", 
               "config": {}
            }, 
            "beta_initializer": {
               "class_name": "Zeros", 
               "config": {}
            }, 
            "scale": true, 
            "gamma_regularizer": null, 
            "gamma_constraint": null, 
            "beta_constraint": null, 
            "beta_regularizer": null, 
            "momentum": 0.99, 
            "axis": -1
         }
      }, 
      {
         "class_name": "Activation", 
         "config": {
            "activation": "relu", 
            "trainable": true, 
            "name": "activation_50"
         }
      }, 
      {
         "class_name": "Conv2D", 
         "config": {
            "kernel_initializer": {
               "class_name": "VarianceScaling", 
               "config": {
                  "distribution": "uniform", 
                  "scale": 1.0, 
                  "seed": null, 
                  "mode": "fan_avg"
               }
            }, 
            "name": "conv2d_51", 
            "kernel_constraint": null, 
            "bias_regularizer": null, 
            "bias_constraint": null, 
            "activation": "linear", 
            "trainable": true, 
            "data_format": "channels_first", 
            "padding": "same", 
            "strides": [
               1, 
               1
            ], 
            "dilation_rate": [
               1, 
               1
            ], 
            "kernel_regularizer": null, 
            "filters": 880, 
            "bias_initializer": {
               "class_name": "Zeros", 
               "config": {}
            }, 
            "use_bias": true, 
            "activity_regularizer": null, 
            "kernel_size": [
               3, 
               3
            ]
         }
      }, 
      {
         "class_name": "Dropout", 
         "config": {
            "rate": 0.2, 
            "trainable": true, 
            "name": "dropout_50"
         }
      }, 
      {
         "class_name": "BatchNormalization", 
         "config": {
            "gamma_initializer": {
               "class_name": "Ones", 
               "config": {}
            }, 
            "moving_mean_initializer": {
               "class_name": "Zeros", 
               "config": {}
            }, 
            "name": "batch_normalization_51", 
            "epsilon": 0.001, 
            "trainable": true, 
            "center": true, 
            "moving_variance_initializer": {
               "class_name": "Ones", 
               "config": {}
            }, 
            "beta_initializer": {
               "class_name": "Zeros", 
               "config": {}
            }, 
            "scale": true, 
            "gamma_regularizer": null, 
            "gamma_constraint": null, 
            "beta_constraint": null, 
            "beta_regularizer": null, 
            "momentum": 0.99, 
            "axis": -1
         }
      }, 
      {
         "class_name": "Activation", 
         "config": {
            "activation": "relu", 
            "trainable": true, 
            "name": "activation_51"
         }
      }, 
      {
         "class_name": "Conv2D", 
         "config": {
            "kernel_initializer": {
               "class_name": "VarianceScaling", 
               "config": {
                  "distribution": "uniform", 
                  "scale": 1.0, 
                  "seed": null, 
                  "mode": "fan_avg"
               }
            }, 
            "name": "conv2d_52", 
            "kernel_constraint": null, 
            "bias_regularizer": null, 
            "bias_constraint": null, 
            "activation": "linear", 
            "trainable": true, 
            "data_format": "channels_first", 
            "padding": "same", 
            "strides": [
               1, 
               1
            ], 
            "dilation_rate": [
               1, 
               1
            ], 
            "kernel_regularizer": null, 
            "filters": 880, 
            "bias_initializer": {
               "class_name": "Zeros", 
               "config": {}
            }, 
            "use_bias": true, 
            "activity_regularizer": null, 
            "kernel_size": [
               3, 
               3
            ]
         }
      }, 
      {
         "class_name": "Dropout", 
         "config": {
            "rate": 0.2, 
            "trainable": true, 
            "name": "dropout_51"
         }
      }, 
      {
         "class_name": "BatchNormalization", 
         "config": {
            "gamma_initializer": {
               "class_name": "Ones", 
               "config": {}
            }, 
            "moving_mean_initializer": {
               "class_name": "Zeros", 
               "config": {}
            }, 
            "name": "batch_normalization_52", 
            "epsilon": 0.001, 
            "trainable": true, 
            "center": true, 
            "moving_variance_initializer": {
               "class_name": "Ones", 
               "config": {}
            }, 
            "beta_initializer": {
               "class_name": "Zeros", 
               "config": {}
            }, 
            "scale": true, 
            "gamma_regularizer": null, 
            "gamma_constraint": null, 
            "beta_constraint": null, 
            "beta_regularizer": null, 
            "momentum": 0.99, 
            "axis": -1
         }
      }, 
      {
         "class_name": "Activation", 
         "config": {
            "activation": "relu", 
            "trainable": true, 
            "name": "activation_52"
         }
      }, 
      {
         "class_name": "Conv2D", 
         "config": {
            "kernel_initializer": {
               "class_name": "VarianceScaling", 
               "config": {
                  "distribution": "uniform", 
                  "scale": 1.0, 
                  "seed": null, 
                  "mode": "fan_avg"
               }
            }, 
            "name": "conv2d_53", 
            "kernel_constraint": null, 
            "bias_regularizer": null, 
            "bias_constraint": null, 
            "activation": "linear", 
            "trainable": true, 
            "data_format": "channels_first", 
            "padding": "same", 
            "strides": [
               1, 
               1
            ], 
            "dilation_rate": [
               1, 
               1
            ], 
            "kernel_regularizer": null, 
            "filters": 880, 
            "bias_initializer": {
               "class_name": "Zeros", 
               "config": {}
            }, 
            "use_bias": true, 
            "activity_regularizer": null, 
            "kernel_size": [
               3, 
               3
            ]
         }
      }, 
      {
         "class_name": "Dropout", 
         "config": {
            "rate": 0.2, 
            "trainable": true, 
            "name": "dropout_52"
         }
      }, 
      {
         "class_name": "BatchNormalization", 
         "config": {
            "gamma_initializer": {
               "class_name": "Ones", 
               "config": {}
            }, 
            "moving_mean_initializer": {
               "class_name": "Zeros", 
               "config": {}
            }, 
            "name": "batch_normalization_53", 
            "epsilon": 0.001, 
            "trainable": true, 
            "center": true, 
            "moving_variance_initializer": {
               "class_name": "Ones", 
               "config": {}
            }, 
            "beta_initializer": {
               "class_name": "Zeros", 
               "config": {}
            }, 
            "scale": true, 
            "gamma_regularizer": null, 
            "gamma_constraint": null, 
            "beta_constraint": null, 
            "beta_regularizer": null, 
            "momentum": 0.99, 
            "axis": -1
         }
      }, 
      {
         "class_name": "Activation", 
         "config": {
            "activation": "relu", 
            "trainable": true, 
            "name": "activation_53"
         }
      }, 
      {
         "class_name": "Conv2D", 
         "config": {
            "kernel_initializer": {
               "class_name": "VarianceScaling", 
               "config": {
                  "distribution": "uniform", 
                  "scale": 1.0, 
                  "seed": null, 
                  "mode": "fan_avg"
               }
            }, 
            "name": "conv2d_54", 
            "kernel_constraint": null, 
            "bias_regularizer": null, 
            "bias_constraint": null, 
            "activation": "linear", 
            "trainable": true, 
            "data_format": "channels_first", 
            "padding": "same", 
            "strides": [
               1, 
               1
            ], 
            "dilation_rate": [
               1, 
               1
            ], 
            "kernel_regularizer": null, 
            "filters": 880, 
            "bias_initializer": {
               "class_name": "Zeros", 
               "config": {}
            }, 
            "use_bias": true, 
            "activity_regularizer": null, 
            "kernel_size": [
               3, 
               3
            ]
         }
      }, 
      {
         "class_name": "Dropout", 
         "config": {
            "rate": 0.2, 
            "trainable": true, 
            "name": "dropout_53"
         }
      }, 
      {
         "class_name": "BatchNormalization", 
         "config": {
            "gamma_initializer": {
               "class_name": "Ones", 
               "config": {}
            }, 
            "moving_mean_initializer": {
               "class_name": "Zeros", 
               "config": {}
            }, 
            "name": "batch_normalization_54", 
            "epsilon": 0.001, 
            "trainable": true, 
            "center": true, 
            "moving_variance_initializer": {
               "class_name": "Ones", 
               "config": {}
            }, 
            "beta_initializer": {
               "class_name": "Zeros", 
               "config": {}
            }, 
            "scale": true, 
            "gamma_regularizer": null, 
            "gamma_constraint": null, 
            "beta_constraint": null, 
            "beta_regularizer": null, 
            "momentum": 0.99, 
            "axis": -1
         }
      }, 
      {
         "class_name": "Activation", 
         "config": {
            "activation": "relu", 
            "trainable": true, 
            "name": "activation_54"
         }
      }, 
      {
         "class_name": "Conv2D", 
         "config": {
            "kernel_initializer": {
               "class_name": "VarianceScaling", 
               "config": {
                  "distribution": "uniform", 
                  "scale": 1.0, 
                  "seed": null, 
                  "mode": "fan_avg"
               }
            }, 
            "name": "conv2d_55", 
            "kernel_constraint": null, 
            "bias_regularizer": null, 
            "bias_constraint": null, 
            "activation": "linear", 
            "trainable": true, 
            "data_format": "channels_first", 
            "padding": "same", 
            "strides": [
               1, 
               1
            ], 
            "dilation_rate": [
               1, 
               1
            ], 
            "kernel_regularizer": null, 
            "filters": 880, 
            "bias_initializer": {
               "class_name": "Zeros", 
               "config": {}
            }, 
            "use_bias": true, 
            "activity_regularizer": null, 
            "kernel_size": [
               3, 
               3
            ]
         }
      }, 
      {
         "class_name": "Dropout", 
         "config": {
            "rate": 0.2, 
            "trainable": true, 
            "name": "dropout_54"
         }
      }, 
      {
         "class_name": "BatchNormalization", 
         "config": {
            "gamma_initializer": {
               "class_name": "Ones", 
               "config": {}
            }, 
            "moving_mean_initializer": {
               "class_name": "Zeros", 
               "config": {}
            }, 
            "name": "batch_normalization_55", 
            "epsilon": 0.001, 
            "trainable": true, 
            "center": true, 
            "moving_variance_initializer": {
               "class_name": "Ones", 
               "config": {}
            }, 
            "beta_initializer": {
               "class_name": "Zeros", 
               "config": {}
            }, 
            "scale": true, 
            "gamma_regularizer": null, 
            "gamma_constraint": null, 
            "beta_constraint": null, 
            "beta_regularizer": null, 
            "momentum": 0.99, 
            "axis": -1
         }
      }, 
      {
         "class_name": "Activation", 
         "config": {
            "activation": "relu", 
            "trainable": true, 
            "name": "activation_55"
         }
      }, 
      {
         "class_name": "Conv2D", 
         "config": {
            "kernel_initializer": {
               "class_name": "VarianceScaling", 
               "config": {
                  "distribution": "uniform", 
                  "scale": 1.0, 
                  "seed": null, 
                  "mode": "fan_avg"
               }
            }, 
            "name": "conv2d_56", 
            "kernel_constraint": null, 
            "bias_regularizer": null, 
            "bias_constraint": null, 
            "activation": "linear", 
            "trainable": true, 
            "data_format": "channels_first", 
            "padding": "same", 
            "strides": [
               1, 
               1
            ], 
            "dilation_rate": [
               1, 
               1
            ], 
            "kernel_regularizer": null, 
            "filters": 880, 
            "bias_initializer": {
               "class_name": "Zeros", 
               "config": {}
            }, 
            "use_bias": true, 
            "activity_regularizer": null, 
            "kernel_size": [
               3, 
               3
            ]
         }
      }, 
      {
         "class_name": "Dropout", 
         "config": {
            "rate": 0.2, 
            "trainable": true, 
            "name": "dropout_55"
         }
      }, 
      {
         "class_name": "BatchNormalization", 
         "config": {
            "gamma_initializer": {
               "class_name": "Ones", 
               "config": {}
            }, 
            "moving_mean_initializer": {
               "class_name": "Zeros", 
               "config": {}
            }, 
            "name": "batch_normalization_56", 
            "epsilon": 0.001, 
            "trainable": true, 
            "center": true, 
            "moving_variance_initializer": {
               "class_name": "Ones", 
               "config": {}
            }, 
            "beta_initializer": {
               "class_name": "Zeros", 
               "config": {}
            }, 
            "scale": true, 
            "gamma_regularizer": null, 
            "gamma_constraint": null, 
            "beta_constraint": null, 
            "beta_regularizer": null, 
            "momentum": 0.99, 
            "axis": -1
         }
      }, 
      {
         "class_name": "Activation", 
         "config": {
            "activation": "relu", 
            "trainable": true, 
            "name": "activation_56"
         }
      }, 
      {
         "class_name": "Conv2D", 
         "config": {
            "kernel_initializer": {
               "class_name": "VarianceScaling", 
               "config": {
                  "distribution": "uniform", 
                  "scale": 1.0, 
                  "seed": null, 
                  "mode": "fan_avg"
               }
            }, 
            "name": "conv2d_57", 
            "kernel_constraint": null, 
            "bias_regularizer": null, 
            "bias_constraint": null, 
            "activation": "linear", 
            "trainable": true, 
            "data_format": "channels_first", 
            "padding": "same", 
            "strides": [
               1, 
               1
            ], 
            "dilation_rate": [
               1, 
               1
            ], 
            "kernel_regularizer": null, 
            "filters": 880, 
            "bias_initializer": {
               "class_name": "Zeros", 
               "config": {}
            }, 
            "use_bias": true, 
            "activity_regularizer": null, 
            "kernel_size": [
               3, 
               3
            ]
         }
      }, 
      {
         "class_name": "Dropout", 
         "config": {
            "rate": 0.2, 
            "trainable": true, 
            "name": "dropout_56"
         }
      }, 
      {
         "class_name": "BatchNormalization", 
         "config": {
            "gamma_initializer": {
               "class_name": "Ones", 
               "config": {}
            }, 
            "moving_mean_initializer": {
               "class_name": "Zeros", 
               "config": {}
            }, 
            "name": "batch_normalization_57", 
            "epsilon": 0.001, 
            "trainable": true, 
            "center": true, 
            "moving_variance_initializer": {
               "class_name": "Ones", 
               "config": {}
            }, 
            "beta_initializer": {
               "class_name": "Zeros", 
               "config": {}
            }, 
            "scale": true, 
            "gamma_regularizer": null, 
            "gamma_constraint": null, 
            "beta_constraint": null, 
            "beta_regularizer": null, 
            "momentum": 0.99, 
            "axis": -1
         }
      }, 
      {
         "class_name": "Activation", 
         "config": {
            "activation": "relu", 
            "trainable": true, 
            "name": "activation_57"
         }
      }, 
      {
         "class_name": "Conv2D", 
         "config": {
            "kernel_initializer": {
               "class_name": "VarianceScaling", 
               "config": {
                  "distribution": "uniform", 
                  "scale": 1.0, 
                  "seed": null, 
                  "mode": "fan_avg"
               }
            }, 
            "name": "conv2d_58", 
            "kernel_constraint": null, 
            "bias_regularizer": null, 
            "bias_constraint": null, 
            "activation": "linear", 
            "trainable": true, 
            "data_format": "channels_first", 
            "padding": "same", 
            "strides": [
               1, 
               1
            ], 
            "dilation_rate": [
               1, 
               1
            ], 
            "kernel_regularizer": null, 
            "filters": 880, 
            "bias_initializer": {
               "class_name": "Zeros", 
               "config": {}
            }, 
            "use_bias": true, 
            "activity_regularizer": null, 
            "kernel_size": [
               3, 
               3
            ]
         }
      }, 
      {
         "class_name": "Dropout", 
         "config": {
            "rate": 0.2, 
            "trainable": true, 
            "name": "dropout_57"
         }
      }, 
      {
         "class_name": "BatchNormalization", 
         "config": {
            "gamma_initializer": {
               "class_name": "Ones", 
               "config": {}
            }, 
            "moving_mean_initializer": {
               "class_name": "Zeros", 
               "config": {}
            }, 
            "name": "batch_normalization_58", 
            "epsilon": 0.001, 
            "trainable": true, 
            "center": true, 
            "moving_variance_initializer": {
               "class_name": "Ones", 
               "config": {}
            }, 
            "beta_initializer": {
               "class_name": "Zeros", 
               "config": {}
            }, 
            "scale": true, 
            "gamma_regularizer": null, 
            "gamma_constraint": null, 
            "beta_constraint": null, 
            "beta_regularizer": null, 
            "momentum": 0.99, 
            "axis": -1
         }
      }, 
      {
         "class_name": "Activation", 
         "config": {
            "activation": "relu", 
            "trainable": true, 
            "name": "activation_58"
         }
      }, 
      {
         "class_name": "Conv2D", 
         "config": {
            "kernel_initializer": {
               "class_name": "VarianceScaling", 
               "config": {
                  "distribution": "uniform", 
                  "scale": 1.0, 
                  "seed": null, 
                  "mode": "fan_avg"
               }
            }, 
            "name": "conv2d_59", 
            "kernel_constraint": null, 
            "bias_regularizer": null, 
            "bias_constraint": null, 
            "activation": "linear", 
            "trainable": true, 
            "data_format": "channels_first", 
            "padding": "same", 
            "strides": [
               1, 
               1
            ], 
            "dilation_rate": [
               1, 
               1
            ], 
            "kernel_regularizer": null, 
            "filters": 880, 
            "bias_initializer": {
               "class_name": "Zeros", 
               "config": {}
            }, 
            "use_bias": true, 
            "activity_regularizer": null, 
            "kernel_size": [
               3, 
               3
            ]
         }
      }, 
      {
         "class_name": "Dropout", 
         "config": {
            "rate": 0.2, 
            "trainable": true, 
            "name": "dropout_58"
         }
      }, 
      {
         "class_name": "Conv2DTranspose", 
         "config": {
            "kernel_initializer": {
               "class_name": "VarianceScaling", 
               "config": {
                  "distribution": "uniform", 
                  "scale": 1.0, 
                  "seed": null, 
                  "mode": "fan_avg"
               }
            }, 
            "name": "conv2d_transpose_1", 
            "kernel_constraint": null, 
            "bias_regularizer": null, 
            "bias_constraint": null, 
            "dtype": "float32", 
            "activation": "linear", 
            "trainable": true, 
            "data_format": "channels_first", 
            "padding": "same", 
            "strides": [
               2, 
               2
            ], 
            "kernel_regularizer": null, 
            "filters": 1072, 
            "bias_initializer": {
               "class_name": "Zeros", 
               "config": {}
            }, 
            "batch_input_shape": [
               null, 
               7, 
               7, 
               1072
            ], 
            "use_bias": true, 
            "activity_regularizer": null, 
            "kernel_size": [
               3, 
               3
            ]
         }
      }, 
      {
         "class_name": "BatchNormalization", 
         "config": {
            "gamma_initializer": {
               "class_name": "Ones", 
               "config": {}
            }, 
            "moving_mean_initializer": {
               "class_name": "Zeros", 
               "config": {}
            }, 
            "name": "batch_normalization_59", 
…
            }, 
            "scale": true, 
            "gamma_regularizer": null, 
            "gamma_constraint": null, 
            "beta_constraint": null, 
            "beta_regularizer": null, 
            "momentum": 0.99, 
            "axis": -1
         }
      }, 
      {
         "class_name": "Activation", 
         "config": {
            "activation": "relu", 
            "trainable": true, 
            "name": "activation_79"
         }
      }, 
      {
         "class_name": "Conv2D", 
         "config": {
            "kernel_initializer": {
               "class_name": "VarianceScaling", 
               "config": {
                  "distribution": "uniform", 
                  "scale": 1.0, 
                  "seed": null, 
                  "mode": "fan_avg"
               }
            }, 
            "name": "conv2d_80", 
            "kernel_constraint": null, 
            "bias_regularizer": null, 
            "bias_constraint": null, 
            "activation": "linear", 
            "trainable": true, 
            "data_format": "channels_first", 
            "padding": "same", 
            "strides": [
               1, 
               1
            ], 
            "dilation_rate": [
               1, 
               1
            ], 
            "kernel_regularizer": null, 
            "filters": 800, 
            "bias_initializer": {
               "class_name": "Zeros", 
               "config": {}
            }, 
            "use_bias": true, 
            "activity_regularizer": null, 
            "kernel_size": [
               3, 
               3
            ]
         }
      }, 
      {
         "class_name": "Dropout", 
         "config": {
            "rate": 0.2, 
            "trainable": true, 
            "name": "dropout_79"
         }
      }, 
      {
         "class_name": "BatchNormalization", 
         "config": {
            "gamma_initializer": {
               "class_name": "Ones", 
               "config": {}
            }, 
            "moving_mean_initializer": {
               "class_name": "Zeros", 
               "config": {}
            }, 
            "name": "batch_normalization_80", 
            "epsilon": 0.001, 
            "trainable": true, 
            "center": true, 
            "moving_variance_initializer": {
               "class_name": "Ones", 
               "config": {}
            }, 
            "beta_initializer": {
               "class_name": "Zeros", 
               "config": {}
            }, 
            "scale": true, 
            "gamma_regularizer": null, 
            "gamma_constraint": null, 
            "beta_constraint": null, 
            "beta_regularizer": null, 
            "momentum": 0.99, 
            "axis": -1
         }
      }, 
      {
         "class_name": "Activation", 
         "config": {
            "activation": "relu", 
            "trainable": true, 
            "name": "activation_80"
         }
      }, 
      {
         "class_name": "Conv2D", 
         "config": {
            "kernel_initializer": {
               "class_name": "VarianceScaling", 
               "config": {
                  "distribution": "uniform", 
                  "scale": 1.0, 
                  "seed": null, 
                  "mode": "fan_avg"
               }
            }, 
            "name": "conv2d_81", 
            "kernel_constraint": null, 
            "bias_regularizer": null, 
            "bias_constraint": null, 
            "activation": "linear", 
            "trainable": true, 
            "data_format": "channels_first", 
            "padding": "same", 
            "strides": [
               1, 
               1
            ], 
            "dilation_rate": [
               1, 
               1
            ], 
            "kernel_regularizer": null, 
            "filters": 800, 
            "bias_initializer": {
               "class_name": "Zeros", 
               "config": {}
            }, 
            "use_bias": true, 
            "activity_regularizer": null, 
            "kernel_size": [
               3, 
               3
            ]
         }
      }, 
      {
         "class_name": "Dropout", 
         "config": {
            "rate": 0.2, 
            "trainable": true, 
            "name": "dropout_80"
         }
      }, 
      {
         "class_name": "Conv2DTranspose", 
         "config": {
            "kernel_initializer": {
               "class_name": "VarianceScaling", 
               "config": {
                  "distribution": "uniform", 
                  "scale": 1.0, 
                  "seed": null, 
                  "mode": "fan_avg"
               }
            }, 
            "name": "conv2d_transpose_3", 
            "kernel_constraint": null, 
            "bias_regularizer": null, 
            "bias_constraint": null, 
            "dtype": "float32", 
            "activation": "linear", 
            "trainable": true, 
            "data_format": "channels_first", 
            "padding": "same", 
            "strides": [
               2, 
               2
            ], 
            "kernel_regularizer": null, 
            "filters": 560, 
            "bias_initializer": {
               "class_name": "Zeros", 
               "config": {}
            }, 
            "batch_input_shape": [
               null, 
               28, 
               28, 
               560
            ], 
            "use_bias": true, 
            "activity_regularizer": null, 
            "kernel_size": [
               3, 
               3
            ]
         }
      }, 
      {
         "class_name": "BatchNormalization", 
         "config": {
            "gamma_initializer": {
               "class_name": "Ones", 
               "config": {}
            }, 
            "moving_mean_initializer": {
               "class_name": "Zeros", 
               "config": {}
            }, 
            "name": "batch_normalization_81", 
            "epsilon": 0.001, 
            "trainable": true, 
            "center": true, 
            "moving_variance_initializer": {
               "class_name": "Ones", 
               "config": {}
            }, 
            "beta_initializer": {
               "class_name": "Zeros", 
               "config": {}
            }, 
            "scale": true, 
            "gamma_regularizer": null, 
            "gamma_constraint": null, 
            "beta_constraint": null, 
            "beta_regularizer": null, 
            "momentum": 0.99, 
            "axis": -1
         }
      }, 
      {
         "class_name": "Activation", 
         "config": {
            "activation": "relu", 
            "trainable": true, 
            "name": "activation_81"
         }
      }, 
      {
         "class_name": "Conv2D", 
         "config": {
            "kernel_initializer": {
               "class_name": "VarianceScaling", 
               "config": {
                  "distribution": "uniform", 
                  "scale": 1.0, 
                  "seed": null, 
                  "mode": "fan_avg"
               }
            }, 
            "name": "conv2d_82", 
            "kernel_constraint": null, 
            "bias_regularizer": null, 
            "bias_constraint": null, 
            "activation": "linear", 
            "trainable": true, 
            "data_format": "channels_first", 
            "padding": "same", 
            "strides": [
               1, 
               1
            ], 
            "dilation_rate": [
               1, 
               1
            ], 
            "kernel_regularizer": null, 
            "filters": 560, 
            "bias_initializer": {
               "class_name": "Zeros", 
               "config": {}
            }, 
            "use_bias": true, 
            "activity_regularizer": null, 
            "kernel_size": [
               3, 
               3
            ]
         }
      }, 
      {
         "class_name": "Dropout", 
         "config": {
            "rate": 0.2, 
            "trainable": true, 
            "name": "dropout_81"
         }
      }, 
      {
         "class_name": "BatchNormalization", 
         "config": {
            "gamma_initializer": {
               "class_name": "Ones", 
               "config": {}
            }, 
            "moving_mean_initializer": {
               "class_name": "Zeros", 
               "config": {}
            }, 
            "name": "batch_normalization_82", 
            "epsilon": 0.001, 
            "trainable": true, 
            "center": true, 
            "moving_variance_initializer": {
               "class_name": "Ones", 
               "config": {}
            }, 
            "beta_initializer": {
               "class_name": "Zeros", 
               "config": {}
            }, 
            "scale": true, 
            "gamma_regularizer": null, 
            "gamma_constraint": null, 
            "beta_constraint": null, 
            "beta_regularizer": null, 
            "momentum": 0.99, 
            "axis": -1
         }
      }, 
      {
         "class_name": "Activation", 
         "config": {
            "activation": "relu", 
            "trainable": true, 
            "name": "activation_82"
         }
      }, 
      {
         "class_name": "Conv2D", 
         "config": {
            "kernel_initializer": {
               "class_name": "VarianceScaling", 
               "config": {
                  "distribution": "uniform", 
                  "scale": 1.0, 
                  "seed": null, 
                  "mode": "fan_avg"
               }
            }, 
            "name": "conv2d_83", 
            "kernel_constraint": null, 
            "bias_regularizer": null, 
            "bias_constraint": null, 
            "activation": "linear", 
            "trainable": true, 
            "data_format": "channels_first", 
            "padding": "same", 
            "strides": [
               1, 
               1
            ], 
            "dilation_rate": [
               1, 
               1
            ], 
            "kernel_regularizer": null, 
            "filters": 560, 
            "bias_initializer": {
               "class_name": "Zeros", 
               "config": {}
            }, 
            "use_bias": true, 
            "activity_regularizer": null, 
            "kernel_size": [
               3, 
               3
            ]
         }
      }, 
      {
         "class_name": "Dropout", 
         "config": {
            "rate": 0.2, 
            "trainable": true, 
            "name": "dropout_82"
         }
      }, 
      {
         "class_name": "BatchNormalization", 
         "config": {
            "gamma_initializer": {
               "class_name": "Ones", 
               "config": {}
            }, 
            "moving_mean_initializer": {
               "class_name": "Zeros", 
               "config": {}
            }, 
            "name": "batch_normalization_83", 
            "epsilon": 0.001, 
            "trainable": true, 
            "center": true, 
            "moving_variance_initializer": {
               "class_name": "Ones", 
               "config": {}
            }, 
            "beta_initializer": {
               "class_name": "Zeros", 
               "config": {}
            }, 
            "scale": true, 
            "gamma_regularizer": null, 
            "gamma_constraint": null, 
            "beta_constraint": null, 
            "beta_regularizer": null, 
            "momentum": 0.99, 
            "axis": -1
         }
      }, 
      {
         "class_name": "Activation", 
         "config": {
            "activation": "relu", 
            "trainable": true, 
            "name": "activation_83"
         }
      }, 
      {
         "class_name": "Conv2D", 
         "config": {
            "kernel_initializer": {
               "class_name": "VarianceScaling", 
               "config": {
                  "distribution": "uniform", 
                  "scale": 1.0, 
                  "seed": null, 
                  "mode": "fan_avg"
               }
            }, 
            "name": "conv2d_84", 
            "kernel_constraint": null, 
            "bias_regularizer": null, 
            "bias_constraint": null, 
            "activation": "linear", 
            "trainable": true, 
            "data_format": "channels_first", 
            "padding": "same", 
            "strides": [
               1, 
               1
            ], 
            "dilation_rate": [
               1, 
               1
            ], 
            "kernel_regularizer": null, 
            "filters": 560, 
            "bias_initializer": {
               "class_name": "Zeros", 
               "config": {}
            }, 
            "use_bias": true, 
            "activity_regularizer": null, 
            "kernel_size": [
               3, 
               3
            ]
         }
      }, 
      {
         "class_name": "Dropout", 
         "config": {
            "rate": 0.2, 
            "trainable": true, 
            "name": "dropout_83"
         }
      }, 
      {
         "class_name": "BatchNormalization", 
         "config": {
            "gamma_initializer": {
               "class_name": "Ones", 
               "config": {}
            }, 
            "moving_mean_initializer": {
               "class_name": "Zeros", 
               "config": {}
            }, 
            "name": "batch_normalization_84", 
            "epsilon": 0.001, 
            "trainable": true, 
            "center": true, 
            "moving_variance_initializer": {
               "class_name": "Ones", 
               "config": {}
            }, 
            "beta_initializer": {
               "class_name": "Zeros", 
               "config": {}
            }, 
            "scale": true, 
            "gamma_regularizer": null, 
            "gamma_constraint": null, 
            "beta_constraint": null, 
            "beta_regularizer": null, 
            "momentum": 0.99, 
            "axis": -1
         }
      }, 
      {
         "class_name": "Activation", 
         "config": {
            "activation": "relu", 
            "trainable": true, 
            "name": "activation_84"
         }
      }, 
      {
         "class_name": "Conv2D", 
         "config": {
            "kernel_initializer": {
               "class_name": "VarianceScaling", 
               "config": {
                  "distribution": "uniform", 
                  "scale": 1.0, 
                  "seed": null, 
                  "mode": "fan_avg"
               }
            }, 
            "name": "conv2d_85", 
            "kernel_constraint": null, 
            "bias_regularizer": null, 
            "bias_constraint": null, 
            "activation": "linear", 
            "trainable": true, 
            "data_format": "channels_first", 
            "padding": "same", 
            "strides": [
               1, 
               1
            ], 
            "dilation_rate": [
               1, 
               1
            ], 
            "kernel_regularizer": null, 
            "filters": 560, 
            "bias_initializer": {
               "class_name": "Zeros", 
               "config": {}
            }, 
            "use_bias": true, 
            "activity_regularizer": null, 
            "kernel_size": [
               3, 
               3
            ]
         }
      }, 
      {
         "class_name": "Dropout", 
         "config": {
            "rate": 0.2, 
            "trainable": true, 
            "name": "dropout_84"
         }
      }, 
      {
         "class_name": "BatchNormalization", 
         "config": {
            "gamma_initializer": {
               "class_name": "Ones", 
               "config": {}
            }, 
            "moving_mean_initializer": {
               "class_name": "Zeros", 
               "config": {}
            }, 
            "name": "batch_normalization_85", 
            "epsilon": 0.001, 
            "trainable": true, 
            "center": true, 
            "moving_variance_initializer": {
               "class_name": "Ones", 
               "config": {}
            }, 
            "beta_initializer": {
               "class_name": "Zeros", 
               "config": {}
            }, 
            "scale": true, 
            "gamma_regularizer": null, 
            "gamma_constraint": null, 
            "beta_constraint": null, 
            "beta_regularizer": null, 
            "momentum": 0.99, 
            "axis": -1
         }
      }, 
      {
         "class_name": "Activation", 
         "config": {
            "activation": "relu", 
            "trainable": true, 
            "name": "activation_85"
         }
      }, 
      {
         "class_name": "Conv2D", 
         "config": {
            "kernel_initializer": {
               "class_name": "VarianceScaling", 
               "config": {
                  "distribution": "uniform", 
                  "scale": 1.0, 
                  "seed": null, 
                  "mode": "fan_avg"
               }
            }, 
            "name": "conv2d_86", 
            "kernel_constraint": null, 
            "bias_regularizer": null, 
            "bias_constraint": null, 
            "activation": "linear", 
            "trainable": true, 
            "data_format": "channels_first", 
            "padding": "same", 
            "strides": [
               1, 
               1
            ], 
            "dilation_rate": [
               1, 
               1
            ], 
            "kernel_regularizer": null, 
            "filters": 560, 
            "bias_initializer": {
               "class_name": "Zeros", 
               "config": {}
            }, 
            "use_bias": true, 
            "activity_regularizer": null, 
            "kernel_size": [
               3, 
               3
            ]
         }
      }, 
      {
         "class_name": "Dropout", 
         "config": {
            "rate": 0.2, 
            "trainable": true, 
            "name": "dropout_85"
         }
      }, 
      {
         "class_name": "BatchNormalization", 
         "config": {
            "gamma_initializer": {
               "class_name": "Ones", 
               "config": {}
            }, 
            "moving_mean_initializer": {
               "class_name": "Zeros", 
               "config": {}
            }, 
            "name": "batch_normalization_86", 
            "epsilon": 0.001, 
            "trainable": true, 
            "center": true, 
            "moving_variance_initializer": {
               "class_name": "Ones", 
               "config": {}
            }, 
            "beta_initializer": {
               "class_name": "Zeros", 
               "config": {}
            }, 
            "scale": true, 
            "gamma_regularizer": null, 
            "gamma_constraint": null, 
            "beta_constraint": null, 
            "beta_regularizer": null, 
            "momentum": 0.99, 
            "axis": -1
         }
      }, 
      {
         "class_name": "Activation", 
         "config": {
            "activation": "relu", 
            "trainable": true, 
            "name": "activation_86"
         }
      }, 
      {
         "class_name": "Conv2D", 
         "config": {
            "kernel_initializer": {
               "class_name": "VarianceScaling", 
               "config": {
                  "distribution": "uniform", 
                  "scale": 1.0, 
                  "seed": null, 
                  "mode": "fan_avg"
               }
            }, 
            "name": "conv2d_87", 
            "kernel_constraint": null, 
            "bias_regularizer": null, 
            "bias_constraint": null, 
            "activation": "linear", 
            "trainable": true, 
            "data_format": "channels_first", 
            "padding": "same", 
            "strides": [
               1, 
               1
            ], 
            "dilation_rate": [
               1, 
               1
            ], 
            "kernel_regularizer": null, 
            "filters": 560, 
            "bias_initializer": {
               "class_name": "Zeros", 
               "config": {}
            }, 
            "use_bias": true, 
            "activity_regularizer": null, 
            "kernel_size": [
               3, 
               3
            ]
         }
      }, 
      {
         "class_name": "Dropout", 
         "config": {
            "rate": 0.2, 
            "trainable": true, 
            "name": "dropout_86"
         }
      }, 
      {
         "class_name": "BatchNormalization", 
         "config": {
            "gamma_initializer": {
               "class_name": "Ones", 
               "config": {}
            }, 
            "moving_mean_initializer": {
               "class_name": "Zeros", 
               "config": {}
            }, 
            "name": "batch_normalization_87", 
            "epsilon": 0.001, 
            "trainable": true, 
            "center": true, 
            "moving_variance_initializer": {
               "class_name": "Ones", 
               "config": {}
            }, 
            "beta_initializer": {
               "class_name": "Zeros", 
               "config": {}
            }, 
            "scale": true, 
            "gamma_regularizer": null, 
            "gamma_constraint": null, 
            "beta_constraint": null, 
            "beta_regularizer": null, 
            "momentum": 0.99, 
            "axis": -1
         }
      }, 
      {
         "class_name": "Activation", 
         "config": {
            "activation": "relu", 
            "trainable": true, 
            "name": "activation_87"
         }
      }, 
      {
         "class_name": "Conv2D", 
         "config": {
            "kernel_initializer": {
               "class_name": "VarianceScaling", 
               "config": {
                  "distribution": "uniform", 
                  "scale": 1.0, 
                  "seed": null, 
                  "mode": "fan_avg"
               }
            }, 
            "name": "conv2d_88", 
            "kernel_constraint": null, 
            "bias_regularizer": null, 
            "bias_constraint": null, 
            "activation": "linear", 
            "trainable": true, 
            "data_format": "channels_first", 
            "padding": "same", 
            "strides": [
               1, 
               1
            ], 
            "dilation_rate": [
               1, 
               1
            ], 
            "kernel_regularizer": null, 
            "filters": 560, 
            "bias_initializer": {
               "class_name": "Zeros", 
               "config": {}
            }, 
            "use_bias": true, 
            "activity_regularizer": null, 
            "kernel_size": [
               3, 
               3
            ]
         }
      }, 
      {
         "class_name": "Dropout", 
         "config": {
            "rate": 0.2, 
            "trainable": true, 
            "name": "dropout_87"
         }
      }, 
      {
         "class_name": "Conv2DTranspose", 
         "config": {
            "kernel_initializer": {
               "class_name": "VarianceScaling", 
               "config": {
                  "distribution": "uniform", 
                  "scale": 1.0, 
                  "seed": null, 
                  "mode": "fan_avg"
               }
            }, 
            "name": "conv2d_transpose_4", 
            "kernel_constraint": null, 
            "bias_regularizer": null, 
            "bias_constraint": null, 
            "dtype": "float32", 
            "activation": "linear", 
            "trainable": true, 
            "data_format": "channels_first", 
            "padding": "same", 
            "strides": [
               2, 
               2
            ], 
            "kernel_regularizer": null, 
            "filters": 368, 
            "bias_initializer": {
               "class_name": "Zeros", 
               "config": {}
            }, 
            "batch_input_shape": [
               null, 
               56, 
               56, 
               368
            ], 
            "use_bias": true, 
            "activity_regularizer": null, 
            "kernel_size": [
               3, 
               3
            ]
         }
      }, 
      {
         "class_name": "BatchNormalization", 
         "config": {
            "gamma_initializer": {
               "class_name": "Ones", 
               "config": {}
            }, 
            "moving_mean_initializer": {
               "class_name": "Zeros", 
               "config": {}
            }, 
            "name": "batch_normalization_88", 
            "epsilon": 0.001, 
            "trainable": true, 
            "center": true, 
            "moving_variance_initializer": {
               "class_name": "Ones", 
               "config": {}
            }, 
            "beta_initializer": {
               "class_name": "Zeros", 
               "config": {}
            }, 
            "scale": true, 
            "gamma_regularizer": null, 
            "gamma_constraint": null, 
            "beta_constraint": null, 
            "beta_regularizer": null, 
            "momentum": 0.99, 
            "axis": -1
         }
      }, 
      {
         "class_name": "Activation", 
         "config": {
            "activation": "relu", 
            "trainable": true, 
            "name": "activation_88"
         }
      }, 
      {
         "class_name": "Conv2D", 
         "config": {
            "kernel_initializer": {
               "class_name": "VarianceScaling", 
               "config": {
                  "distribution": "uniform", 
                  "scale": 1.0, 
                  "seed": null, 
                  "mode": "fan_avg"
               }
            }, 
            "name": "conv2d_89", 
            "kernel_constraint": null, 
            "bias_regularizer": null, 
            "bias_constraint": null, 
            "activation": "linear", 
            "trainable": true, 
            "data_format": "channels_first", 
            "padding": "same", 
            "strides": [
               1, 
               1
            ], 
            "dilation_rate": [
               1, 
               1
            ], 
            "kernel_regularizer": null, 
            "filters": 368, 
            "bias_initializer": {
               "class_name": "Zeros", 
               "config": {}
            }, 
            "use_bias": true, 
            "activity_regularizer": null, 
            "kernel_size": [
               3, 
               3
            ]
         }
      }, 
      {
         "class_name": "Dropout", 
         "config": {
            "rate": 0.2, 
            "trainable": true, 
            "name": "dropout_88"
         }
      }, 
      {
         "class_name": "BatchNormalization", 
         "config": {
            "gamma_initializer": {
               "class_name": "Ones", 
               "config": {}
            }, 
            "moving_mean_initializer": {
               "class_name": "Zeros", 
               "config": {}
            }, 
            "name": "batch_normalization_89", 
            "epsilon": 0.001, 
            "trainable": true, 
            "center": true, 
            "moving_variance_initializer": {
               "class_name": "Ones", 
               "config": {}
            }, 
            "beta_initializer": {
               "class_name": "Zeros", 
               "config": {}
            }, 
            "scale": true, 
            "gamma_regularizer": null, 
            "gamma_constraint": null, 
            "beta_constraint": null, 
            "beta_regularizer": null, 
            "momentum": 0.99, 
            "axis": -1
         }
      }, 
      {
         "class_name": "Activation", 
         "config": {
            "activation": "relu", 
            "trainable": true, 
            "name": "activation_89"
         }
      }, 
      {
         "class_name": "Conv2D", 
         "config": {
            "kernel_initializer": {
               "class_name": "VarianceScaling", 
               "config": {
                  "distribution": "uniform", 
                  "scale": 1.0, 
                  "seed": null, 
                  "mode": "fan_avg"
               }
            }, 
            "name": "conv2d_90", 
            "kernel_constraint": null, 
            "bias_regularizer": null, 
            "bias_constraint": null, 
            "activation": "linear", 
            "trainable": true, 
            "data_format": "channels_first", 
            "padding": "same", 
            "strides": [
               1, 
               1
            ], 
            "dilation_rate": [
               1, 
               1
            ], 
            "kernel_regularizer": null, 
            "filters": 368, 
            "bias_initializer": {
               "class_name": "Zeros", 
               "config": {}
            }, 
            "use_bias": true, 
            "activity_regularizer": null, 
            "kernel_size": [
               3, 
               3
            ]
         }
      }, 
      {
         "class_name": "Dropout", 
         "config": {
            "rate": 0.2, 
            "trainable": true, 
            "name": "dropout_89"
         }
      }, 
      {
         "class_name": "BatchNormalization", 
         "config": {
            "gamma_initializer": {
               "class_name": "Ones", 
               "config": {}
            }, 
            "moving_mean_initializer": {
               "class_name": "Zeros", 
               "config": {}
            }, 
            "name": "batch_normalization_90", 
            "epsilon": 0.001, 
            "trainable": true, 
            "center": true, 
            "moving_variance_initializer": {
               "class_name": "Ones", 
               "config": {}
            }, 
            "beta_initializer": {
               "class_name": "Zeros", 
               "config": {}
            }, 
            "scale": true, 
            "gamma_regularizer": null, 
            "gamma_constraint": null, 
            "beta_constraint": null, 
            "beta_regularizer": null, 
            "momentum": 0.99, 
            "axis": -1
         }
      }, 
      {
         "class_name": "Activation", 
         "config": {
            "activation": "relu", 
            "trainable": true, 
            "name": "activation_90"
         }
      }, 
      {
         "class_name": "Conv2D", 
         "config": {
            "kernel_initializer": {
               "class_name": "VarianceScaling", 
               "config": {
                  "distribution": "uniform", 
                  "scale": 1.0, 
                  "seed": null, 
                  "mode": "fan_avg"
               }
            }, 
            "name": "conv2d_91", 
            "kernel_constraint": null, 
            "bias_regularizer": null, 
            "bias_constraint": null, 
            "activation": "linear", 
            "trainable": true, 
            "data_format": "channels_first", 
            "padding": "same", 
            "strides": [
               1, 
               1
            ], 
            "dilation_rate": [
               1, 
               1
            ], 
            "kernel_regularizer": null, 
            "filters": 368, 
            "bias_initializer": {
               "class_name": "Zeros", 
               "config": {}
            }, 
            "use_bias": true, 
            "activity_regularizer": null, 
            "kernel_size": [
               3, 
               3
            ]
         }
      }, 
      {
         "class_name": "Dropout", 
         "config": {
            "rate": 0.2, 
            "trainable": true, 
            "name": "dropout_90"
         }
      }, 
      {
         "class_name": "BatchNormalization", 
         "config": {
            "gamma_initializer": {
               "class_name": "Ones", 
               "config": {}
            }, 
            "moving_mean_initializer": {
               "class_name": "Zeros", 
               "config": {}
            }, 
            "name": "batch_normalization_91", 
            "epsilon": 0.001, 
            "trainable": true, 
            "center": true, 
            "moving_variance_initializer": {
               "class_name": "Ones", 
               "config": {}
            }, 
            "beta_initializer": {
               "class_name": "Zeros", 
               "config": {}
            }, 
            "scale": true, 
            "gamma_regularizer": null, 
            "gamma_constraint": null, 
            "beta_constraint": null, 
            "beta_regularizer": null, 
            "momentum": 0.99, 
            "axis": -1
         }
      }, 
      {
         "class_name": "Activation", 
         "config": {
            "activation": "relu", 
            "trainable": true, 
            "name": "activation_91"
         }
      }, 
      {
         "class_name": "Conv2D", 
         "config": {
            "kernel_initializer": {
               "class_name": "VarianceScaling", 
               "config": {
                  "distribution": "uniform", 
                  "scale": 1.0, 
                  "seed": null, 
                  "mode": "fan_avg"
               }
            }, 
            "name": "conv2d_92", 
            "kernel_constraint": null, 
            "bias_regularizer": null, 
            "bias_constraint": null, 
            "activation": "linear", 
            "trainable": true, 
            "data_format": "channels_first", 
            "padding": "same", 
            "strides": [
               1, 
               1
            ], 
            "dilation_rate": [
               1, 
               1
            ], 
            "kernel_regularizer": null, 
            "filters": 368, 
            "bias_initializer": {
               "class_name": "Zeros", 
               "config": {}
            }, 
            "use_bias": true, 
            "activity_regularizer": null, 
            "kernel_size": [
               3, 
               3
            ]
         }
      }, 
      {
         "class_name": "Dropout", 
         "config": {
            "rate": 0.2, 
            "trainable": true, 
            "name": "dropout_91"
         }
      }, 
      {
         "class_name": "BatchNormalization", 
         "config": {
            "gamma_initializer": {
               "class_name": "Ones", 
               "config": {}
            }, 
            "moving_mean_initializer": {
               "class_name": "Zeros", 
               "config": {}
            }, 
            "name": "batch_normalization_92", 
            "epsilon": 0.001, 
            "trainable": true, 
            "center": true, 
            "moving_variance_initializer": {
               "class_name": "Ones", 
               "config": {}
            }, 
            "beta_initializer": {
               "class_name": "Zeros", 
               "config": {}
            }, 
            "scale": true, 
            "gamma_regularizer": null, 
            "gamma_constraint": null, 
            "beta_constraint": null, 
            "beta_regularizer": null, 
            "momentum": 0.99, 
            "axis": -1
         }
      }, 
      {
         "class_name": "Activation", 
         "config": {
            "activation": "relu", 
            "trainable": true, 
            "name": "activation_92"
         }
      }, 
      {
         "class_name": "Conv2D", 
         "config": {
            "kernel_initializer": {
               "class_name": "VarianceScaling", 
               "config": {
                  "distribution": "uniform", 
                  "scale": 1.0, 
                  "seed": null, 
                  "mode": "fan_avg"
               }
            }, 
            "name": "conv2d_93", 
            "kernel_constraint": null, 
            "bias_regularizer": null, 
            "bias_constraint": null, 
            "activation": "linear", 
            "trainable": true, 
            "data_format": "channels_first", 
            "padding": "same", 
            "strides": [
               1, 
               1
            ], 
            "dilation_rate": [
               1, 
               1
            ], 
            "kernel_regularizer": null, 
            "filters": 368, 
            "bias_initializer": {
               "class_name": "Zeros", 
               "config": {}
            }, 
            "use_bias": true, 
            "activity_regularizer": null, 
            "kernel_size": [
               3, 
               3
            ]
         }
      }, 
      {
         "class_name": "Dropout", 
         "config": {
            "rate": 0.2, 
            "trainable": true, 
            "name": "dropout_92"
         }
      }, 
      {
         "class_name": "Conv2DTranspose", 
         "config": {
            "kernel_initializer": {
               "class_name": "VarianceScaling", 
               "config": {
                  "distribution": "uniform", 
                  "scale": 1.0, 
                  "seed": null, 
                  "mode": "fan_avg"
               }
            }, 
            "name": "conv2d_transpose_5", 
            "kernel_constraint": null, 
            "bias_regularizer": null, 
            "bias_constraint": null, 
            "dtype": "float32", 
            "activation": "linear", 
            "trainable": true, 
            "data_format": "channels_first", 
            "padding": "same", 
            "strides": [
               2, 
               2
            ], 
            "kernel_regularizer": null, 
            "filters": 256, 
            "bias_initializer": {
               "class_name": "Zeros", 
               "config": {}
            }, 
            "batch_input_shape": [
               null, 
               112, 
               112, 
               256
            ], 
            "use_bias": true, 
            "activity_regularizer": null, 
            "kernel_size": [
               3, 
               3
            ]
         }
      }, 
      {
         "class_name": "BatchNormalization", 
         "config": {
            "gamma_initializer": {
               "class_name": "Ones", 
               "config": {}
            }, 
            "moving_mean_initializer": {
               "class_name": "Zeros", 
               "config": {}
            }, 
            "name": "batch_normalization_93", 
            "epsilon": 0.001, 
            "trainable": true, 
            "center": true, 
            "moving_variance_initializer": {
               "class_name": "Ones", 
               "config": {}
            }, 
            "beta_initializer": {
               "class_name": "Zeros", 
               "config": {}
            }, 
            "scale": true, 
            "gamma_regularizer": null, 
            "gamma_constraint": null, 
            "beta_constraint": null, 
            "beta_regularizer": null, 
            "momentum": 0.99, 
            "axis": -1
         }
      }, 
      {
         "class_name": "Activation", 
         "config": {
            "activation": "relu", 
            "trainable": true, 
            "name": "activation_93"
         }
      }, 
      {
         "class_name": "Conv2D", 
         "config": {
            "kernel_initializer": {
               "class_name": "VarianceScaling", 
               "config": {
                  "distribution": "uniform", 
                  "scale": 1.0, 
                  "seed": null, 
                  "mode": "fan_avg"
               }
            }, 
            "name": "conv2d_94", 
            "kernel_constraint": null, 
            "bias_regularizer": null, 
            "bias_constraint": null, 
            "activation": "linear", 
            "trainable": true, 
            "data_format": "channels_first", 
            "padding": "same", 
            "strides": [
               1, 
               1
            ], 
            "dilation_rate": [
               1, 
               1
            ], 
            "kernel_regularizer": null, 
            "filters": 256, 
            "bias_initializer": {
               "class_name": "Zeros", 
               "config": {}
            }, 
            "use_bias": true, 
            "activity_regularizer": null, 
            "kernel_size": [
               3, 
               3
            ]
         }
      }, 
      {
         "class_name": "Dropout", 
         "config": {
            "rate": 0.2, 
            "trainable": true, 
            "name": "dropout_93"
         }
      }, 
      {
         "class_name": "BatchNormalization", 
         "config": {
            "gamma_initializer": {
               "class_name": "Ones", 
               "config": {}
            }, 
            "moving_mean_initializer": {
               "class_name": "Zeros", 
               "config": {}
            }, 
            "name": "batch_normalization_94", 
            "epsilon": 0.001, 
            "trainable": true, 
            "center": true, 
            "moving_variance_initializer": {
               "class_name": "Ones", 
               "config": {}
            }, 
            "beta_initializer": {
               "class_name": "Zeros", 
               "config": {}
            }, 
            "scale": true, 
            "gamma_regularizer": null, 
            "gamma_constraint": null, 
            "beta_constraint": null, 
            "beta_regularizer": null, 
            "momentum": 0.99, 
            "axis": -1
         }
      }, 
      {
         "class_name": "Activation", 
         "config": {
            "activation": "relu", 
            "trainable": true, 
            "name": "activation_94"
         }
      }, 
      {
         "class_name": "Conv2D", 
         "config": {
            "kernel_initializer": {
               "class_name": "VarianceScaling", 
               "config": {
                  "distribution": "uniform", 
                  "scale": 1.0, 
                  "seed": null, 
                  "mode": "fan_avg"
               }
            }, 
            "name": "conv2d_95", 
            "kernel_constraint": null, 
            "bias_regularizer": null, 
            "bias_constraint": null, 
            "activation": "linear", 
            "trainable": true, 
            "data_format": "channels_first", 
            "padding": "same", 
            "strides": [
               1, 
               1
            ], 
            "dilation_rate": [
               1, 
               1
            ], 
            "kernel_regularizer": null, 
            "filters": 256, 
            "bias_initializer": {
               "class_name": "Zeros", 
               "config": {}
            }, 
            "use_bias": true, 
            "activity_regularizer": null, 
            "kernel_size": [
               3, 
               3
            ]
         }
      }, 
      {
         "class_name": "Dropout", 
         "config": {
            "rate": 0.2, 
            "trainable": true, 
            "name": "dropout_94"
         }
      }, 
      {
         "class_name": "BatchNormalization", 
         "config": {
            "gamma_initializer": {
               "class_name": "Ones", 
               "config": {}
            }, 
            "moving_mean_initializer": {
               "class_name": "Zeros", 
               "config": {}
            }, 
            "name": "batch_normalization_95", 
            "epsilon": 0.001, 
            "trainable": true, 
            "center": true, 
            "moving_variance_initializer": {
               "class_name": "Ones", 
               "config": {}
            }, 
            "beta_initializer": {
               "class_name": "Zeros", 
               "config": {}
            }, 
            "scale": true, 
            "gamma_regularizer": null, 
            "gamma_constraint": null, 
            "beta_constraint": null, 
            "beta_regularizer": null, 
            "momentum": 0.99, 
            "axis": -1
         }
      }, 
      {
         "class_name": "Activation", 
         "config": {
            "activation": "relu", 
            "trainable": true, 
            "name": "activation_95"
         }
      }, 
      {
         "class_name": "Conv2D", 
         "config": {
            "kernel_initializer": {
               "class_name": "VarianceScaling", 
               "config": {
                  "distribution": "uniform", 
                  "scale": 1.0, 
                  "seed": null, 
                  "mode": "fan_avg"
               }
            }, 
            "name": "conv2d_96", 
            "kernel_constraint": null, 
            "bias_regularizer": null, 
            "bias_constraint": null, 
            "activation": "linear", 
            "trainable": true, 
            "data_format": "channels_first", 
            "padding": "same", 
            "strides": [
               1, 
               1
            ], 
            "dilation_rate": [
               1, 
               1
            ], 
            "kernel_regularizer": null, 
            "filters": 256, 
            "bias_initializer": {
               "class_name": "Zeros", 
               "config": {}
            }, 
            "use_bias": true, 
            "activity_regularizer": null, 
            "kernel_size": [
               3, 
               3
            ]
         }
      }, 
      {
         "class_name": "Dropout", 
         "config": {
            "rate": 0.2, 
            "trainable": true, 
            "name": "dropout_95"
         }
      }, 
      {
         "class_name": "BatchNormalization", 
         "config": {
            "gamma_initializer": {
               "class_name": "Ones", 
               "config": {}
            }, 
            "moving_mean_initializer": {
               "class_name": "Zeros", 
               "config": {}
            }, 
            "name": "batch_normalization_96", 
            "epsilon": 0.001, 
            "trainable": true, 
            "center": true, 
            "moving_variance_initializer": {
               "class_name": "Ones", 
               "config": {}
            }, 
            "beta_initializer": {
               "class_name": "Zeros", 
               "config": {}
            }, 
            "scale": true, 
            "gamma_regularizer": null, 
            "gamma_constraint": null, 
            "beta_constraint": null, 
            "beta_regularizer": null, 
            "momentum": 0.99, 
            "axis": -1
         }
      }, 
      {
         "class_name": "Activation", 
         "config": {
            "activation": "relu", 
            "trainable": true, 
            "name": "activation_96"
         }
      }, 
      {
         "class_name": "Conv2D", 
         "config": {
            "kernel_initializer": {
               "class_name": "VarianceScaling", 
               "config": {
                  "distribution": "uniform", 
                  "scale": 1.0, 
                  "seed": null, 
                  "mode": "fan_avg"
               }
            }, 
            "name": "conv2d_97", 
            "kernel_constraint": null, 
            "bias_regularizer": null, 
            "bias_constraint": null, 
            "activation": "linear", 
            "trainable": true, 
            "data_format": "channels_first", 
            "padding": "same", 
            "strides": [
               1, 
               1
            ], 
            "dilation_rate": [
               1, 
               1
            ], 
            "kernel_regularizer": null, 
            "filters": 256, 
            "bias_initializer": {
               "class_name": "Zeros", 
               "config": {}
            }, 
            "use_bias": true, 
            "activity_regularizer": null, 
            "kernel_size": [
               3, 
               3
            ]
         }
      }, 
      {
         "class_name": "Dropout", 
         "config": {
            "rate": 0.2, 
            "trainable": true, 
            "name": "dropout_96"
         }
      }, 
      {
         "class_name": "Conv2D", 
         "config": {
            "kernel_initializer": {
               "class_name": "VarianceScaling", 
               "config": {
                  "distribution": "uniform", 
                  "scale": 1.0, 
                  "seed": null, 
                  "mode": "fan_avg"
               }
            }, 
            "name": "conv2d_98", 
            "kernel_constraint": null, 
            "bias_regularizer": null, 
            "bias_constraint": null, 
            "activation": "linear", 
            "trainable": true, 
            "data_format": "channels_first", 
            "padding": "same", 
            "strides": [
               1, 
               1
            ], 
            "dilation_rate": [
               1, 
               1
            ], 
            "kernel_regularizer": null, 
            "filters": 12, 
            "bias_initializer": {
               "class_name": "Zeros", 
               "config": {}
            }, 
            "use_bias": true, 
            "activity_regularizer": null, 
            "kernel_size": [
               3, 
               3
            ]
         }
      }, 
      {
         "class_name": "Reshape", 
         "config": {
            "target_shape": [
               12, 
               50176
            ], 
            "trainable": true, 
            "name": "reshape_1"
         }
      }, 
      {
         "class_name": "Permute", 
         "config": {
            "dims": [
               2, 
               1
            ], 
            "trainable": true, 
            "name": "permute_1"
         }
      }, 
      {
         "class_name": "Activation", 
         "config": {
            "activation": "softmax", 
            "trainable": true, 
            "name": "activation_97"
         }
      }
   ], 
   "backend": "tensorflow"
}