{
   "config": [
      {
         "config": {
            "trainable": true,
            "dilation_rate": [
               1,
               1
            ],
            "kernel_regularizer": null,
            "activation": "linear",
            "activity_regularizer": null,
            "strides": [
               1,
               1
            ],
            "padding": "same",
            "bias_constraint": null,
            "use_bias": true,
            "kernel_size": [
               3,
               3
            ],
            "bias_regularizer": null,
            "kernel_constraint": null,
            "dtype": "float32",
            "kernel_initializer": {
               "config": {
                  "distribution": "uniform",
                  "mode": "fan_avg",
                  "scale": 1.0,
                  "seed": null
               },
               "class_name": "VarianceScaling"
            },
            "name": "conv2d_1",
            "bias_initializer": {
               "config": {},
               "class_name": "Zeros"
            },
            "filters": 48,
            "batch_input_shape": [
               null,
               3,
               224,
               224
            ],
            "data_format": "channels_first"
         },
         "class_name": "Conv2D"
      },
      {
         "config": {
            "trainable": true,
            "momentum": 0.99,
            "gamma_constraint": null,
            "axis": -1,
            "beta_initializer": {
               "config": {},
               "class_name": "Zeros"
            },
            "gamma_initializer": {
               "config": {},
               "class_name": "Ones"
            },
            "epsilon": 0.001,
            "moving_variance_initializer": {
               "config": {},
               "class_name": "Ones"
            },
            "center": true,
            "gamma_regularizer": null,
            "beta_constraint": null,
            "scale": true,
            "name": "batch_normalization_1",
            "moving_mean_initializer": {
               "config": {},
               "class_name": "Zeros"
            },
            "beta_regularizer": null
         },
         "class_name": "BatchNormalization"
      },
      {
         "config": {
            "name": "activation_1",
            "trainable": true,
            "activation": "relu"
         },
         "class_name": "Activation"
      },
      {
         "config": {
            "trainable": true,
            "dilation_rate": [
               1,
               1
            ],
            "kernel_regularizer": null,
            "activation": "linear",
            "activity_regularizer": null,
            "strides": [
               1,
               1
            ],
            "padding": "same",
            "bias_constraint": null,
            "use_bias": true,
            "kernel_size": [
               3,
               3
            ],
            "bias_regularizer": null,
            "kernel_constraint": null,
            "bias_initializer": {
               "config": {},
               "class_name": "Zeros"
            },
            "kernel_initializer": {
               "config": {
                  "distribution": "uniform",
                  "mode": "fan_avg",
                  "scale": 1.0,
                  "seed": null
               },
               "class_name": "VarianceScaling"
            },
            "name": "conv2d_2",
            "filters": 96,
            "data_format": "channels_first"
         },
         "class_name": "Conv2D"
      },
      {
         "config": {
            "name": "dropout_1",
            "trainable": true,
            "rate": 0.2
         },
         "class_name": "Dropout"
      },
      {
         "config": {
            "trainable": true,
            "momentum": 0.99,
            "gamma_constraint": null,
            "axis": -1,
            "beta_initializer": {
               "config": {},
               "class_name": "Zeros"
            },
            "gamma_initializer": {
               "config": {},
               "class_name": "Ones"
            },
            "epsilon": 0.001,
            "moving_variance_initializer": {
               "config": {},
               "class_name": "Ones"
            },
            "center": true,
            "gamma_regularizer": null,
            "beta_constraint": null,
            "scale": true,
            "name": "batch_normalization_2",
            "moving_mean_initializer": {
               "config": {},
               "class_name": "Zeros"
            },
            "beta_regularizer": null
         },
         "class_name": "BatchNormalization"
      },
      {
         "config": {
            "name": "activation_2",
            "trainable": true,
            "activation": "relu"
         },
         "class_name": "Activation"
      },
      {
         "config": {
            "trainable": true,
            "dilation_rate": [
               1,
               1
            ],
            "kernel_regularizer": null,
            "activation": "linear",
            "activity_regularizer": null,
            "strides": [
               1,
               1
            ],
            "padding": "same",
            "bias_constraint": null,
            "use_bias": true,
            "kernel_size": [
               3,
               3
            ],
            "bias_regularizer": null,
            "kernel_constraint": null,
            "bias_initializer": {
               "config": {},
               "class_name": "Zeros"
            },
            "kernel_initializer": {
               "config": {
                  "distribution": "uniform",
                  "mode": "fan_avg",
                  "scale": 1.0,
                  "seed": null
               },
               "class_name": "VarianceScaling"
            },
            "name": "conv2d_3",
            "filters": 96,
            "data_format": "channels_first"
         },
         "class_name": "Conv2D"
      },
      {
         "config": {
            "name": "dropout_2",
            "trainable": true,
            "rate": 0.2
         },
         "class_name": "Dropout"
      },
      {
         "config": {
            "trainable": true,
            "momentum": 0.99,
            "gamma_constraint": null,
            "axis": -1,
            "beta_initializer": {
               "config": {},
               "class_name": "Zeros"
            },
            "gamma_initializer": {
               "config": {},
               "class_name": "Ones"
            },
            "epsilon": 0.001,
            "moving_variance_initializer": {
               "config": {},
               "class_name": "Ones"
            },
            "center": true,
            "gamma_regularizer": null,
            "beta_constraint": null,
            "scale": true,
            "name": "batch_normalization_3",
            "moving_mean_initializer": {
               "config": {},
               "class_name": "Zeros"
            },
            "beta_regularizer": null
         },
         "class_name": "BatchNormalization"
      },
      {
         "config": {
            "name": "activation_3",
            "trainable": true,
            "activation": "relu"
         },
         "class_name": "Activation"
      },
      {
         "config": {
            "trainable": true,
            "dilation_rate": [
               1,
               1
            ],
            "kernel_regularizer": null,
            "activation": "linear",
            "activity_regularizer": null,
            "strides": [
               1,
               1
            ],
            "padding": "same",
            "bias_constraint": null,
            "use_bias": true,
            "kernel_size": [
               3,
               3
            ],
            "bias_regularizer": null,
            "kernel_constraint": null,
            "bias_initializer": {
               "config": {},
               "class_name": "Zeros"
            },
            "kernel_initializer": {
               "config": {
                  "distribution": "uniform",
                  "mode": "fan_avg",
                  "scale": 1.0,
                  "seed": null
               },
               "class_name": "VarianceScaling"
            },
            "name": "conv2d_4",
            "filters": 96,
            "data_format": "channels_first"
         },
         "class_name": "Conv2D"
      },
      {
         "config": {
            "name": "dropout_3",
            "trainable": true,
            "rate": 0.2
         },
         "class_name": "Dropout"
      },
      {
         "config": {
            "trainable": true,
            "momentum": 0.99,
            "gamma_constraint": null,
            "axis": -1,
            "beta_initializer": {
               "config": {},
               "class_name": "Zeros"
            },
            "gamma_initializer": {
               "config": {},
               "class_name": "Ones"
            },
            "epsilon": 0.001,
            "moving_variance_initializer": {
               "config": {},
               "class_name": "Ones"
            },
            "center": true,
            "gamma_regularizer": null,
            "beta_constraint": null,
            "scale": true,
            "name": "batch_normalization_4",
            "moving_mean_initializer": {
               "config": {},
               "class_name": "Zeros"
            },
            "beta_regularizer": null
         },
         "class_name": "BatchNormalization"
      },
      {
         "config": {
            "name": "activation_4",
            "trainable": true,
            "activation": "relu"
         },
         "class_name": "Activation"
      },
      {
         "config": {
            "trainable": true,
            "dilation_rate": [
               1,
               1
            ],
            "kernel_regularizer": null,
            "activation": "linear",
            "activity_regularizer": null,
            "strides": [
               1,
               1
            ],
            "padding": "same",
            "bias_constraint": null,
            "use_bias": true,
            "kernel_size": [
               3,
               3
            ],
            "bias_regularizer": null,
            "kernel_constraint": null,
            "bias_initializer": {
               "config": {},
               "class_name": "Zeros"
            },
            "kernel_initializer": {
               "config": {
                  "distribution": "uniform",
                  "mode": "fan_avg",
                  "scale": 1.0,
                  "seed": null
               },
               "class_name": "VarianceScaling"
            },
            "name": "conv2d_5",
            "filters": 96,
            "data_format": "channels_first"
         },
         "class_name": "Conv2D"
      },
      {
         "config": {
            "name": "dropout_4",
            "trainable": true,
            "rate": 0.2
         },
         "class_name": "Dropout"
      },
      {
         "config": {
            "trainable": true,
            "momentum": 0.99,
            "gamma_constraint": null,
            "axis": -1,
            "beta_initializer": {
               "config": {},
               "class_name": "Zeros"
            },
            "gamma_initializer": {
               "config": {},
               "class_name": "Ones"
            },
            "epsilon": 0.001,
            "moving_variance_initializer": {
               "config": {},
               "class_name": "Ones"
            },
            "center": true,
            "gamma_regularizer": null,
            "beta_constraint": null,
            "scale": true,
            "name": "batch_normalization_5",
            "moving_mean_initializer": {
               "config": {},
               "class_name": "Zeros"
            },
            "beta_regularizer": null
         },
         "class_name": "BatchNormalization"
      },
      {
         "config": {
            "name": "activation_5",
            "trainable": true,
            "activation": "relu"
         },
         "class_name": "Activation"
      },
      {
         "config": {
            "trainable": true,
            "dilation_rate": [
               1,
               1
            ],
            "kernel_regularizer": null,
            "activation": "linear",
            "activity_regularizer": null,
            "strides": [
               1,
               1
            ],
            "padding": "same",
            "bias_constraint": null,
            "use_bias": true,
            "kernel_size": [
               1,
               1
            ],
            "bias_regularizer": null,
            "kernel_constraint": null,
            "bias_initializer": {
               "config": {},
               "class_name": "Zeros"
            },
            "kernel_initializer": {
               "config": {
                  "distribution": "uniform",
                  "mode": "fan_avg",
                  "scale": 1.0,
                  "seed": null
               },
               "class_name": "VarianceScaling"
            },
            "name": "conv2d_6",
            "filters": 96,
            "data_format": "channels_first"
         },
         "class_name": "Conv2D"
      },
      {
         "config": {
            "name": "dropout_5",
            "trainable": true,
            "rate": 0.2
         },
         "class_name": "Dropout"
      },
      {
         "config": {
            "trainable": true,
            "pool_size": [
               2,
               2
            ],
            "strides": [
               2,
               2
            ],
            "padding": "valid",
            "name": "max_pooling2d_1",
            "data_format": "channels_first"
         },
         "class_name": "MaxPooling2D"
      },
      {
         "config": {
            "trainable": true,
            "momentum": 0.99,
            "gamma_constraint": null,
            "axis": -1,
            "beta_initializer": {
               "config": {},
               "class_name": "Zeros"
            },
            "gamma_initializer": {
               "config": {},
               "class_name": "Ones"
            },
            "epsilon": 0.001,
            "moving_variance_initializer": {
               "config": {},
               "class_name": "Ones"
            },
            "center": true,
            "gamma_regularizer": null,
            "beta_constraint": null,
            "scale": true,
            "name": "batch_normalization_6",
            "moving_mean_initializer": {
               "config": {},
               "class_name": "Zeros"
            },
            "beta_regularizer": null
         },
         "class_name": "BatchNormalization"
      },
      {
         "config": {
            "name": "activation_6",
            "trainable": true,
            "activation": "relu"
         },
         "class_name": "Activation"
      },
      {
         "config": {
            "trainable": true,
            "dilation_rate": [
               1,
               1
            ],
            "kernel_regularizer": null,
            "activation": "linear",
            "activity_regularizer": null,
            "strides": [
               1,
               1
            ],
            "padding": "same",
            "bias_constraint": null,
            "use_bias": true,
            "kernel_size": [
               3,
               3
            ],
            "bias_regularizer": null,
            "kernel_constraint": null,
            "bias_initializer": {
               "config": {},
               "class_name": "Zeros"
            },
            "kernel_initializer": {
               "config": {
                  "distribution": "uniform",
                  "mode": "fan_avg",
                  "scale": 1.0,
                  "seed": null
               },
               "class_name": "VarianceScaling"
            },
            "name": "conv2d_7",
            "filters": 144,
            "data_format": "channels_first"
         },
         "class_name": "Conv2D"
      },
      {
         "config": {
            "name": "dropout_6",
            "trainable": true,
            "rate": 0.2
         },
         "class_name": "Dropout"
      },
      {
         "config": {
            "trainable": true,
            "momentum": 0.99,
            "gamma_constraint": null,
            "axis": -1,
            "beta_initializer": {
               "config": {},
               "class_name": "Zeros"
            },
            "gamma_initializer": {
               "config": {},
               "class_name": "Ones"
            },
            "epsilon": 0.001,
            "moving_variance_initializer": {
               "config": {},
               "class_name": "Ones"
            },
            "center": true,
            "gamma_regularizer": null,
            "beta_constraint": null,
            "scale": true,
            "name": "batch_normalization_7",
            "moving_mean_initializer": {
               "config": {},
               "class_name": "Zeros"
            },
            "beta_regularizer": null
         },
         "class_name": "BatchNormalization"
      },
      {
         "config": {
            "name": "activation_7",
            "trainable": true,
            "activation": "relu"
         },
         "class_name": "Activation"
      },
      {
         "config": {
            "trainable": true,
            "dilation_rate": [
               1,
               1
            ],
            "kernel_regularizer": null,
            "activation": "linear",
            "activity_regularizer": null,
            "strides": [
               1,
               1
            ],
            "padding": "same",
            "bias_constraint": null,
            "use_bias": true,
            "kernel_size": [
               3,
               3
            ],
            "bias_regularizer": null,
            "kernel_constraint": null,
            "bias_initializer": {
               "config": {},
               "class_name": "Zeros"
            },
            "kernel_initializer": {
               "config": {
                  "distribution": "uniform",
                  "mode": "fan_avg",
                  "scale": 1.0,
                  "seed": null
               },
               "class_name": "VarianceScaling"
            },
            "name": "conv2d_8",
            "filters": 144,
            "data_format": "channels_first"
         },
         "class_name": "Conv2D"
      },
      {
         "config": {
            "name": "dropout_7",
            "trainable": true,
            "rate": 0.2
         },
         "class_name": "Dropout"
      },
      {
         "config": {
            "trainable": true,
            "momentum": 0.99,
            "gamma_constraint": null,
            "axis": -1,
            "beta_initializer": {
               "config": {},
               "class_name": "Zeros"
            },
            "gamma_initializer": {
               "config": {},
               "class_name": "Ones"
            },
            "epsilon": 0.001,
            "moving_variance_initializer": {
               "config": {},
               "class_name": "Ones"
            },
            "center": true,
            "gamma_regularizer": null,
            "beta_constraint": null,
            "scale": true,
            "name": "batch_normalization_8",
            "moving_mean_initializer": {
               "config": {},
               "class_name": "Zeros"
            },
            "beta_regularizer": null
         },
         "class_name": "BatchNormalization"
      },
      {
         "config": {
            "name": "activation_8",
            "trainable": true,
            "activation": "relu"
         },
         "class_name": "Activation"
      },
      {
         "config": {
            "trainable": true,
            "dilation_rate": [
               1,
               1
            ],
            "kernel_regularizer": null,
            "activation": "linear",
            "activity_regularizer": null,
            "strides": [
               1,
               1
            ],
            "padding": "same",
            "bias_constraint": null,
            "use_bias": true,
            "kernel_size": [
               3,
               3
            ],
            "bias_regularizer": null,
            "kernel_constraint": null,
            "bias_initializer": {
               "config": {},
               "class_name": "Zeros"
            },
            "kernel_initializer": {
               "config": {
                  "distribution": "uniform",
                  "mode": "fan_avg",
                  "scale": 1.0,
                  "seed": null
               },
               "class_name": "VarianceScaling"
            },
            "name": "conv2d_9",
            "filters": 144,
            "data_format": "channels_first"
         },
         "class_name": "Conv2D"
      },
      {
         "config": {
            "name": "dropout_8",
            "trainable": true,
            "rate": 0.2
         },
         "class_name": "Dropout"
      },
      {
         "config": {
            "trainable": true,
            "momentum": 0.99,
            "gamma_constraint": null,
            "axis": -1,
            "beta_initializer": {
               "config": {},
               "class_name": "Zeros"
            },
            "gamma_initializer": {
               "config": {},
               "class_name": "Ones"
            },
            "epsilon": 0.001,
            "moving_variance_initializer": {
               "config": {},
               "class_name": "Ones"
            },
            "center": true,
            "gamma_regularizer": null,
            "beta_constraint": null,
            "scale": true,
            "name": "batch_normalization_9",
            "moving_mean_initializer": {
               "config": {},
               "class_name": "Zeros"
            },
            "beta_regularizer": null
         },
         "class_name": "BatchNormalization"
      },
      {
         "config": {
            "name": "activation_9",
            "trainable": true,
            "activation": "relu"
         },
         "class_name": "Activation"
      },
      {
         "config": {
            "trainable": true,
            "dilation_rate": [
               1,
               1
            ],
            "kernel_regularizer": null,
            "activation": "linear",
            "activity_regularizer": null,
            "strides": [
               1,
               1
            ],
            "padding": "same",
            "bias_constraint": null,
            "use_bias": true,
            "kernel_size": [
               3,
               3
            ],
            "bias_regularizer": null,
            "kernel_constraint": null,
            "bias_initializer": {
               "config": {},
               "class_name": "Zeros"
            },
            "kernel_initializer": {
               "config": {
                  "distribution": "uniform",
                  "mode": "fan_avg",
                  "scale": 1.0,
                  "seed": null
               },
               "class_name": "VarianceScaling"
            },
            "name": "conv2d_10",
            "filters": 144,
            "data_format": "channels_first"
         },
         "class_name": "Conv2D"
      },
      {
         "config": {
            "name": "dropout_9",
            "trainable": true,
            "rate": 0.2
         },
         "class_name": "Dropout"
      },
      {
         "config": {
            "trainable": true,
            "momentum": 0.99,
            "gamma_constraint": null,
            "axis": -1,
            "beta_initializer": {
               "config": {},
               "class_name": "Zeros"
            },
            "gamma_initializer": {
               "config": {},
               "class_name": "Ones"
            },
            "epsilon": 0.001,
            "moving_variance_initializer": {
               "config": {},
               "class_name": "Ones"
            },
            "center": true,
            "gamma_regularizer": null,
            "beta_constraint": null,
            "scale": true,
            "name": "batch_normalization_10",
            "moving_mean_initializer": {
               "config": {},
               "class_name": "Zeros"
            },
            "beta_regularizer": null
         },
         "class_name": "BatchNormalization"
      },
      {
         "config": {
            "name": "activation_10",
            "trainable": true,
            "activation": "relu"
         },
         "class_name": "Activation"
      },
      {
         "config": {
            "trainable": true,
            "dilation_rate": [
               1,
               1
            ],
            "kernel_regularizer": null,
            "activation": "linear",
            "activity_regularizer": null,
            "strides": [
               1,
               1
            ],
            "padding": "same",
            "bias_constraint": null,
            "use_bias": true,
            "kernel_size": [
               1,
               1
            ],
            "bias_regularizer": null,
            "kernel_constraint": null,
            "bias_initializer": {
               "config": {},
               "class_name": "Zeros"
            },
            "kernel_initializer": {
               "config": {
                  "distribution": "uniform",
                  "mode": "fan_avg",
                  "scale": 1.0,
                  "seed": null
               },
               "class_name": "VarianceScaling"
            },
            "name": "conv2d_11",
            "filters": 144,
            "data_format": "channels_first"
         },
         "class_name": "Conv2D"
      },
      {
         "config": {
            "name": "dropout_10",
            "trainable": true,
            "rate": 0.2
         },
         "class_name": "Dropout"
      },
      {
         "config": {
            "trainable": true,
            "pool_size": [
               2,
               2
            ],
            "strides": [
               2,
               2
            ],
            "padding": "valid",
            "name": "max_pooling2d_2",
            "data_format": "channels_first"
         },
         "class_name": "MaxPooling2D"
      },
      {
         "config": {
            "trainable": true,
            "momentum": 0.99,
            "gamma_constraint": null,
            "axis": -1,
            "beta_initializer": {
               "config": {},
               "class_name": "Zeros"
            },
            "gamma_initializer": {
               "config": {},
               "class_name": "Ones"
            },
            "epsilon": 0.001,
            "moving_variance_initializer": {
               "config": {},
               "class_name": "Ones"
            },
            "center": true,
            "gamma_regularizer": null,
            "beta_constraint": null,
            "scale": true,
            "name": "batch_normalization_11",
            "moving_mean_initializer": {
               "config": {},
               "class_name": "Zeros"
            },
            "beta_regularizer": null
         },
         "class_name": "BatchNormalization"
      },
      {
         "config": {
            "name": "activation_11",
            "trainable": true,
            "activation": "relu"
         },
         "class_name": "Activation"
      },
      {
         "config": {
            "trainable": true,
            "dilation_rate": [
               1,
               1
            ],
            "kernel_regularizer": null,
            "activation": "linear",
            "activity_regularizer": null,
            "strides": [
               1,
               1
            ],
            "padding": "same",
            "bias_constraint": null,
            "use_bias": true,
            "kernel_size": [
               3,
               3
            ],
            "bias_regularizer": null,
            "kernel_constraint": null,
            "bias_initializer": {
               "config": {},
               "class_name": "Zeros"
            },
            "kernel_initializer": {
               "config": {
                  "distribution": "uniform",
                  "mode": "fan_avg",
                  "scale": 1.0,
                  "seed": null
               },
               "class_name": "VarianceScaling"
            },
            "name": "conv2d_12",
            "filters": 192,
            "data_format": "channels_first"
         },
         "class_name": "Conv2D"
      },
      {
         "config": {
            "name": "dropout_11",
            "trainable": true,
            "rate": 0.2
         },
         "class_name": "Dropout"
      },
      {
         "config": {
            "trainable": true,
            "momentum": 0.99,
            "gamma_constraint": null,
            "axis": -1,
            "beta_initializer": {
               "config": {},
               "class_name": "Zeros"
            },
            "gamma_initializer": {
               "config": {},
               "class_name": "Ones"
            },
            "epsilon": 0.001,
            "moving_variance_initializer": {
               "config": {},
               "class_name": "Ones"
            },
            "center": true,
            "gamma_regularizer": null,
            "beta_constraint": null,
            "scale": true,
            "name": "batch_normalization_12",
            "moving_mean_initializer": {
               "config": {},
               "class_name": "Zeros"
            },
            "beta_regularizer": null
         },
         "class_name": "BatchNormalization"
      },
      {
         "config": {
            "name": "activation_12",
            "trainable": true,
            "activation": "relu"
         },
         "class_name": "Activation"
      },
      {
         "config": {
            "trainable": true,
            "dilation_rate": [
               1,
               1
            ],
            "kernel_regularizer": null,
            "activation": "linear",
            "activity_regularizer": null,
            "strides": [
               1,
               1
            ],
            "padding": "same",
            "bias_constraint": null,
            "use_bias": true,
            "kernel_size": [
               3,
               3
            ],
            "bias_regularizer": null,
            "kernel_constraint": null,
            "bias_initializer": {
               "config": {},
               "class_name": "Zeros"
            },
            "kernel_initializer": {
               "config": {
                  "distribution": "uniform",
                  "mode": "fan_avg",
                  "scale": 1.0,
                  "seed": null
               },
               "class_name": "VarianceScaling"
            },
            "name": "conv2d_13",
            "filters": 192,
            "data_format": "channels_first"
         },
         "class_name": "Conv2D"
      },
      {
         "config": {
            "name": "dropout_12",
            "trainable": true,
            "rate": 0.2
         },
         "class_name": "Dropout"
      },
      {
         "config": {
            "trainable": true,
            "momentum": 0.99,
            "gamma_constraint": null,
            "axis": -1,
            "beta_initializer": {
               "config": {},
               "class_name": "Zeros"
            },
            "gamma_initializer": {
               "config": {},
               "class_name": "Ones"
            },
            "epsilon": 0.001,
            "moving_variance_initializer": {
               "config": {},
               "class_name": "Ones"
            },
            "center": true,
            "gamma_regularizer": null,
            "beta_constraint": null,
            "scale": true,
            "name": "batch_normalization_13",
            "moving_mean_initializer": {
               "config": {},
               "class_name": "Zeros"
            },
            "beta_regularizer": null
         },
         "class_name": "BatchNormalization"
      },
      {
         "config": {
            "name": "activation_13",
            "trainable": true,
            "activation": "relu"
         },
         "class_name": "Activation"
      },
      {
         "config": {
            "trainable": true,
            "dilation_rate": [
               1,
               1
            ],
            "kernel_regularizer": null,
            "activation": "linear",
            "activity_regularizer": null,
            "strides": [
               1,
               1
            ],
            "padding": "same",
            "bias_constraint": null,
            "use_bias": true,
            "kernel_size": [
               3,
               3
            ],
            "bias_regularizer": null,
            "kernel_constraint": null,
            "bias_initializer": {
               "config": {},
               "class_name": "Zeros"
            },
            "kernel_initializer": {
               "config": {
                  "distribution": "uniform",
                  "mode": "fan_avg",
                  "scale": 1.0,
                  "seed": null
               },
               "class_name": "VarianceScaling"
            },
            "name": "conv2d_14",
            "filters": 192,
            "data_format": "channels_first"
         },
         "class_name": "Conv2D"
      },
      {
         "config": {
            "name": "dropout_13",
            "trainable": true,
            "rate": 0.2
         },
         "class_name": "Dropout"
      },
      {
         "config": {
            "trainable": true,
            "momentum": 0.99,
            "gamma_constraint": null,
            "axis": -1,
            "beta_initializer": {
               "config": {},
               "class_name": "Zeros"
            },
            "gamma_initializer": {
               "config": {},
               "class_name": "Ones"
            },
            "epsilon": 0.001,
            "moving_variance_initializer": {
               "config": {},
               "class_name": "Ones"
            },
            "center": true,
            "gamma_regularizer": null,
            "beta_constraint": null,
            "scale": true,
            "name": "batch_normalization_14",
            "moving_mean_initializer": {
               "config": {},
               "class_name": "Zeros"
            },
            "beta_regularizer": null
         },
         "class_name": "BatchNormalization"
      },
      {
         "config": {
            "name": "activation_14",
            "trainable": true,
            "activation": "relu"
         },
         "class_name": "Activation"
      },
      {
         "config": {
            "trainable": true,
            "dilation_rate": [
               1,
               1
            ],
            "kernel_regularizer": null,
            "activation": "linear",
            "activity_regularizer": null,
            "strides": [
               1,
               1
            ],
            "padding": "same",
            "bias_constraint": null,
            "use_bias": true,
            "kernel_size": [
               3,
               3
            ],
            "bias_regularizer": null,
            "kernel_constraint": null,
            "bias_initializer": {
               "config": {},
               "class_name": "Zeros"
            },
            "kernel_initializer": {
               "config": {
                  "distribution": "uniform",
                  "mode": "fan_avg",
                  "scale": 1.0,
                  "seed": null
               },
               "class_name": "VarianceScaling"
            },
            "name": "conv2d_15",
            "filters": 192,
            "data_format": "channels_first"
         },
         "class_name": "Conv2D"
      },
      {
         "config": {
            "name": "dropout_14",
            "trainable": true,
            "rate": 0.2
         },
         "class_name": "Dropout"
      },
      {
         "config": {
            "trainable": true,
            "momentum": 0.99,
            "gamma_constraint": null,
            "axis": -1,
            "beta_initializer": {
               "config": {},
               "class_name": "Zeros"
            },
            "gamma_initializer": {
               "config": {},
               "class_name": "Ones"
            },
            "epsilon": 0.001,
            "moving_variance_initializer": {
               "config": {},
               "class_name": "Ones"
            },
            "center": true,
            "gamma_regularizer": null,
            "beta_constraint": null,
            "scale": true,
            "name": "batch_normalization_15",
            "moving_mean_initializer": {
               "config": {},
               "class_name": "Zeros"
            },
            "beta_regularizer": null
         },
         "class_name": "BatchNormalization"
      },
      {
         "config": {
            "name": "activation_15",
            "trainable": true,
            "activation": "relu"
         },
         "class_name": "Activation"
      },
      {
         "config": {
            "trainable": true,
            "dilation_rate": [
               1,
               1
            ],
            "kernel_regularizer": null,
            "activation": "linear",
            "activity_regularizer": null,
            "strides": [
               1,
               1
            ],
            "padding": "same",
            "bias_constraint": null,
            "use_bias": true,
            "kernel_size": [
               1,
               1
            ],
            "bias_regularizer": null,
            "kernel_constraint": null,
            "bias_initializer": {
               "config": {},
               "class_name": "Zeros"
            },
            "kernel_initializer": {
               "config": {
                  "distribution": "uniform",
                  "mode": "fan_avg",
                  "scale": 1.0,
                  "seed": null
               },
               "class_name": "VarianceScaling"
            },
            "name": "conv2d_16",
            "filters": 192,
            "data_format": "channels_first"
         },
         "class_name": "Conv2D"
      },
      {
         "config": {
            "name": "dropout_15",
            "trainable": true,
            "rate": 0.2
         },
         "class_name": "Dropout"
      },
      {
         "config": {
            "trainable": true,
            "pool_size": [
               2,
               2
            ],
            "strides": [
               2,
               2
            ],
            "padding": "valid",
            "name": "max_pooling2d_3",
            "data_format": "channels_first"
         },
         "class_name": "MaxPooling2D"
      },
      {
         "config": {
            "trainable": true,
            "momentum": 0.99,
            "gamma_constraint": null,
            "axis": -1,
            "beta_initializer": {
               "config": {},
               "class_name": "Zeros"
            },
            "gamma_initializer": {
               "config": {},
               "class_name": "Ones"
            },
            "epsilon": 0.001,
            "moving_variance_initializer": {
               "config": {},
               "class_name": "Ones"
            },
            "center": true,
            "gamma_regularizer": null,
            "beta_constraint": null,
            "scale": true,
            "name": "batch_normalization_16",
            "moving_mean_initializer": {
               "config": {},
               "class_name": "Zeros"
            },
            "beta_regularizer": null
         },
         "class_name": "BatchNormalization"
      },
      {
         "config": {
            "name": "activation_16",
            "trainable": true,
            "activation": "relu"
         },
         "class_name": "Activation"
      },
      {
         "config": {
            "trainable": true,
            "dilation_rate": [
               1,
               1
            ],
            "kernel_regularizer": null,
            "activation": "linear",
            "activity_regularizer": null,
            "strides": [
               1,
               1
            ],
            "padding": "same",
            "bias_constraint": null,
            "use_bias": true,
            "kernel_size": [
               3,
               3
            ],
            "bias_regularizer": null,
            "kernel_constraint": null,
            "bias_initializer": {
               "config": {},
               "class_name": "Zeros"
            },
            "kernel_initializer": {
               "config": {
                  "distribution": "uniform",
                  "mode": "fan_avg",
                  "scale": 1.0,
                  "seed": null
               },
               "class_name": "VarianceScaling"
            },
            "name": "conv2d_17",
            "filters": 240,
            "data_format": "channels_first"
         },
         "class_name": "Conv2D"
      },
      {
         "config": {
            "name": "dropout_16",
            "trainable": true,
            "rate": 0.2
         },
         "class_name": "Dropout"
      },
      {
         "config": {
            "trainable": true,
            "momentum": 0.99,
            "gamma_constraint": null,
            "axis": -1,
            "beta_initializer": {
               "config": {},
               "class_name": "Zeros"
            },
            "gamma_initializer": {
               "config": {},
               "class_name": "Ones"
            },
            "epsilon": 0.001,
            "moving_variance_initializer": {
               "config": {},
               "class_name": "Ones"
            },
            "center": true,
            "gamma_regularizer": null,
            "beta_constraint": null,
            "scale": true,
            "name": "batch_normalization_17",
            "moving_mean_initializer": {
               "config": {},
               "class_name": "Zeros"
            },
            "beta_regularizer": null
         },
         "class_name": "BatchNormalization"
      },
      {
         "config": {
            "name": "activation_17",
            "trainable": true,
            "activation": "relu"
         },
         "class_name": "Activation"
      },
      {
         "config": {
            "trainable": true,
            "dilation_rate": [
               1,
               1
            ],
            "kernel_regularizer": null,
            "activation": "linear",
            "activity_regularizer": null,
            "strides": [
               1,
               1
            ],
            "padding": "same",
            "bias_constraint": null,
            "use_bias": true,
            "kernel_size": [
               3,
               3
            ],
            "bias_regularizer": null,
            "kernel_constraint": null,
            "bias_initializer": {
               "config": {},
               "class_name": "Zeros"
            },
            "kernel_initializer": {
               "config": {
                  "distribution": "uniform",
                  "mode": "fan_avg",
                  "scale": 1.0,
                  "seed": null
               },
               "class_name": "VarianceScaling"
            },
            "name": "conv2d_18",
            "filters": 240,
            "data_format": "channels_first"
         },
         "class_name": "Conv2D"
      },
      {
         "config": {
            "name": "dropout_17",
            "trainable": true,
            "rate": 0.2
         },
         "class_name": "Dropout"
      },
      {
         "config": {
            "trainable": true,
            "momentum": 0.99,
            "gamma_constraint": null,
            "axis": -1,
            "beta_initializer": {
               "config": {},
               "class_name": "Zeros"
            },
            "gamma_initializer": {
               "config": {},
               "class_name": "Ones"
            },
            "epsilon": 0.001,
            "moving_variance_initializer": {
               "config": {},
               "class_name": "Ones"
            },
            "center": true,
            "gamma_regularizer": null,
            "beta_constraint": null,
            "scale": true,
            "name": "batch_normalization_18",
            "moving_mean_initializer": {
               "config": {},
               "class_name": "Zeros"
            },
            "beta_regularizer": null
         },
         "class_name": "BatchNormalization"
      },
      {
         "config": {
            "name": "activation_18",
            "trainable": true,
            "activation": "relu"
         },
         "class_name": "Activation"
      },
      {
         "config": {
            "trainable": true,
            "dilation_rate": [
               1,
               1
            ],
            "kernel_regularizer": null,
            "activation": "linear",
            "activity_regularizer": null,
            "strides": [
               1,
               1
            ],
            "padding": "same",
            "bias_constraint": null,
            "use_bias": true,
            "kernel_size": [
               3,
               3
            ],
            "bias_regularizer": null,
            "kernel_constraint": null,
            "bias_initializer": {
               "config": {},
               "class_name": "Zeros"
            },
            "kernel_initializer": {
               "config": {
                  "distribution": "uniform",
                  "mode": "fan_avg",
                  "scale": 1.0,
                  "seed": null
               },
               "class_name": "VarianceScaling"
            },
            "name": "conv2d_19",
            "filters": 240,
            "data_format": "channels_first"
         },
         "class_name": "Conv2D"
      },
      {
         "config": {
            "name": "dropout_18",
            "trainable": true,
            "rate": 0.2
         },
         "class_name": "Dropout"
      },
      {
         "config": {
            "trainable": true,
            "momentum": 0.99,
            "gamma_constraint": null,
            "axis": -1,
            "beta_initializer": {
               "config": {},
               "class_name": "Zeros"
            },
            "gamma_initializer": {
               "config": {},
               "class_name": "Ones"
            },
            "epsilon": 0.001,
            "moving_variance_initializer": {
               "config": {},
               "class_name": "Ones"
            },
            "center": true,
            "gamma_regularizer": null,
            "beta_constraint": null,
            "scale": true,
            "name": "batch_normalization_19",
            "moving_mean_initializer": {
               "config": {},
               "class_name": "Zeros"
            },
            "beta_regularizer": null
         },
         "class_name": "BatchNormalization"
      },
      {
         "config": {
            "name": "activation_19",
            "trainable": true,
            "activation": "relu"
         },
         "class_name": "Activation"
      },
      {
         "config": {
            "trainable": true,
            "dilation_rate": [
               1,
               1
            ],
            "kernel_regularizer": null,
            "activation": "linear",
            "activity_regularizer": null,
            "strides": [
               1,
               1
            ],
            "padding": "same",
            "bias_constraint": null,
            "use_bias": true,
            "kernel_size": [
               3,
               3
            ],
            "bias_regularizer": null,
            "kernel_constraint": null,
            "bias_initializer": {
               "config": {},
               "class_name": "Zeros"
            },
            "kernel_initializer": {
               "config": {
                  "distribution": "uniform",
                  "mode": "fan_avg",
                  "scale": 1.0,
                  "seed": null
               },
               "class_name": "VarianceScaling"
            },
            "name": "conv2d_20",
            "filters": 240,
            "data_format": "channels_first"
         },
         "class_name": "Conv2D"
      },
      {
         "config": {
            "name": "dropout_19",
            "trainable": true,
            "rate": 0.2
         },
         "class_name": "Dropout"
      },
      {
         "config": {
            "trainable": true,
            "momentum": 0.99,
            "gamma_constraint": null,
            "axis": -1,
            "beta_initializer": {
               "config": {},
               "class_name": "Zeros"
            },
            "gamma_initializer": {
               "config": {},
               "class_name": "Ones"
            },
            "epsilon": 0.001,
            "moving_variance_initializer": {
               "config": {},
               "class_name": "Ones"
            },
            "center": true,
            "gamma_regularizer": null,
            "beta_constraint": null,
            "scale": true,
            "name": "batch_normalization_20",
            "moving_mean_initializer": {
               "config": {},
               "class_name": "Zeros"
            },
            "beta_regularizer": null
         },
         "class_name": "BatchNormalization"
      },
      {
         "config": {
            "name": "activation_20",
            "trainable": true,
            "activation": "relu"
         },
         "class_name": "Activation"
      },
      {
         "config": {
            "trainable": true,
            "dilation_rate": [
               1,
               1
            ],
            "kernel_regularizer": null,
            "activation": "linear",
            "activity_regularizer": null,
            "strides": [
               1,
               1
            ],
            "padding": "same",
            "bias_constraint": null,
            "use_bias": true,
            "kernel_size": [
               1,
               1
            ],
            "bias_regularizer": null,
            "kernel_constraint": null,
            "bias_initializer": {
               "config": {},
               "class_name": "Zeros"
            },
            "kernel_initializer": {
               "config": {
                  "distribution": "uniform",
                  "mode": "fan_avg",
                  "scale": 1.0,
                  "seed": null
               },
               "class_name": "VarianceScaling"
            },
            "name": "conv2d_21",
            "filters": 240,
            "data_format": "channels_first"
         },
         "class_name": "Conv2D"
      },
      {
         "config": {
            "name": "dropout_20",
            "trainable": true,
            "rate": 0.2
         },
         "class_name": "Dropout"
      },
      {
         "config": {
            "trainable": true,
            "pool_size": [
               2,
               2
            ],
            "strides": [
               2,
               2
            ],
            "padding": "valid",
            "name": "max_pooling2d_4",
            "data_format": "channels_first"
         },
         "class_name": "MaxPooling2D"
      },
      {
         "config": {
            "trainable": true,
            "momentum": 0.99,
            "gamma_constraint": null,
            "axis": -1,
            "beta_initializer": {
               "config": {},
               "class_name": "Zeros"
            },
            "gamma_initializer": {
               "config": {},
               "class_name": "Ones"
            },
            "epsilon": 0.001,
            "moving_variance_initializer": {
               "config": {},
               "class_name": "Ones"
            },
            "center": true,
            "gamma_regularizer": null,
            "beta_constraint": null,
            "scale": true,
            "name": "batch_normalization_21",
            "moving_mean_initializer": {
               "config": {},
               "class_name": "Zeros"
            },
            "beta_regularizer": null
         },
         "class_name": "BatchNormalization"
      },
      {
         "config": {
            "name": "activation_21",
            "trainable": true,
            "activation": "relu"
         },
         "class_name": "Activation"
      },
      {
         "config": {
            "trainable": true,
            "dilation_rate": [
               1,
               1
            ],
            "kernel_regularizer": null,
            "activation": "linear",
            "activity_regularizer": null,
            "strides": [
               1,
               1
            ],
            "padding": "same",
            "bias_constraint": null,
            "use_bias": true,
            "kernel_size": [
               3,
               3
            ],
            "bias_regularizer": null,
            "kernel_constraint": null,
            "bias_initializer": {
               "config": {},
               "class_name": "Zeros"
            },
            "kernel_initializer": {
               "config": {
                  "distribution": "uniform",
                  "mode": "fan_avg",
                  "scale": 1.0,
                  "seed": null
               },
               "class_name": "VarianceScaling"
            },
            "name": "conv2d_22",
            "filters": 288,
            "data_format": "channels_first"
         },
         "class_name": "Conv2D"
      },
      {
         "config": {
            "name": "dropout_21",
            "trainable": true,
            "rate": 0.2
         },
         "class_name": "Dropout"
      },
      {
         "config": {
            "trainable": true,
            "momentum": 0.99,
            "gamma_constraint": null,
            "axis": -1,
            "beta_initializer": {
               "config": {},
               "class_name": "Zeros"
            },
            "gamma_initializer": {
               "config": {},
               "class_name": "Ones"
            },
            "epsilon": 0.001,
            "moving_variance_initializer": {
               "config": {},
               "class_name": "Ones"
            },
            "center": true,
            "gamma_regularizer": null,
            "beta_constraint": null,
            "scale": true,
            "name": "batch_normalization_22",
            "moving_mean_initializer": {
               "config": {},
               "class_name": "Zeros"
            },
            "beta_regularizer": null
         },
         "class_name": "BatchNormalization"
      },
      {
         "config": {
            "name": "activation_22",
            "trainable": true,
            "activation": "relu"
         },
         "class_name": "Activation"
      },
      {
         "config": {
            "trainable": true,
            "dilation_rate": [
               1,
               1
            ],
            "kernel_regularizer": null,
            "activation": "linear",
            "activity_regularizer": null,
            "strides": [
               1,
               1
            ],
            "padding": "same",
            "bias_constraint": null,
            "use_bias": true,
            "kernel_size": [
               3,
               3
            ],
            "bias_regularizer": null,
            "kernel_constraint": null,
            "bias_initializer": {
               "config": {},
               "class_name": "Zeros"
            },
            "kernel_initializer": {
               "config": {
                  "distribution": "uniform",
                  "mode": "fan_avg",
                  "scale": 1.0,
                  "seed": null
               },
               "class_name": "VarianceScaling"
            },
            "name": "conv2d_23",
            "filters": 288,
            "data_format": "channels_first"
         },
         "class_name": "Conv2D"
      },
      {
         "config": {
            "name": "dropout_22",
            "trainable": true,
            "rate": 0.2
         },
         "class_name": "Dropout"
      },
      {
         "config": {
            "trainable": true,
            "momentum": 0.99,
            "gamma_constraint": null,
            "axis": -1,
            "beta_initializer": {
               "config": {},
               "class_name": "Zeros"
            },
            "gamma_initializer": {
               "config": {},
               "class_name": "Ones"
            },
            "epsilon": 0.001,
            "moving_variance_initializer": {
               "config": {},
               "class_name": "Ones"
            },
            "center": true,
            "gamma_regularizer": null,
            "beta_constraint": null,
            "scale": true,
            "name": "batch_normalization_23",
            "moving_mean_initializer": {
               "config": {},
               "class_name": "Zeros"
            },
            "beta_regularizer": null
         },
         "class_name": "BatchNormalization"
      },
      {
         "config": {
            "name": "activation_23",
            "trainable": true,
            "activation": "relu"
         },
         "class_name": "Activation"
      },
      {
         "config": {
            "trainable": true,
            "dilation_rate": [
               1,
               1
            ],
            "kernel_regularizer": null,
            "activation": "linear",
            "activity_regularizer": null,
            "strides": [
               1,
               1
            ],
            "padding": "same",
            "bias_constraint": null,
            "use_bias": true,
            "kernel_size": [
               3,
               3
            ],
            "bias_regularizer": null,
            "kernel_constraint": null,
            "bias_initializer": {
               "config": {},
               "class_name": "Zeros"
            },
            "kernel_initializer": {
               "config": {
                  "distribution": "uniform",
                  "mode": "fan_avg",
                  "scale": 1.0,
                  "seed": null
               },
               "class_name": "VarianceScaling"
            },
            "name": "conv2d_24",
            "filters": 288,
            "data_format": "channels_first"
         },
         "class_name": "Conv2D"
      },
      {
         "config": {
            "name": "dropout_23",
            "trainable": true,
            "rate": 0.2
         },
         "class_name": "Dropout"
      },
      {
         "config": {
            "trainable": true,
            "momentum": 0.99,
            "gamma_constraint": null,
            "axis": -1,
            "beta_initializer": {
               "config": {},
               "class_name": "Zeros"
            },
            "gamma_initializer": {
               "config": {},
               "class_name": "Ones"
            },
            "epsilon": 0.001,
            "moving_variance_initializer": {
               "config": {},
               "class_name": "Ones"
            },
            "center": true,
            "gamma_regularizer": null,
            "beta_constraint": null,
            "scale": true,
            "name": "batch_normalization_24",
            "moving_mean_initializer": {
               "config": {},
               "class_name": "Zeros"
            },
            "beta_regularizer": null
         },
         "class_name": "BatchNormalization"
      },
      {
         "config": {
            "name": "activation_24",
            "trainable": true,
            "activation": "relu"
         },
         "class_name": "Activation"
      },
      {
         "config": {
            "trainable": true,
            "dilation_rate": [
               1,
               1
            ],
            "kernel_regularizer": null,
            "activation": "linear",
            "activity_regularizer": null,
            "strides": [
               1,
               1
            ],
            "padding": "same",
            "bias_constraint": null,
            "use_bias": true,
            "kernel_size": [
               3,
               3
            ],
            "bias_regularizer": null,
            "kernel_constraint": null,
            "bias_initializer": {
               "config": {},
               "class_name": "Zeros"
            },
            "kernel_initializer": {
               "config": {
                  "distribution": "uniform",
                  "mode": "fan_avg",
                  "scale": 1.0,
                  "seed": null
               },
               "class_name": "VarianceScaling"
            },
            "name": "conv2d_25",
            "filters": 288,
            "data_format": "channels_first"
         },
         "class_name": "Conv2D"
      },
      {
         "config": {
            "name": "dropout_24",
            "trainable": true,
            "rate": 0.2
         },
         "class_name": "Dropout"
      },
      {
         "config": {
            "trainable": true,
            "momentum": 0.99,
            "gamma_constraint": null,
            "axis": -1,
            "beta_initializer": {
               "config": {},
               "class_name": "Zeros"
            },
            "gamma_initializer": {
               "config": {},
               "class_name": "Ones"
            },
            "epsilon": 0.001,
            "moving_variance_initializer": {
               "config": {},
               "class_name": "Ones"
            },
            "center": true,
            "gamma_regularizer": null,
            "beta_constraint": null,
            "scale": true,
            "name": "batch_normalization_25",
            "moving_mean_initializer": {
               "config": {},
               "class_name": "Zeros"
            },
            "beta_regularizer": null
         },
         "class_name": "BatchNormalization"
      },
      {
         "config": {
            "name": "activation_25",
            "trainable": true,
            "activation": "relu"
         },
         "class_name": "Activation"
      },
      {
         "config": {
            "trainable": true,
            "dilation_rate": [
               1,
               1
            ],
            "kernel_regularizer": null,
            "activation": "linear",
            "activity_regularizer": null,
            "strides": [
               1,
               1
            ],
            "padding": "same",
            "bias_constraint": null,
            "use_bias": true,
            "kernel_size": [
               1,
               1
            ],
            "bias_regularizer": null,
            "kernel_constraint": null,
            "bias_initializer": {
               "config": {},
               "class_name": "Zeros"
            },
            "kernel_initializer": {
               "config": {
                  "distribution": "uniform",
                  "mode": "fan_avg",
                  "scale": 1.0,
                  "seed": null
               },
               "class_name": "VarianceScaling"
            },
            "name": "conv2d_26",
            "filters": 288,
            "data_format": "channels_first"
         },
         "class_name": "Conv2D"
      },
      {
         "config": {
            "name": "dropout_25",
            "trainable": true,
            "rate": 0.2
         },
         "class_name": "Dropout"
      },
      {
         "config": {
            "trainable": true,
            "pool_size": [
               2,
               2
            ],
            "strides": [
               2,
               2
            ],
            "padding": "valid",
            "name": "max_pooling2d_5",
            "data_format": "channels_first"
         },
         "class_name": "MaxPooling2D"
      },
      {
         "config": {
            "trainable": true,
            "momentum": 0.99,
            "gamma_constraint": null,
            "axis": -1,
            "beta_initializer": {
               "config": {},
               "class_name": "Zeros"
            },
            "gamma_initializer": {
               "config": {},
               "class_name": "Ones"
            },
            "epsilon": 0.001,
            "moving_variance_initializer": {
               "config": {},
               "class_name": "Ones"
            },
            "center": true,
            "gamma_regularizer": null,
            "beta_constraint": null,
            "scale": true,
            "name": "batch_normalization_26",
            "moving_mean_initializer": {
               "config": {},
               "class_name": "Zeros"
            },
            "beta_regularizer": null
         },
         "class_name": "BatchNormalization"
      },
      {
         "config": {
            "name": "activation_26",
            "trainable": true,
            "activation": "relu"
         },
         "class_name": "Activation"
      },
      {
         "config": {
            "trainable": true,
            "dilation_rate": [
               1,
               1
            ],
            "kernel_regularizer": null,
            "activation": "linear",
            "activity_regularizer": null,
            "strides": [
               1,
               1
            ],
            "padding": "same",
            "bias_constraint": null,
            "use_bias": true,
            "kernel_size": [
               3,
               3
            ],
            "bias_regularizer": null,
            "kernel_constraint": null,
            "bias_initializer": {
               "config": {},
               "class_name": "Zeros"
            },
            "kernel_initializer": {
               "config": {
                  "distribution": "uniform",
                  "mode": "fan_avg",
                  "scale": 1.0,
                  "seed": null
               },
               "class_name": "VarianceScaling"
            },
            "name": "conv2d_27",
            "filters": 336,
            "data_format": "channels_first"
         },
         "class_name": "Conv2D"
      },
      {
         "config": {
            "name": "dropout_26",
            "trainable": true,
            "rate": 0.2
         },
         "class_name": "Dropout"
      },
      {
         "config": {
            "trainable": true,
            "momentum": 0.99,
            "gamma_constraint": null,
            "axis": -1,
            "beta_initializer": {
               "config": {},
               "class_name": "Zeros"
            },
            "gamma_initializer": {
               "config": {},
               "class_name": "Ones"
            },
            "epsilon": 0.001,
            "moving_variance_initializer": {
               "config": {},
               "class_name": "Ones"
            },
            "center": true,
            "gamma_regularizer": null,
            "beta_constraint": null,
            "scale": true,
            "name": "batch_normalization_27",
            "moving_mean_initializer": {
               "config": {},
               "class_name": "Zeros"
            },
            "beta_regularizer": null
         },
         "class_name": "BatchNormalization"
      },
      {
         "config": {
            "name": "activation_27",
            "trainable": true,
            "activation": "relu"
         },
         "class_name": "Activation"
      },
      {
         "config": {
            "trainable": true,
            "dilation_rate": [
               1,
               1
            ],
            "kernel_regularizer": null,
            "activation": "linear",
            "activity_regularizer": null,
            "strides": [
               1,
               1
            ],
            "padding": "same",
            "bias_constraint": null,
            "use_bias": true,
            "kernel_size": [
               3,
               3
            ],
            "bias_regularizer": null,
            "kernel_constraint": null,
            "bias_initializer": {
               "config": {},
               "class_name": "Zeros"
            },
            "kernel_initializer": {
               "config": {
                  "distribution": "uniform",
                  "mode": "fan_avg",
                  "scale": 1.0,
                  "seed": null
               },
               "class_name": "VarianceScaling"
            },
            "name": "conv2d_28",
            "filters": 336,
            "data_format": "channels_first"
         },
         "class_name": "Conv2D"
      },
      {
         "config": {
            "name": "dropout_27",
            "trainable": true,
            "rate": 0.2
         },
         "class_name": "Dropout"
      },
      {
         "config": {
            "trainable": true,
            "momentum": 0.99,
            "gamma_constraint": null,
            "axis": -1,
            "beta_initializer": {
               "config": {},
               "class_name": "Zeros"
            },
            "gamma_initializer": {
               "config": {},
               "class_name": "Ones"
            },
            "epsilon": 0.001,
            "moving_variance_initializer": {
               "config": {},
               "class_name": "Ones"
            },
            "center": true,
            "gamma_regularizer": null,
            "beta_constraint": null,
            "scale": true,
            "name": "batch_normalization_28",
            "moving_mean_initializer": {
               "config": {},
               "class_name": "Zeros"
            },
            "beta_regularizer": null
         },
         "class_name": "BatchNormalization"
      },
      {
         "config": {
            "name": "activation_28",
            "trainable": true,
            "activation": "relu"
         },
         "class_name": "Activation"
      },
      {
         "config": {
            "trainable": true,
            "dilation_rate": [
               1,
               1
            ],
            "kernel_regularizer": null,
            "activation": "linear",
            "activity_regularizer": null,
            "strides": [
               1,
               1
            ],
            "padding": "same",
            "bias_constraint": null,
            "use_bias": true,
            "kernel_size": [
               3,
               3
            ],
            "bias_regularizer": null,
            "kernel_constraint": null,
            "bias_initializer": {
               "config": {},
               "class_name": "Zeros"
            },
            "kernel_initializer": {
               "config": {
                  "distribution": "uniform",
                  "mode": "fan_avg",
                  "scale": 1.0,
                  "seed": null
               },
               "class_name": "VarianceScaling"
            },
            "name": "conv2d_29",
            "filters": 336,
            "data_format": "channels_first"
         },
         "class_name": "Conv2D"
      },
      {
         "config": {
            "name": "dropout_28",
            "trainable": true,
            "rate": 0.2
         },
         "class_name": "Dropout"
      },
      {
         "config": {
            "trainable": true,
            "momentum": 0.99,
            "gamma_constraint": null,
            "axis": -1,
            "beta_initializer": {
               "config": {},
               "class_name": "Zeros"
            },
            "gamma_initializer": {
               "config": {},
               "class_name": "Ones"
            },
            "epsilon": 0.001,
            "moving_variance_initializer": {
               "config": {},
               "class_name": "Ones"
            },
            "center": true,
            "gamma_regularizer": null,
            "beta_constraint": null,
            "scale": true,
            "name": "batch_normalization_29",
            "moving_mean_initializer": {
               "config": {},
               "class_name": "Zeros"
            },
            "beta_regularizer": null
         },
         "class_name": "BatchNormalization"
      },
      {
         "config": {
            "name": "activation_29",
            "trainable": true,
            "activation": "relu"
         },
         "class_name": "Activation"
      },
      {
         "config": {
            "trainable": true,
            "dilation_rate": [
               1,
               1
            ],
            "kernel_regularizer": null,
            "activation": "linear",
            "activity_regularizer": null,
            "strides": [
               1,
               1
            ],
            "padding": "same",
            "bias_constraint": null,
            "use_bias": true,
            "kernel_size": [
               3,
               3
            ],
            "bias_regularizer": null,
            "kernel_constraint": null,
            "bias_initializer": {
               "config": {},
               "class_name": "Zeros"
            },
            "kernel_initializer": {
               "config": {
                  "distribution": "uniform",
                  "mode": "fan_avg",
                  "scale": 1.0,
                  "seed": null
               },
               "class_name": "VarianceScaling"
            },
            "name": "conv2d_30",
            "filters": 336,
            "data_format": "channels_first"
         },
         "class_name": "Conv2D"
      },
      {
         "config": {
            "name": "dropout_29",
            "trainable": true,
            "rate": 0.2
         },
         "class_name": "Dropout"
      },
      {
         "config": {
            "trainable": true,
            "momentum": 0.99,
            "gamma_constraint": null,
            "axis": -1,
            "beta_initializer": {
               "config": {},
               "class_name": "Zeros"
            },
            "gamma_initializer": {
               "config": {},
               "class_name": "Ones"
            },
            "epsilon": 0.001,
            "moving_variance_initializer": {
               "config": {},
               "class_name": "Ones"
            },
            "center": true,
            "gamma_regularizer": null,
            "beta_constraint": null,
            "scale": true,
            "name": "batch_normalization_30",
            "moving_mean_initializer": {
               "config": {},
               "class_name": "Zeros"
            },
            "beta_regularizer": null
         },
         "class_name": "BatchNormalization"
      },
      {
         "config": {
            "name": "activation_30",
            "trainable": true,
            "activation": "relu"
         },
         "class_name": "Activation"
      },
      {
         "config": {
            "trainable": true,
            "dilation_rate": [
               1,
               1
            ],
            "kernel_regularizer": null,
            "activation": "linear",
            "activity_regularizer": null,
            "strides": [
               1,
               1
            ],
            "padding": "same",
            "bias_constraint": null,
            "use_bias": true,
            "kernel_size": [
               3,
               3
            ],
            "bias_regularizer": null,
            "kernel_constraint": null,
            "bias_initializer": {
               "config": {},
               "class_name": "Zeros"
            },
            "kernel_initializer": {
               "config": {
                  "distribution": "uniform",
                  "mode": "fan_avg",
                  "scale": 1.0,
                  "seed": null
               },
               "class_name": "VarianceScaling"
            },
            "name": "conv2d_31",
            "filters": 336,
            "data_format": "channels_first"
         },
         "class_name": "Conv2D"
      },
      {
         "config": {
            "name": "dropout_30",
            "trainable": true,
            "rate": 0.2
         },
         "class_name": "Dropout"
      },
      {
         "config": {
            "trainable": true,
            "momentum": 0.99,
            "gamma_constraint": null,
            "axis": -1,
            "beta_initializer": {
               "config": {},
               "class_name": "Zeros"
            },
            "gamma_initializer": {
               "config": {},
               "class_name": "Ones"
            },
            "epsilon": 0.001,
            "moving_variance_initializer": {
               "config": {},
               "class_name": "Ones"
            },
            "center": true,
            "gamma_regularizer": null,
            "beta_constraint": null,
            "scale": true,
            "name": "batch_normalization_31",
            "moving_mean_initializer": {
               "config": {},
               "class_name": "Zeros"
            },
            "beta_regularizer": null
         },
         "class_name": "BatchNormalization"
      },
      {
         "config": {
            "name": "activation_31",
            "trainable": true,
            "activation": "relu"
         },
         "class_name": "Activation"
      },
      {
         "config": {
            "trainable": true,
            "dilation_rate": [
               1,
               1
            ],
            "kernel_regularizer": null,
            "activation": "linear",
            "activity_regularizer": null,
            "strides": [
               1,
               1
            ],
            "padding": "same",
            "bias_constraint": null,
            "use_bias": true,
            "kernel_size": [
               3,
               3
            ],
            "bias_regularizer": null,
            "kernel_constraint": null,
            "bias_initializer": {
               "config": {},
               "class_name": "Zeros"
            },
            "kernel_initializer": {
               "config": {
                  "distribution": "uniform",
                  "mode": "fan_avg",
                  "scale": 1.0,
                  "seed": null
               },
               "class_name": "VarianceScaling"
            },
            "name": "conv2d_32",
            "filters": 336,
            "data_format": "channels_first"
         },
         "class_name": "Conv2D"
      },
      {
         "config": {
            "name": "dropout_31",
            "trainable": true,
            "rate": 0.2
         },
         "class_name": "Dropout"
      },
      {
         "config": {
            "trainable": true,
            "momentum": 0.99,
            "gamma_constraint": null,
            "axis": -1,
            "beta_initializer": {
               "config": {},
               "class_name": "Zeros"
            },
            "gamma_initializer": {
               "config": {},
               "class_name": "Ones"
            },
            "epsilon": 0.001,
            "moving_variance_initializer": {
               "config": {},
               "class_name": "Ones"
            },
            "center": true,
            "gamma_regularizer": null,
            "beta_constraint": null,
            "scale": true,
            "name": "batch_normalization_32",
            "moving_mean_initializer": {
               "config": {},
               "class_name": "Zeros"
            },
            "beta_regularizer": null
         },
         "class_name": "BatchNormalization"
      },
      {
         "config": {
            "name": "activation_32",
            "trainable": true,
            "activation": "relu"
         },
         "class_name": "Activation"
      },
      {
         "config": {
            "trainable": true,
            "dilation_rate": [
               1,
               1
            ],
            "kernel_regularizer": null,
            "activation": "linear",
            "activity_regularizer": null,
            "strides": [
               1,
               1
            ],
            "padding": "same",
            "bias_constraint": null,
            "use_bias": true,
            "kernel_size": [
               3,
               3
            ],
            "bias_regularizer": null,
            "kernel_constraint": null,
            "bias_initializer": {
               "config": {},
               "class_name": "Zeros"
            },
            "kernel_initializer": {
               "config": {
                  "distribution": "uniform",
                  "mode": "fan_avg",
                  "scale": 1.0,
                  "seed": null
               },
               "class_name": "VarianceScaling"
            },
            "name": "conv2d_33",
            "filters": 336,
            "data_format": "channels_first"
         },
         "class_name": "Conv2D"
      },
      {
         "config": {
            "name": "dropout_32",
            "trainable": true,
            "rate": 0.2
         },
         "class_name": "Dropout"
      },
      {
         "config": {
            "trainable": true,
            "momentum": 0.99,
            "gamma_constraint": null,
            "axis": -1,
            "beta_initializer": {
               "config": {},
               "class_name": "Zeros"
            },
            "gamma_initializer": {
               "config": {},
               "class_name": "Ones"
            },
            "epsilon": 0.001,
            "moving_variance_initializer": {
               "config": {},
               "class_name": "Ones"
            },
            "center": true,
            "gamma_regularizer": null,
            "beta_constraint": null,
            "scale": true,
            "name": "batch_normalization_33",
            "moving_mean_initializer": {
               "config": {},
               "class_name": "Zeros"
            },
            "beta_regularizer": null
         },
         "class_name": "BatchNormalization"
      },
      {
         "config": {
            "name": "activation_33",
            "trainable": true,
            "activation": "relu"
         },
         "class_name": "Activation"
      },
      {
         "config": {
            "trainable": true,
            "dilation_rate": [
               1,
               1
            ],
            "kernel_regularizer": null,
            "activation": "linear",
            "activity_regularizer": null,
            "strides": [
               1,
               1
            ],
            "padding": "same",
            "bias_constraint": null,
            "use_bias": true,
            "kernel_size": [
               3,
               3
            ],
            "bias_regularizer": null,
            "kernel_constraint": null,
            "bias_initializer": {
               "config": {},
               "class_name": "Zeros"
            },
            "kernel_initializer": {
               "config": {
                  "distribution": "uniform",
                  "mode": "fan_avg",
                  "scale": 1.0,
                  "seed": null
               },
               "class_name": "VarianceScaling"
            },
            "name": "conv2d_34",
            "filters": 336,
            "data_format": "channels_first"
         },
         "class_name": "Conv2D"
      },
      {
         "config": {
            "name": "dropout_33",
            "trainable": true,
            "rate": 0.2
         },
         "class_name": "Dropout"
      },
      {
         "config": {
            "trainable": true,
            "momentum": 0.99,
            "gamma_constraint": null,
            "axis": -1,
            "beta_initializer": {
               "config": {},
               "class_name": "Zeros"
            },
            "gamma_initializer": {
               "config": {},
               "class_name": "Ones"
            },
            "epsilon": 0.001,
            "moving_variance_initializer": {
               "config": {},
               "class_name": "Ones"
            },
            "center": true,
            "gamma_regularizer": null,
            "beta_constraint": null,
            "scale": true,
            "name": "batch_normalization_34",
            "moving_mean_initializer": {
               "config": {},
               "class_name": "Zeros"
            },
            "beta_regularizer": null
         },
         "class_name": "BatchNormalization"
      },
      {
         "config": {
            "name": "activation_34",
            "trainable": true,
            "activation": "relu"
         },
         "class_name": "Activation"
      },
      {
         "config": {
            "trainable": true,
            "dilation_rate": [
               1,
               1
            ],
            "kernel_regularizer": null,
            "activation": "linear",
            "activity_regularizer": null,
            "strides": [
               1,
               1
            ],
            "padding": "same",
            "bias_constraint": null,
            "use_bias": true,
            "kernel_size": [
               3,
               3
            ],
            "bias_regularizer": null,
            "kernel_constraint": null,
            "bias_initializer": {
               "config": {},
               "class_name": "Zeros"
            },
            "kernel_initializer": {
               "config": {
                  "distribution": "uniform",
                  "mode": "fan_avg",
                  "scale": 1.0,
                  "seed": null
               },
               "class_name": "VarianceScaling"
            },
            "name": "conv2d_35",
            "filters": 336,
            "data_format": "channels_first"
         },
         "class_name": "Conv2D"
      },
      {
         "config": {
            "name": "dropout_34",
            "trainable": true,
            "rate": 0.2
         },
         "class_name": "Dropout"
      },
      {
         "config": {
            "trainable": true,
            "momentum": 0.99,
            "gamma_constraint": null,
            "axis": -1,
            "beta_initializer": {
               "config": {},
               "class_name": "Zeros"
            },
            "gamma_initializer": {
               "config": {},
               "class_name": "Ones"
            },
            "epsilon": 0.001,
            "moving_variance_initializer": {
               "config": {},
               "class_name": "Ones"
            },
            "center": true,
            "gamma_regularizer": null,
            "beta_constraint": null,
            "scale": true,
            "name": "batch_normalization_35",
            "moving_mean_initializer": {
               "config": {},
               "class_name": "Zeros"
            },
            "beta_regularizer": null
         },
         "class_name": "BatchNormalization"
      },
      {
         "config": {
            "name": "activation_35",
            "trainable": true,
            "activation": "relu"
         },
         "class_name": "Activation"
      },
      {
         "config": {
            "trainable": true,
            "dilation_rate": [
               1,
               1
            ],
            "kernel_regularizer": null,
            "activation": "linear",
            "activity_regularizer": null,
            "strides": [
               1,
               1
            ],
            "padding": "same",
            "bias_constraint": null,
            "use_bias": true,
            "kernel_size": [
               3,
               3
            ],
            "bias_regularizer": null,
            "kernel_constraint": null,
            "bias_initializer": {
               "config": {},
               "class_name": "Zeros"
            },
            "kernel_initializer": {
               "config": {
                  "distribution": "uniform",
                  "mode": "fan_avg",
                  "scale": 1.0,
                  "seed": null
               },
               "class_name": "VarianceScaling"
            },
            "name": "conv2d_36",
            "filters": 336,
            "data_format": "channels_first"
         },
         "class_name": "Conv2D"
      },
      {
         "config": {
            "name": "dropout_35",
            "trainable": true,
            "rate": 0.2
         },
         "class_name": "Dropout"
      },
      {
         "config": {
            "trainable": true,
            "momentum": 0.99,
            "gamma_constraint": null,
            "axis": -1,
            "beta_initializer": {
               "config": {},
               "class_name": "Zeros"
            },
            "gamma_initializer": {
               "config": {},
               "class_name": "Ones"
            },
            "epsilon": 0.001,
            "moving_variance_initializer": {
               "config": {},
               "class_name": "Ones"
            },
            "center": true,
            "gamma_regularizer": null,
            "beta_constraint": null,
            "scale": true,
            "name": "batch_normalization_36",
            "moving_mean_initializer": {
               "config": {},
               "class_name": "Zeros"
            },
            "beta_regularizer": null
         },
         "class_name": "BatchNormalization"
      },
      {
         "config": {
            "name": "activation_36",
            "trainable": true,
            "activation": "relu"
         },
         "class_name": "Activation"
      },
      {
         "config": {
            "trainable": true,
            "dilation_rate": [
               1,
               1
            ],
            "kernel_regularizer": null,
            "activation": "linear",
            "activity_regularizer": null,
            "strides": [
               1,
               1
            ],
            "padding": "same",
            "bias_constraint": null,
            "use_bias": true,
            "kernel_size": [
               3,
               3
            ],
            "bias_regularizer": null,
            "kernel_constraint": null,
            "bias_initializer": {
               "config": {},
               "class_name": "Zeros"
            },
            "kernel_initializer": {
               "config": {
                  "distribution": "uniform",
                  "mode": "fan_avg",
                  "scale": 1.0,
                  "seed": null
               },
               "class_name": "VarianceScaling"
            },
            "name": "conv2d_37",
            "filters": 336,
            "data_format": "channels_first"
         },
         "class_name": "Conv2D"
      },
      {
         "config": {
            "name": "dropout_36",
            "trainable": true,
            "rate": 0.2
         },
         "class_name": "Dropout"
      },
      {
         "config": {
            "trainable": true,
            "momentum": 0.99,
            "gamma_constraint": null,
            "axis": -1,
            "beta_initializer": {
               "config": {},
               "class_name": "Zeros"
            },
            "gamma_initializer": {
               "config": {},
               "class_name": "Ones"
            },
            "epsilon": 0.001,
            "moving_variance_initializer": {
               "config": {},
               "class_name": "Ones"
            },
            "center": true,
            "gamma_regularizer": null,
            "beta_constraint": null,
            "scale": true,
            "name": "batch_normalization_37",
            "moving_mean_initializer": {
               "config": {},
               "class_name": "Zeros"
            },
            "beta_regularizer": null
         },
         "class_name": "BatchNormalization"
      },
      {
         "config": {
            "name": "activation_37",
            "trainable": true,
            "activation": "relu"
         },
         "class_name": "Activation"
      },
      {
         "config": {
            "trainable": true,
            "dilation_rate": [
               1,
               1
            ],
            "kernel_regularizer": null,
            "activation": "linear",
            "activity_regularizer": null,
            "strides": [
               1,
               1
            ],
            "padding": "same",
            "bias_constraint": null,
            "use_bias": true,
            "kernel_size": [
               3,
               3
            ],
            "bias_regularizer": null,
            "kernel_constraint": null,
            "bias_initializer": {
               "config": {},
               "class_name": "Zeros"
            },
            "kernel_initializer": {
               "config": {
                  "distribution": "uniform",
                  "mode": "fan_avg",
                  "scale": 1.0,
                  "seed": null
               },
               "class_name": "VarianceScaling"
            },
            "name": "conv2d_38",
            "filters": 336,
            "data_format": "channels_first"
         },
         "class_name": "Conv2D"
      },
      {
         "config": {
            "name": "dropout_37",
            "trainable": true,
            "rate": 0.2
         },
         "class_name": "Dropout"
      },
      {
         "config": {
            "trainable": true,
            "momentum": 0.99,
            "gamma_constraint": null,
            "axis": -1,
            "beta_initializer": {
               "config": {},
               "class_name": "Zeros"
            },
            "gamma_initializer": {
               "config": {},
               "class_name": "Ones"
            },
            "epsilon": 0.001,
            "moving_variance_initializer": {
               "config": {},
               "class_name": "Ones"
            },
            "center": true,
            "gamma_regularizer": null,
            "beta_constraint": null,
            "scale": true,
            "name": "batch_normalization_38",
            "moving_mean_initializer": {
               "config": {},
               "class_name": "Zeros"
            },
            "beta_regularizer": null
         },
         "class_name": "BatchNormalization"
      },
      {
         "config": {
            "name": "activation_38",
            "trainable": true,
            "activation": "relu"
         },
         "class_name": "Activation"
      },
      {
         "config": {
            "trainable": true,
            "dilation_rate": [
               1,
               1
            ],
            "kernel_regularizer": null,
            "activation": "linear",
            "activity_regularizer": null,
            "strides": [
               1,
               1
            ],
            "padding": "same",
            "bias_constraint": null,
            "use_bias": true,
            "kernel_size": [
               3,
               3
            ],
            "bias_regularizer": null,
            "kernel_constraint": null,
            "bias_initializer": {
               "config": {},
               "class_name": "Zeros"
            },
            "kernel_initializer": {
               "config": {
                  "distribution": "uniform",
                  "mode": "fan_avg",
                  "scale": 1.0,
                  "seed": null
               },
               "class_name": "VarianceScaling"
            },
            "name": "conv2d_39",
            "filters": 336,
            "data_format": "channels_first"
         },
         "class_name": "Conv2D"
      },
      {
         "config": {
            "name": "dropout_38",
            "trainable": true,
            "rate": 0.2
         },
         "class_name": "Dropout"
      },
      {
         "config": {
            "trainable": true,
            "momentum": 0.99,
            "gamma_constraint": null,
            "axis": -1,
            "beta_initializer": {
               "config": {},
               "class_name": "Zeros"
            },
            "gamma_initializer": {
               "config": {},
               "class_name": "Ones"
            },
            "epsilon": 0.001,
            "moving_variance_initializer": {
               "config": {},
               "class_name": "Ones"
            },
            "center": true,
            "gamma_regularizer": null,
            "beta_constraint": null,
            "scale": true,
            "name": "batch_normalization_39",
            "moving_mean_initializer": {
               "config": {},
               "class_name": "Zeros"
            },
            "beta_regularizer": null
         },
         "class_name": "BatchNormalization"
      },
      {
         "config": {
            "name": "activation_39",
            "trainable": true,
            "activation": "relu"
         },
         "class_name": "Activation"
      },
      {
         "config": {
            "trainable": true,
            "dilation_rate": [
               1,
               1
            ],
            "kernel_regularizer": null,
            "activation": "linear",
            "activity_regularizer": null,
            "strides": [
               1,
               1
            ],
            "padding": "same",
            "bias_constraint": null,
            "use_bias": true,
            "kernel_size": [
               3,
               3
            ],
            "bias_regularizer": null,
            "kernel_constraint": null,
            "bias_initializer": {
               "config": {},
               "class_name": "Zeros"
            },
            "kernel_initializer": {
               "config": {
                  "distribution": "uniform",
                  "mode": "fan_avg",
                  "scale": 1.0,
                  "seed": null
               },
               "class_name": "VarianceScaling"
            },
            "name": "conv2d_40",
            "filters": 336,
            "data_format": "channels_first"
         },
         "class_name": "Conv2D"
      },
      {
         "config": {
            "name": "dropout_39",
            "trainable": true,
            "rate": 0.2
         },
         "class_name": "Dropout"
      },
      {
         "config": {
            "trainable": true,
            "momentum": 0.99,
            "gamma_constraint": null,
            "axis": -1,
            "beta_initializer": {
               "config": {},
               "class_name": "Zeros"
            },
            "gamma_initializer": {
               "config": {},
               "class_name": "Ones"
            },
            "epsilon": 0.001,
            "moving_variance_initializer": {
               "config": {},
               "class_name": "Ones"
            },
            "center": true,
            "gamma_regularizer": null,
            "beta_constraint": null,
            "scale": true,
            "name": "batch_normalization_40",
            "moving_mean_initializer": {
               "config": {},
               "class_name": "Zeros"
            },
            "beta_regularizer": null
         },
         "class_name": "BatchNormalization"
      },
      {
         "config": {
            "name": "activation_40",
            "trainable": true,
            "activation": "relu"
         },
         "class_name": "Activation"
      },
      {
         "config": {
            "trainable": true,
            "dilation_rate": [
               1,
               1
            ],
            "kernel_regularizer": null,
            "activation": "linear",
            "activity_regularizer": null,
            "strides": [
               1,
               1
            ],
            "padding": "same",
            "bias_constraint": null,
            "use_bias": true,
            "kernel_size": [
               3,
               3
            ],
            "bias_regularizer": null,
            "kernel_constraint": null,
            "bias_initializer": {
               "config": {},
               "class_name": "Zeros"
            },
            "kernel_initializer": {
               "config": {
                  "distribution": "uniform",
                  "mode": "fan_avg",
                  "scale": 1.0,
                  "seed": null
               },
               "class_name": "VarianceScaling"
            },
            "name": "conv2d_41",
            "filters": 336,
            "data_format": "channels_first"
         },
         "class_name": "Conv2D"
      },
      {
         "config": {
            "name": "dropout_40",
            "trainable": true,
            "rate": 0.2
         },
         "class_name": "Dropout"
      },
      {
         "config": {
            "trainable": true,
            "kernel_regularizer": null,
            "activation": "linear",
            "activity_regularizer": null,
            "strides": [
               2,
               2
            ],
            "padding": "same",
            "bias_constraint": null,
            "use_bias": true,
            "kernel_size": [
               3,
               3
            ],
            "bias_regularizer": null,
            "kernel_constraint": null,
            "dtype": "float32",
            "kernel_initializer": {
               "config": {
                  "distribution": "uniform",
                  "mode": "fan_avg",
                  "scale": 1.0,
                  "seed": null
               },
               "class_name": "VarianceScaling"
            },
            "name": "conv2d_transpose_1",
            "bias_initializer": {
               "config": {},
               "class_name": "Zeros"
            },
            "filters": 384,
            "batch_input_shape": [
               null,
               384,
               7,
               7
            ],
            "data_format": "channels_first"
         },
         "class_name": "Conv2DTranspose"
      },
      {
         "config": {
            "trainable": true,
            "momentum": 0.99,
            "gamma_constraint": null,
            "axis": -1,
            "beta_initializer": {
               "config": {},
               "class_name": "Zeros"
            },
            "gamma_initializer": {
               "config": {},
               "class_name": "Ones"
            },
            "epsilon": 0.001,
            "moving_variance_initializer": {
               "config": {},
               "class_name": "Ones"
            },
            "center": true,
            "gamma_regularizer": null,
            "beta_constraint": null,
            "scale": true,
            "name": "batch_normalization_41",
            "moving_mean_initializer": {
               "config": {},
               "class_name": "Zeros"
            },
            "beta_regularizer": null
         },
         "class_name": "BatchNormalization"
      },
      {
         "config": {
            "name": "activation_41",
            "trainable": true,
            "activation": "relu"
         },
         "class_name": "Activation"
      },
      {
         "config": {
            "trainable": true,
            "dilation_rate": [
               1,
               1
            ],
            "kernel_regularizer": null,
            "activation": "linear",
            "activity_regularizer": null,
            "strides": [
               1,
               1
            ],
            "padding": "same",
            "bias_constraint": null,
            "use_bias": true,
            "kernel_size": [
               3,
               3
            ],
            "bias_regularizer": null,
            "kernel_constraint": null,
            "bias_initializer": {
               "config": {},
               "class_name": "Zeros"
            },
            "kernel_initializer": {
               "config": {
                  "distribution": "uniform",
                  "mode": "fan_avg",
                  "scale": 1.0,
                  "seed": null
               },
               "class_name": "VarianceScaling"
            },
            "name": "conv2d_42",
            "filters": 384,
            "data_format": "channels_first"
         },
         "class_name": "Conv2D"
      },
      {
         "config": {
            "name": "dropout_41",
            "trainable": true,
            "rate": 0.2
         },
         "class_name": "Dropout"
      },
      {
         "config": {
            "trainable": true,
            "momentum": 0.99,
            "gamma_constraint": null,
            "axis": -1,
            "beta_initializer": {
               "config": {},
               "class_name": "Zeros"
            },
            "gamma_initializer": {
               "config": {},
               "class_name": "Ones"
            },
            "epsilon": 0.001,
            "moving_variance_initializer": {
               "config": {},
               "class_name": "Ones"
            },
            "center": true,
            "gamma_regularizer": null,
            "beta_constraint": null,
            "scale": true,
            "name": "batch_normalization_42",
            "moving_mean_initializer": {
               "config": {},
               "class_name": "Zeros"
            },
            "beta_regularizer": null
         },
         "class_name": "BatchNormalization"
      },
      {
         "config": {
            "name": "activation_42",
            "trainable": true,
            "activation": "relu"
         },
         "class_name": "Activation"
      },
      {
         "config": {
            "trainable": true,
            "dilation_rate": [
               1,
               1
            ],
            "kernel_regularizer": null,
            "activation": "linear",
            "activity_regularizer": null,
            "strides": [
               1,
               1
            ],
            "padding": "same",
            "bias_constraint": null,
            "use_bias": true,
            "kernel_size": [
               3,
               3
            ],
            "bias_regularizer": null,
            "kernel_constraint": null,
            "bias_initializer": {
               "config": {},
               "class_name": "Zeros"
            },
            "kernel_initializer": {
               "config": {
                  "distribution": "uniform",
                  "mode": "fan_avg",
                  "scale": 1.0,
                  "seed": null
               },
               "class_name": "VarianceScaling"
            },
            "name": "conv2d_43",
            "filters": 384,
            "data_format": "channels_first"
         },
         "class_name": "Conv2D"
      },
      {
         "config": {
            "name": "dropout_42",
            "trainable": true,
            "rate": 0.2
         },
         "class_name": "Dropout"
      },
      {
         "config": {
            "trainable": true,
            "momentum": 0.99,
            "gamma_constraint": null,
            "axis": -1,
            "beta_initializer": {
               "config": {},
               "class_name": "Zeros"
            },
            "gamma_initializer": {
               "config": {},
               "class_name": "Ones"
            },
            "epsilon": 0.001,
            "moving_variance_initializer": {
               "config": {},
               "class_name": "Ones"
            },
            "center": true,
            "gamma_regularizer": null,
            "beta_constraint": null,
            "scale": true,
            "name": "batch_normalization_43",
            "moving_mean_initializer": {
               "config": {},
               "class_name": "Zeros"
            },
            "beta_regularizer": null
         },
         "class_name": "BatchNormalization"
      },
      {
         "config": {
            "name": "activation_43",
            "trainable": true,
            "activation": "relu"
         },
         "class_name": "Activation"
      },
      {
         "config": {
            "trainable": true,
            "dilation_rate": [
               1,
               1
            ],
            "kernel_regularizer": null,
            "activation": "linear",
            "activity_regularizer": null,
            "strides": [
               1,
               1
            ],
            "padding": "same",
            "bias_constraint": null,
            "use_bias": true,
            "kernel_size": [
               3,
               3
            ],
            "bias_regularizer": null,
            "kernel_constraint": null,
            "bias_initializer": {
               "config": {},
               "class_name": "Zeros"
            },
            "kernel_initializer": {
               "config": {
                  "distribution": "uniform",
                  "mode": "fan_avg",
                  "scale": 1.0,
                  "seed": null
               },
               "class_name": "VarianceScaling"
            },
            "name": "conv2d_44",
            "filters": 384,
            "data_format": "channels_first"
         },
         "class_name": "Conv2D"
      },
      {
         "config": {
            "name": "dropout_43",
            "trainable": true,
            "rate": 0.2
         },
         "class_name": "Dropout"
      },
      {
         "config": {
            "trainable": true,
            "momentum": 0.99,
            "gamma_constraint": null,
            "axis": -1,
            "beta_initializer": {
               "config": {},
               "class_name": "Zeros"
            },
            "gamma_initializer": {
               "config": {},
               "class_name": "Ones"
            },
            "epsilon": 0.001,
            "moving_variance_initializer": {
               "config": {},
               "class_name": "Ones"
            },
            "center": true,
            "gamma_regularizer": null,
            "beta_constraint": null,
            "scale": true,
            "name": "batch_normalization_44",
            "moving_mean_initializer": {
               "config": {},
               "class_name": "Zeros"
            },
            "beta_regularizer": null
         },
         "class_name": "BatchNormalization"
      },
      {
         "config": {
            "name": "activation_44",
            "trainable": true,
            "activation": "relu"
         },
         "class_name": "Activation"
      },
      {
         "config": {
            "trainable": true,
            "dilation_rate": [
               1,
               1
            ],
            "kernel_regularizer": null,
            "activation": "linear",
            "activity_regularizer": null,
            "strides": [
               1,
               1
            ],
            "padding": "same",
            "bias_constraint": null,
            "use_bias": true,
            "kernel_size": [
               3,
               3
            ],
            "bias_regularizer": null,
            "kernel_constraint": null,
            "bias_initializer": {
               "config": {},
               "class_name": "Zeros"
            },
            "kernel_initializer": {
               "config": {
                  "distribution": "uniform",
                  "mode": "fan_avg",
                  "scale": 1.0,
                  "seed": null
               },
               "class_name": "VarianceScaling"
            },
            "name": "conv2d_45",
            "filters": 384,
            "data_format": "channels_first"
         },
         "class_name": "Conv2D"
      },
      {
         "config": {
            "name": "dropout_44",
            "trainable": true,
            "rate": 0.2
         },
         "class_name": "Dropout"
      },
      {
         "config": {
            "trainable": true,
            "momentum": 0.99,
            "gamma_constraint": null,
            "axis": -1,
            "beta_initializer": {
               "config": {},
               "class_name": "Zeros"
            },
            "gamma_initializer": {
               "config": {},
               "class_name": "Ones"
            },
            "epsilon": 0.001,
            "moving_variance_initializer": {
               "config": {},
               "class_name": "Ones"
            },
            "center": true,
            "gamma_regularizer": null,
            "beta_constraint": null,
            "scale": true,
            "name": "batch_normalization_45",
            "moving_mean_initializer": {
               "config": {},
               "class_name": "Zeros"
            },
            "beta_regularizer": null
         },
         "class_name": "BatchNormalization"
      },
      {
         "config": {
            "name": "activation_45",
            "trainable": true,
            "activation": "relu"
         },
         "class_name": "Activation"
      },
      {
         "config": {
            "trainable": true,
            "dilation_rate": [
               1,
               1
            ],
            "kernel_regularizer": null,
            "activation": "linear",
            "activity_regularizer": null,
            "strides": [
               1,
               1
            ],
            "padding": "same",
            "bias_constraint": null,
            "use_bias": true,
            "kernel_size": [
               3,
               3
            ],
            "bias_regularizer": null,
            "kernel_constraint": null,
            "bias_initializer": {
               "config": {},
               "class_name": "Zeros"
            },
            "kernel_initializer": {
               "config": {
                  "distribution": "uniform",
                  "mode": "fan_avg",
                  "scale": 1.0,
                  "seed": null
               },
               "class_name": "VarianceScaling"
            },
            "name": "conv2d_46",
            "filters": 384,
            "data_format": "channels_first"
         },
         "class_name": "Conv2D"
      },
      {
         "config": {
            "name": "dropout_45",
            "trainable": true,
            "rate": 0.2
         },
         "class_name": "Dropout"
      },
      {
         "config": {
            "trainable": true,
            "momentum": 0.99,
            "gamma_constraint": null,
            "axis": -1,
            "beta_initializer": {
               "config": {},
               "class_name": "Zeros"
            },
            "gamma_initializer": {
               "config": {},
               "class_name": "Ones"
            },
            "epsilon": 0.001,
            "moving_variance_initializer": {
               "config": {},
               "class_name": "Ones"
            },
            "center": true,
            "gamma_regularizer": null,
            "beta_constraint": null,
            "scale": true,
            "name": "batch_normalization_46",
            "moving_mean_initializer": {
               "config": {},
               "class_name": "Zeros"
            },
            "beta_regularizer": null
         },
         "class_name": "BatchNormalization"
      },
      {
         "config": {
            "name": "activation_46",
            "trainable": true,
            "activation": "relu"
         },
         "class_name": "Activation"
      },
      {
         "config": {
            "trainable": true,
            "dilation_rate": [
               1,
               1
            ],
            "kernel_regularizer": null,
            "activation": "linear",
            "activity_regularizer": null,
            "strides": [
               1,
               1
            ],
            "padding": "same",
            "bias_constraint": null,
            "use_bias": true,
            "kernel_size": [
               3,
               3
            ],
            "bias_regularizer": null,
            "kernel_constraint": null,
            "bias_initializer": {
               "config": {},
               "class_name": "Zeros"
            },
            "kernel_initializer": {
               "config": {
                  "distribution": "uniform",
                  "mode": "fan_avg",
                  "scale": 1.0,
                  "seed": null
               },
               "class_name": "VarianceScaling"
            },
            "name": "conv2d_47",
            "filters": 384,
            "data_format": "channels_first"
         },
         "class_name": "Conv2D"
      },
      {
         "config": {
            "name": "dropout_46",
            "trainable": true,
            "rate": 0.2
         },
         "class_name": "Dropout"
      },
      {
         "config": {
            "trainable": true,
            "momentum": 0.99,
            "gamma_constraint": null,
            "axis": -1,
            "beta_initializer": {
               "config": {},
               "class_name": "Zeros"
            },
            "gamma_initializer": {
               "config": {},
               "class_name": "Ones"
            },
            "epsilon": 0.001,
            "moving_variance_initializer": {
               "config": {},
               "class_name": "Ones"
            },
            "center": true,
            "gamma_regularizer": null,
            "beta_constraint": null,
            "scale": true,
            "name": "batch_normalization_47",
            "moving_mean_initializer": {
               "config": {},
               "class_name": "Zeros"
            },
            "beta_regularizer": null
         },
         "class_name": "BatchNormalization"
      },
      {
         "config": {
            "name": "activation_47",
            "trainable": true,
            "activation": "relu"
         },
         "class_name": "Activation"
      },
      {
         "config": {
            "trainable": true,
            "dilation_rate": [
               1,
               1
            ],
            "kernel_regularizer": null,
            "activation": "linear",
            "activity_regularizer": null,
            "strides": [
               1,
               1
            ],
            "padding": "same",
            "bias_constraint": null,
            "use_bias": true,
            "kernel_size": [
               3,
               3
            ],
            "bias_regularizer": null,
            "kernel_constraint": null,
            "bias_initializer": {
               "config": {},
               "class_name": "Zeros"
            },
            "kernel_initializer": {
               "config": {
                  "distribution": "uniform",
                  "mode": "fan_avg",
                  "scale": 1.0,
                  "seed": null
               },
               "class_name": "VarianceScaling"
            },
            "name": "conv2d_48",
            "filters": 384,
            "data_format": "channels_first"
         },
         "class_name": "Conv2D"
      },
      {
         "config": {
            "name": "dropout_47",
            "trainable": true,
            "rate": 0.2
         },
         "class_name": "Dropout"
      },
      {
         "config": {
            "trainable": true,
            "momentum": 0.99,
            "gamma_constraint": null,
            "axis": -1,
            "beta_initializer": {
               "config": {},
               "class_name": "Zeros"
            },
            "gamma_initializer": {
               "config": {},
               "class_name": "Ones"
            },
            "epsilon": 0.001,
            "moving_variance_initializer": {
               "config": {},
               "class_name": "Ones"
            },
            "center": true,
            "gamma_regularizer": null,
            "beta_constraint": null,
            "scale": true,
            "name": "batch_normalization_48",
            "moving_mean_initializer": {
               "config": {},
               "class_name": "Zeros"
            },
            "beta_regularizer": null
         },
         "class_name": "BatchNormalization"
      },
      {
         "config": {
            "name": "activation_48",
            "trainable": true,
            "activation": "relu"
         },
         "class_name": "Activation"
      },
      {
         "config": {
            "trainable": true,
            "dilation_rate": [
               1,
               1
            ],
            "kernel_regularizer": null,
            "activation": "linear",
            "activity_regularizer": null,
            "strides": [
               1,
               1
            ],
            "padding": "same",
            "bias_constraint": null,
            "use_bias": true,
            "kernel_size": [
               3,
               3
            ],
            "bias_regularizer": null,
            "kernel_constraint": null,
            "bias_initializer": {
               "config": {},
               "class_name": "Zeros"
            },
            "kernel_initializer": {
               "config": {
                  "distribution": "uniform",
                  "mode": "fan_avg",
                  "scale": 1.0,
                  "seed": null
               },
               "class_name": "VarianceScaling"
            },
            "name": "conv2d_49",
            "filters": 384,
            "data_format": "channels_first"
         },
         "class_name": "Conv2D"
      },
      {
         "config": {
            "name": "dropout_48",
            "trainable": true,
            "rate": 0.2
         },
         "class_name": "Dropout"
      },
      {
         "config": {
            "trainable": true,
            "momentum": 0.99,
            "gamma_constraint": null,
            "axis": -1,
            "beta_initializer": {
               "config": {},
               "class_name": "Zeros"
            },
            "gamma_initializer": {
               "config": {},
               "class_name": "Ones"
            },
            "epsilon": 0.001,
            "moving_variance_initializer": {
               "config": {},
               "class_name": "Ones"
            },
            "center": true,
            "gamma_regularizer": null,
            "beta_constraint": null,
            "scale": true,
            "name": "batch_normalization_49",
            "moving_mean_initializer": {
               "config": {},
               "class_name": "Zeros"
            },
            "beta_regularizer": null
         },
         "class_name": "BatchNormalization"
      },
      {
         "config": {
            "name": "activation_49",
            "trainable": true,
            "activation": "relu"
         },
         "class_name": "Activation"
      },
      {
         "config": {
            "trainable": true,
            "dilation_rate": [
               1,
               1
            ],
            "kernel_regularizer": null,
            "activation": "linear",
            "activity_regularizer": null,
            "strides": [
               1,
               1
            ],
            "padding": "same",
            "bias_constraint": null,
            "use_bias": true,
            "kernel_size": [
               3,
               3
            ],
            "bias_regularizer": null,
            "kernel_constraint": null,
            "bias_initializer": {
               "config": {},
               "class_name": "Zeros"
            },
            "kernel_initializer": {
               "config": {
                  "distribution": "uniform",
                  "mode": "fan_avg",
                  "scale": 1.0,
                  "seed": null
               },
               "class_name": "VarianceScaling"
            },
            "name": "conv2d_50",
            "filters": 384,
            "data_format": "channels_first"
         },
         "class_name": "Conv2D"
      },
      {
         "config": {
            "name": "dropout_49",
            "trainable": true,
            "rate": 0.2
         },
         "class_name": "Dropout"
      },
      {
         "config": {
            "trainable": true,
            "momentum": 0.99,
            "gamma_constraint": null,
            "axis": -1,
            "beta_initializer": {
               "config": {},
               "class_name": "Zeros"
            },
            "gamma_initializer": {
               "config": {},
               "class_name": "Ones"
            },
            "epsilon": 0.001,
            "moving_variance_initializer": {
               "config": {},
               "class_name": "Ones"
            },
            "center": true,
            "gamma_regularizer": null,
            "beta_constraint": null,
            "scale": true,
            "name": "batch_normalization_50",
            "moving_mean_initializer": {
               "config": {},
               "class_name": "Zeros"
            },
            "beta_regularizer": null
         },
         "class_name": "BatchNormalization"
      },
      {
         "config": {
            "name": "activation_50",
            "trainable": true,
            "activation": "relu"
         },
         "class_name": "Activation"
      },
      {
         "config": {
            "trainable": true,
            "dilation_rate": [
               1,
               1
            ],
            "kernel_regularizer": null,
            "activation": "linear",
            "activity_regularizer": null,
            "strides": [
               1,
               1
            ],
            "padding": "same",
            "bias_constraint": null,
            "use_bias": true,
            "kernel_size": [
               3,
               3
            ],
            "bias_regularizer": null,
            "kernel_constraint": null,
            "bias_initializer": {
               "config": {},
               "class_name": "Zeros"
            },
            "kernel_initializer": {
               "config": {
                  "distribution": "uniform",
                  "mode": "fan_avg",
                  "scale": 1.0,
                  "seed": null
               },
               "class_name": "VarianceScaling"
            },
            "name": "conv2d_51",
            "filters": 384,
            "data_format": "channels_first"
         },
         "class_name": "Conv2D"
      },
      {
         "config": {
            "name": "dropout_50",
            "trainable": true,
            "rate": 0.2
         },
         "class_name": "Dropout"
      },
      {
         "config": {
            "trainable": true,
            "momentum": 0.99,
            "gamma_constraint": null,
            "axis": -1,
            "beta_initializer": {
               "config": {},
               "class_name": "Zeros"
            },
            "gamma_initializer": {
               "config": {},
               "class_name": "Ones"
            },
            "epsilon": 0.001,
            "moving_variance_initializer": {
               "config": {},
               "class_name": "Ones"
            },
            "center": true,
            "gamma_regularizer": null,
            "beta_constraint": null,
            "scale": true,
            "name": "batch_normalization_51",
            "moving_mean_initializer": {
               "config": {},
               "class_name": "Zeros"
            },
            "beta_regularizer": null
         },
         "class_name": "BatchNormalization"
      },
      {
         "config": {
            "name": "activation_51",
            "trainable": true,
            "activation": "relu"
         },
         "class_name": "Activation"
      },
      {
         "config": {
            "trainable": true,
            "dilation_rate": [
               1,
               1
            ],
            "kernel_regularizer": null,
            "activation": "linear",
            "activity_regularizer": null,
            "strides": [
               1,
               1
            ],
            "padding": "same",
            "bias_constraint": null,
            "use_bias": true,
            "kernel_size": [
               3,
               3
            ],
            "bias_regularizer": null,
            "kernel_constraint": null,
            "bias_initializer": {
               "config": {},
               "class_name": "Zeros"
            },
            "kernel_initializer": {
               "config": {
                  "distribution": "uniform",
                  "mode": "fan_avg",
                  "scale": 1.0,
                  "seed": null
               },
               "class_name": "VarianceScaling"
            },
            "name": "conv2d_52",
            "filters": 384,
            "data_format": "channels_first"
         },
         "class_name": "Conv2D"
      },
      {
         "config": {
            "name": "dropout_51",
            "trainable": true,
            "rate": 0.2
         },
         "class_name": "Dropout"
      },
      {
         "config": {
            "trainable": true,
            "momentum": 0.99,
            "gamma_constraint": null,
            "axis": -1,
            "beta_initializer": {
               "config": {},
               "class_name": "Zeros"
            },
            "gamma_initializer": {
               "config": {},
               "class_name": "Ones"
            },
            "epsilon": 0.001,
            "moving_variance_initializer": {
               "config": {},
               "class_name": "Ones"
            },
            "center": true,
            "gamma_regularizer": null,
            "beta_constraint": null,
            "scale": true,
            "name": "batch_normalization_52",
            "moving_mean_initializer": {
               "config": {},
               "class_name": "Zeros"
            },
            "beta_regularizer": null
         },
         "class_name": "BatchNormalization"
      },
      {
         "config": {
            "name": "activation_52",
            "trainable": true,
            "activation": "relu"
         },
         "class_name": "Activation"
      },
      {
         "config": {
            "trainable": true,
            "dilation_rate": [
               1,
               1
            ],
            "kernel_regularizer": null,
            "activation": "linear",
            "activity_regularizer": null,
            "strides": [
               1,
               1
            ],
            "padding": "same",
            "bias_constraint": null,
            "use_bias": true,
            "kernel_size": [
               3,
               3
            ],
            "bias_regularizer": null,
            "kernel_constraint": null,
            "bias_initializer": {
               "config": {},
               "class_name": "Zeros"
            },
            "kernel_initializer": {
               "config": {
                  "distribution": "uniform",
                  "mode": "fan_avg",
                  "scale": 1.0,
                  "seed": null
               },
               "class_name": "VarianceScaling"
            },
            "name": "conv2d_53",
            "filters": 384,
            "data_format": "channels_first"
         },
         "class_name": "Conv2D"
      },
      {
         "config": {
            "name": "dropout_52",
            "trainable": true,
            "rate": 0.2
         },
         "class_name": "Dropout"
      },
      {
         "config": {
            "trainable": true,
            "kernel_regularizer": null,
            "activation": "linear",
            "activity_regularizer": null,
            "strides": [
               2,
               2
            ],
            "padding": "same",
            "bias_constraint": null,
            "use_bias": true,
            "kernel_size": [
               3,
               3
            ],
            "bias_regularizer": null,
            "kernel_constraint": null,
            "dtype": "float32",
            "kernel_initializer": {
               "config": {
                  "distribution": "uniform",
                  "mode": "fan_avg",
                  "scale": 1.0,
                  "seed": null
               },
               "class_name": "VarianceScaling"
            },
            "name": "conv2d_transpose_2",
            "bias_initializer": {
               "config": {},
               "class_name": "Zeros"
            },
            "filters": 336,
            "batch_input_shape": [
               null,
               336,
               14,
               14
            ],
            "data_format": "channels_first"
         },
         "class_name": "Conv2DTranspose"
      },
      {
         "config": {
            "trainable": true,
            "momentum": 0.99,
            "gamma_constraint": null,
            "axis": -1,
            "beta_initializer": {
               "config": {},
               "class_name": "Zeros"
            },
            "gamma_initializer": {
               "config": {},
               "class_name": "Ones"
            },
            "epsilon": 0.001,
            "moving_variance_initializer": {
               "config": {},
               "class_name": "Ones"
            },
            "center": true,
            "gamma_regularizer": null,
            "beta_constraint": null,
            "scale": true,
            "name": "batch_normalization_53",
            "moving_mean_initializer": {
               "config": {},
               "class_name": "Zeros"
            },
            "beta_regularizer": null
         },
         "class_name": "BatchNormalization"
      },
      {
         "config": {
            "name": "activation_53",
            "trainable": true,
            "activation": "relu"
         },
         "class_name": "Activation"
      },
      {
         "config": {
            "trainable": true,
            "dilation_rate": [
               1,
               1
            ],
            "kernel_regularizer": null,
            "activation": "linear",
            "activity_regularizer": null,
            "strides": [
               1,
               1
            ],
            "padding": "same",
            "bias_constraint": null,
            "use_bias": true,
            "kernel_size": [
               3,
               3
            ],
            "bias_regularizer": null,
            "kernel_constraint": null,
            "bias_initializer": {
               "config": {},
               "class_name": "Zeros"
            },
            "kernel_initializer": {
               "config": {
                  "distribution": "uniform",
                  "mode": "fan_avg",
                  "scale": 1.0,
                  "seed": null
               },
               "class_name": "VarianceScaling"
            },
            "name": "conv2d_54",
            "filters": 336,
            "data_format": "channels_first"
         },
         "class_name": "Conv2D"
      },
      {
         "config": {
            "name": "dropout_53",
            "trainable": true,
            "rate": 0.2
         },
         "class_name": "Dropout"
      },
      {
         "config": {
            "trainable": true,
            "momentum": 0.99,
            "gamma_constraint": null,
            "axis": -1,
            "beta_initializer": {
               "config": {},
               "class_name": "Zeros"
            },
            "gamma_initializer": {
               "config": {},
               "class_name": "Ones"
            },
            "epsilon": 0.001,
            "moving_variance_initializer": {
               "config": {},
               "class_name": "Ones"
            },
            "center": true,
            "gamma_regularizer": null,
            "beta_constraint": null,
            "scale": true,
            "name": "batch_normalization_54",
            "moving_mean_initializer": {
               "config": {},
               "class_name": "Zeros"
            },
            "beta_regularizer": null
         },
         "class_name": "BatchNormalization"
      },
      {
         "config": {
            "name": "activation_54",
            "trainable": true,
            "activation": "relu"
         },
         "class_name": "Activation"
      },
      {
         "config": {
            "trainable": true,
            "dilation_rate": [
               1,
               1
            ],
            "kernel_regularizer": null,
            "activation": "linear",
            "activity_regularizer": null,
            "strides": [
               1,
               1
            ],
            "padding": "same",
            "bias_constraint": null,
            "use_bias": true,
            "kernel_size": [
               3,
               3
            ],
            "bias_regularizer": null,
            "kernel_constraint": null,
            "bias_initializer": {
               "config": {},
               "class_name": "Zeros"
            },
            "kernel_initializer": {
               "config": {
                  "distribution": "uniform",
                  "mode": "fan_avg",
                  "scale": 1.0,
                  "seed": null
               },
               "class_name": "VarianceScaling"
            },
            "name": "conv2d_55",
            "filters": 336,
            "data_format": "channels_first"
         },
         "class_name": "Conv2D"
      },
      {
         "config": {
            "name": "dropout_54",
            "trainable": true,
            "rate": 0.2
         },
         "class_name": "Dropout"
      },
      {
         "config": {
            "trainable": true,
            "momentum": 0.99,
            "gamma_constraint": null,
            "axis": -1,
            "beta_initializer": {
               "config": {},
               "class_name": "Zeros"
            },
            "gamma_initializer": {
               "config": {},
               "class_name": "Ones"
            },
            "epsilon": 0.001,
            "moving_variance_initializer": {
               "config": {},
               "class_name": "Ones"
            },
            "center": true,
            "gamma_regularizer": null,
            "beta_constraint": null,
            "scale": true,
            "name": "batch_normalization_55",
            "moving_mean_initializer": {
               "config": {},
               "class_name": "Zeros"
            },
            "beta_regularizer": null
         },
         "class_name": "BatchNormalization"
      },
      {
         "config": {
            "name": "activation_55",
            "trainable": true,
            "activation": "relu"
         },
         "class_name": "Activation"
      },
      {
         "config": {
            "trainable": true,
            "dilation_rate": [
               1,
               1
            ],
            "kernel_regularizer": null,
            "activation": "linear",
            "activity_regularizer": null,
            "strides": [
               1,
               1
            ],
            "padding": "same",
            "bias_constraint": null,
            "use_bias": true,
            "kernel_size": [
               3,
               3
            ],
            "bias_regularizer": null,
            "kernel_constraint": null,
            "bias_initializer": {
               "config": {},
               "class_name": "Zeros"
            },
            "kernel_initializer": {
               "config": {
                  "distribution": "uniform",
                  "mode": "fan_avg",
                  "scale": 1.0,
                  "seed": null
               },
               "class_name": "VarianceScaling"
            },
            "name": "conv2d_56",
            "filters": 336,
            "data_format": "channels_first"
         },
         "class_name": "Conv2D"
      },
      {
         "config": {
            "name": "dropout_55",
            "trainable": true,
            "rate": 0.2
         },
         "class_name": "Dropout"
      },
      {
         "config": {
            "trainable": true,
            "momentum": 0.99,
            "gamma_constraint": null,
            "axis": -1,
            "beta_initializer": {
               "config": {},
               "class_name": "Zeros"
            },
            "gamma_initializer": {
               "config": {},
               "class_name": "Ones"
            },
            "epsilon": 0.001,
            "moving_variance_initializer": {
               "config": {},
               "class_name": "Ones"
            },
            "center": true,
            "gamma_regularizer": null,
            "beta_constraint": null,
            "scale": true,
            "name": "batch_normalization_56",
            "moving_mean_initializer": {
               "config": {},
               "class_name": "Zeros"
            },
            "beta_regularizer": null
         },
         "class_name": "BatchNormalization"
      },
      {
         "config": {
            "name": "activation_56",
            "trainable": true,
            "activation": "relu"
         },
         "class_name": "Activation"
      },
      {
         "config": {
            "trainable": true,
            "dilation_rate": [
               1,
               1
            ],
            "kernel_regularizer": null,
            "activation": "linear",
            "activity_regularizer": null,
            "strides": [
               1,
               1
            ],
            "padding": "same",
            "bias_constraint": null,
            "use_bias": true,
            "kernel_size": [
               3,
               3
            ],
            "bias_regularizer": null,
            "kernel_constraint": null,
            "bias_initializer": {
               "config": {},
               "class_name": "Zeros"
            },
            "kernel_initializer": {
               "config": {
                  "distribution": "uniform",
                  "mode": "fan_avg",
                  "scale": 1.0,
                  "seed": null
               },
               "class_name": "VarianceScaling"
            },
            "name": "conv2d_57",
            "filters": 336,
            "data_format": "channels_first"
         },
         "class_name": "Conv2D"
      },
      {
         "config": {
            "name": "dropout_56",
            "trainable": true,
            "rate": 0.2
         },
         "class_name": "Dropout"
      },
      {
         "config": {
            "trainable": true,
            "momentum": 0.99,
            "gamma_constraint": null,
            "axis": -1,
            "beta_initializer": {
               "config": {},
               "class_name": "Zeros"
            },
            "gamma_initializer": {
               "config": {},
               "class_name": "Ones"
            },
            "epsilon": 0.001,
            "moving_variance_initializer": {
               "config": {},
               "class_name": "Ones"
            },
            "center": true,
            "gamma_regularizer": null,
            "beta_constraint": null,
            "scale": true,
            "name": "batch_normalization_57",
            "moving_mean_initializer": {
               "config": {},
               "class_name": "Zeros"
            },
            "beta_regularizer": null
         },
         "class_name": "BatchNormalization"
      },
      {
         "config": {
            "name": "activation_57",
            "trainable": true,
            "activation": "relu"
         },
         "class_name": "Activation"
      },
      {
         "config": {
            "trainable": true,
            "dilation_rate": [
               1,
               1
            ],
            "kernel_regularizer": null,
            "activation": "linear",
            "activity_regularizer": null,
            "strides": [
               1,
               1
            ],
            "padding": "same",
            "bias_constraint": null,
            "use_bias": true,
            "kernel_size": [
               3,
               3
            ],
            "bias_regularizer": null,
            "kernel_constraint": null,
            "bias_initializer": {
               "config": {},
               "class_name": "Zeros"
            },
            "kernel_initializer": {
               "config": {
                  "distribution": "uniform",
                  "mode": "fan_avg",
                  "scale": 1.0,
                  "seed": null
               },
               "class_name": "VarianceScaling"
            },
            "name": "conv2d_58",
            "filters": 336,
            "data_format": "channels_first"
         },
         "class_name": "Conv2D"
      },
      {
         "config": {
            "name": "dropout_57",
            "trainable": true,
            "rate": 0.2
         },
         "class_name": "Dropout"
      },
      {
         "config": {
            "trainable": true,
            "momentum": 0.99,
            "gamma_constraint": null,
            "axis": -1,
            "beta_initializer": {
               "config": {},
               "class_name": "Zeros"
            },
            "gamma_initializer": {
               "config": {},
               "class_name": "Ones"
            },
            "epsilon": 0.001,
            "moving_variance_initializer": {
               "config": {},
               "class_name": "Ones"
            },
            "center": true,
            "gamma_regularizer": null,
            "beta_constraint": null,
            "scale": true,
            "name": "batch_normalization_58",
            "moving_mean_initializer": {
               "config": {},
               "class_name": "Zeros"
            },
            "beta_regularizer": null
         },
         "class_name": "BatchNormalization"
      },
      {
         "config": {
            "name": "activation_58",
            "trainable": true,
            "activation": "relu"
         },
         "class_name": "Activation"
      },
      {
         "config": {
            "trainable": true,
            "dilation_rate": [
               1,
               1
            ],
            "kernel_regularizer": null,
            "activation": "linear",
            "activity_regularizer": null,
            "strides": [
               1,
               1
            ],
            "padding": "same",
            "bias_constraint": null,
            "use_bias": true,
            "kernel_size": [
               3,
               3
            ],
            "bias_regularizer": null,
            "kernel_constraint": null,
            "bias_initializer": {
               "config": {},
               "class_name": "Zeros"
            },
            "kernel_initializer": {
               "config": {
                  "distribution": "uniform",
                  "mode": "fan_avg",
                  "scale": 1.0,
                  "seed": null
               },
               "class_name": "VarianceScaling"
            },
            "name": "conv2d_59",
            "filters": 336,
            "data_format": "channels_first"
         },
         "class_name": "Conv2D"
      },
      {
         "config": {
            "name": "dropout_58",
            "trainable": true,
            "rate": 0.2
         },
         "class_name": "Dropout"
      },
      {
         "config": {
            "trainable": true,
            "momentum": 0.99,
            "gamma_constraint": null,
            "axis": -1,
            "beta_initializer": {
               "config": {},
               "class_name": "Zeros"
            },
            "gamma_initializer": {
               "config": {},
               "class_name": "Ones"
            },
            "epsilon": 0.001,
            "moving_variance_initializer": {
               "config": {},
               "class_name": "Ones"
            },
            "center": true,
            "gamma_regularizer": null,
            "beta_constraint": null,
            "scale": true,
            "name": "batch_normalization_59",
            "moving_mean_initializer": {
               "config": {},
               "class_name": "Zeros"
            },
            "beta_regularizer": null
         },
         "class_name": "BatchNormalization"
      },
      {
         "config": {
            "name": "activation_59",
            "trainable": true,
            "activation": "relu"
         },
         "class_name": "Activation"
      },
      {
         "config": {
            "trainable": true,
            "dilation_rate": [
               1,
               1
            ],
            "kernel_regularizer": null,
            "activation": "linear",
            "activity_regularizer": null,
            "strides": [
               1,
               1
            ],
            "padding": "same",
            "bias_constraint": null,
            "use_bias": true,
            "kernel_size": [
               3,
               3
            ],
            "bias_regularizer": null,
            "kernel_constraint": null,
            "bias_initializer": {
               "config": {},
               "class_name": "Zeros"
            },
            "kernel_initializer": {
               "config": {
                  "distribution": "uniform",
                  "mode": "fan_avg",
                  "scale": 1.0,
                  "seed": null
               },
               "class_name": "VarianceScaling"
            },
            "name": "conv2d_60",
            "filters": 336,
            "data_format": "channels_first"
         },
         "class_name": "Conv2D"
      },
      {
         "config": {
            "name": "dropout_59",
            "trainable": true,
            "rate": 0.2
         },
…
               "class_name": "VarianceScaling"
            },
            "name": "conv2d_61",
            "filters": 336,
            "data_format": "channels_first"
         },
         "class_name": "Conv2D"
      },
      {
         "config": {
            "name": "dropout_60",
            "trainable": true,
            "rate": 0.2
         },
         "class_name": "Dropout"
      },
      {
         "config": {
            "trainable": true,
            "momentum": 0.99,
            "gamma_constraint": null,
            "axis": -1,
            "beta_initializer": {
               "config": {},
               "class_name": "Zeros"
            },
            "gamma_initializer": {
               "config": {},
               "class_name": "Ones"
            },
            "epsilon": 0.001,
            "moving_variance_initializer": {
               "config": {},
               "class_name": "Ones"
            },
            "center": true,
            "gamma_regularizer": null,
            "beta_constraint": null,
            "scale": true,
            "name": "batch_normalization_61",
            "moving_mean_initializer": {
               "config": {},
               "class_name": "Zeros"
            },
            "beta_regularizer": null
         },
         "class_name": "BatchNormalization"
      },
      {
         "config": {
            "name": "activation_61",
            "trainable": true,
            "activation": "relu"
         },
         "class_name": "Activation"
      },
      {
         "config": {
            "trainable": true,
            "dilation_rate": [
               1,
               1
            ],
            "kernel_regularizer": null,
            "activation": "linear",
            "activity_regularizer": null,
            "strides": [
               1,
               1
            ],
            "padding": "same",
            "bias_constraint": null,
            "use_bias": true,
            "kernel_size": [
               3,
               3
            ],
            "bias_regularizer": null,
            "kernel_constraint": null,
            "bias_initializer": {
               "config": {},
               "class_name": "Zeros"
            },
            "kernel_initializer": {
               "config": {
                  "distribution": "uniform",
                  "mode": "fan_avg",
                  "scale": 1.0,
                  "seed": null
               },
               "class_name": "VarianceScaling"
            },
            "name": "conv2d_62",
            "filters": 336,
            "data_format": "channels_first"
         },
         "class_name": "Conv2D"
      },
      {
         "config": {
            "name": "dropout_61",
            "trainable": true,
            "rate": 0.2
         },
         "class_name": "Dropout"
      },
      {
         "config": {
            "trainable": true,
            "momentum": 0.99,
            "gamma_constraint": null,
            "axis": -1,
            "beta_initializer": {
               "config": {},
               "class_name": "Zeros"
            },
            "gamma_initializer": {
               "config": {},
               "class_name": "Ones"
            },
            "epsilon": 0.001,
            "moving_variance_initializer": {
               "config": {},
               "class_name": "Ones"
            },
            "center": true,
            "gamma_regularizer": null,
            "beta_constraint": null,
            "scale": true,
            "name": "batch_normalization_62",
            "moving_mean_initializer": {
               "config": {},
               "class_name": "Zeros"
            },
            "beta_regularizer": null
         },
         "class_name": "BatchNormalization"
      },
      {
         "config": {
            "name": "activation_62",
            "trainable": true,
            "activation": "relu"
         },
         "class_name": "Activation"
      },
      {
         "config": {
            "trainable": true,
            "dilation_rate": [
               1,
               1
            ],
            "kernel_regularizer": null,
            "activation": "linear",
            "activity_regularizer": null,
            "strides": [
               1,
               1
            ],
            "padding": "same",
            "bias_constraint": null,
            "use_bias": true,
            "kernel_size": [
               3,
               3
            ],
            "bias_regularizer": null,
            "kernel_constraint": null,
            "bias_initializer": {
               "config": {},
               "class_name": "Zeros"
            },
            "kernel_initializer": {
               "config": {
                  "distribution": "uniform",
                  "mode": "fan_avg",
                  "scale": 1.0,
                  "seed": null
               },
               "class_name": "VarianceScaling"
            },
            "name": "conv2d_63",
            "filters": 336,
            "data_format": "channels_first"
         },
         "class_name": "Conv2D"
      },
      {
         "config": {
            "name": "dropout_62",
            "trainable": true,
            "rate": 0.2
         },
         "class_name": "Dropout"
      },
      {
         "config": {
            "trainable": true,
            "kernel_regularizer": null,
            "activation": "linear",
            "activity_regularizer": null,
            "strides": [
               2,
               2
            ],
            "padding": "same",
            "bias_constraint": null,
            "use_bias": true,
            "kernel_size": [
               3,
               3
            ],
            "bias_regularizer": null,
            "kernel_constraint": null,
            "dtype": "float32",
            "kernel_initializer": {
               "config": {
                  "distribution": "uniform",
                  "mode": "fan_avg",
                  "scale": 1.0,
                  "seed": null
               },
               "class_name": "VarianceScaling"
            },
            "name": "conv2d_transpose_3",
            "bias_initializer": {
               "config": {},
               "class_name": "Zeros"
            },
            "filters": 288,
            "batch_input_shape": [
               null,
               288,
               28,
               28
            ],
            "data_format": "channels_first"
         },
         "class_name": "Conv2DTranspose"
      },
      {
         "config": {
            "trainable": true,
            "momentum": 0.99,
            "gamma_constraint": null,
            "axis": -1,
            "beta_initializer": {
               "config": {},
               "class_name": "Zeros"
            },
            "gamma_initializer": {
               "config": {},
               "class_name": "Ones"
            },
            "epsilon": 0.001,
            "moving_variance_initializer": {
               "config": {},
               "class_name": "Ones"
            },
            "center": true,
            "gamma_regularizer": null,
            "beta_constraint": null,
            "scale": true,
            "name": "batch_normalization_63",
            "moving_mean_initializer": {
               "config": {},
               "class_name": "Zeros"
            },
            "beta_regularizer": null
         },
         "class_name": "BatchNormalization"
      },
      {
         "config": {
            "name": "activation_63",
            "trainable": true,
            "activation": "relu"
         },
         "class_name": "Activation"
      },
      {
         "config": {
            "trainable": true,
            "dilation_rate": [
               1,
               1
            ],
            "kernel_regularizer": null,
            "activation": "linear",
            "activity_regularizer": null,
            "strides": [
               1,
               1
            ],
            "padding": "same",
            "bias_constraint": null,
            "use_bias": true,
            "kernel_size": [
               3,
               3
            ],
            "bias_regularizer": null,
            "kernel_constraint": null,
            "bias_initializer": {
               "config": {},
               "class_name": "Zeros"
            },
            "kernel_initializer": {
               "config": {
                  "distribution": "uniform",
                  "mode": "fan_avg",
                  "scale": 1.0,
                  "seed": null
               },
               "class_name": "VarianceScaling"
            },
            "name": "conv2d_64",
            "filters": 288,
            "data_format": "channels_first"
         },
         "class_name": "Conv2D"
      },
      {
         "config": {
            "name": "dropout_63",
            "trainable": true,
            "rate": 0.2
         },
         "class_name": "Dropout"
      },
      {
         "config": {
            "trainable": true,
            "momentum": 0.99,
            "gamma_constraint": null,
            "axis": -1,
            "beta_initializer": {
               "config": {},
               "class_name": "Zeros"
            },
            "gamma_initializer": {
               "config": {},
               "class_name": "Ones"
            },
            "epsilon": 0.001,
            "moving_variance_initializer": {
               "config": {},
               "class_name": "Ones"
            },
            "center": true,
            "gamma_regularizer": null,
            "beta_constraint": null,
            "scale": true,
            "name": "batch_normalization_64",
            "moving_mean_initializer": {
               "config": {},
               "class_name": "Zeros"
            },
            "beta_regularizer": null
         },
         "class_name": "BatchNormalization"
      },
      {
         "config": {
            "name": "activation_64",
            "trainable": true,
            "activation": "relu"
         },
         "class_name": "Activation"
      },
      {
         "config": {
            "trainable": true,
            "dilation_rate": [
               1,
               1
            ],
            "kernel_regularizer": null,
            "activation": "linear",
            "activity_regularizer": null,
            "strides": [
               1,
               1
            ],
            "padding": "same",
            "bias_constraint": null,
            "use_bias": true,
            "kernel_size": [
               3,
               3
            ],
            "bias_regularizer": null,
            "kernel_constraint": null,
            "bias_initializer": {
               "config": {},
               "class_name": "Zeros"
            },
            "kernel_initializer": {
               "config": {
                  "distribution": "uniform",
                  "mode": "fan_avg",
                  "scale": 1.0,
                  "seed": null
               },
               "class_name": "VarianceScaling"
            },
            "name": "conv2d_65",
            "filters": 288,
            "data_format": "channels_first"
         },
         "class_name": "Conv2D"
      },
      {
         "config": {
            "name": "dropout_64",
            "trainable": true,
            "rate": 0.2
         },
         "class_name": "Dropout"
      },
      {
         "config": {
            "trainable": true,
            "momentum": 0.99,
            "gamma_constraint": null,
            "axis": -1,
            "beta_initializer": {
               "config": {},
               "class_name": "Zeros"
            },
            "gamma_initializer": {
               "config": {},
               "class_name": "Ones"
            },
            "epsilon": 0.001,
            "moving_variance_initializer": {
               "config": {},
               "class_name": "Ones"
            },
            "center": true,
            "gamma_regularizer": null,
            "beta_constraint": null,
            "scale": true,
            "name": "batch_normalization_65",
            "moving_mean_initializer": {
               "config": {},
               "class_name": "Zeros"
            },
            "beta_regularizer": null
         },
         "class_name": "BatchNormalization"
      },
      {
         "config": {
            "name": "activation_65",
            "trainable": true,
            "activation": "relu"
         },
         "class_name": "Activation"
      },
      {
         "config": {
            "trainable": true,
            "dilation_rate": [
               1,
               1
            ],
            "kernel_regularizer": null,
            "activation": "linear",
            "activity_regularizer": null,
            "strides": [
               1,
               1
            ],
            "padding": "same",
            "bias_constraint": null,
            "use_bias": true,
            "kernel_size": [
               3,
               3
            ],
            "bias_regularizer": null,
            "kernel_constraint": null,
            "bias_initializer": {
               "config": {},
               "class_name": "Zeros"
            },
            "kernel_initializer": {
               "config": {
                  "distribution": "uniform",
                  "mode": "fan_avg",
                  "scale": 1.0,
                  "seed": null
               },
               "class_name": "VarianceScaling"
            },
            "name": "conv2d_66",
            "filters": 288,
            "data_format": "channels_first"
         },
         "class_name": "Conv2D"
      },
      {
         "config": {
            "name": "dropout_65",
            "trainable": true,
            "rate": 0.2
         },
         "class_name": "Dropout"
      },
      {
         "config": {
            "trainable": true,
            "momentum": 0.99,
            "gamma_constraint": null,
            "axis": -1,
            "beta_initializer": {
               "config": {},
               "class_name": "Zeros"
            },
            "gamma_initializer": {
               "config": {},
               "class_name": "Ones"
            },
            "epsilon": 0.001,
            "moving_variance_initializer": {
               "config": {},
               "class_name": "Ones"
            },
            "center": true,
            "gamma_regularizer": null,
            "beta_constraint": null,
            "scale": true,
            "name": "batch_normalization_66",
            "moving_mean_initializer": {
               "config": {},
               "class_name": "Zeros"
            },
            "beta_regularizer": null
         },
         "class_name": "BatchNormalization"
      },
      {
         "config": {
            "name": "activation_66",
            "trainable": true,
            "activation": "relu"
         },
         "class_name": "Activation"
      },
      {
         "config": {
            "trainable": true,
            "dilation_rate": [
               1,
               1
            ],
            "kernel_regularizer": null,
            "activation": "linear",
            "activity_regularizer": null,
            "strides": [
               1,
               1
            ],
            "padding": "same",
            "bias_constraint": null,
            "use_bias": true,
            "kernel_size": [
               3,
               3
            ],
            "bias_regularizer": null,
            "kernel_constraint": null,
            "bias_initializer": {
               "config": {},
               "class_name": "Zeros"
            },
            "kernel_initializer": {
               "config": {
                  "distribution": "uniform",
                  "mode": "fan_avg",
                  "scale": 1.0,
                  "seed": null
               },
               "class_name": "VarianceScaling"
            },
            "name": "conv2d_67",
            "filters": 288,
            "data_format": "channels_first"
         },
         "class_name": "Conv2D"
      },
      {
         "config": {
            "name": "dropout_66",
            "trainable": true,
            "rate": 0.2
         },
         "class_name": "Dropout"
      },
      {
         "config": {
            "trainable": true,
            "momentum": 0.99,
            "gamma_constraint": null,
            "axis": -1,
            "beta_initializer": {
               "config": {},
               "class_name": "Zeros"
            },
            "gamma_initializer": {
               "config": {},
               "class_name": "Ones"
            },
            "epsilon": 0.001,
            "moving_variance_initializer": {
               "config": {},
               "class_name": "Ones"
            },
            "center": true,
            "gamma_regularizer": null,
            "beta_constraint": null,
            "scale": true,
            "name": "batch_normalization_67",
            "moving_mean_initializer": {
               "config": {},
               "class_name": "Zeros"
            },
            "beta_regularizer": null
         },
         "class_name": "BatchNormalization"
      },
      {
         "config": {
            "name": "activation_67",
            "trainable": true,
            "activation": "relu"
         },
         "class_name": "Activation"
      },
      {
         "config": {
            "trainable": true,
            "dilation_rate": [
               1,
               1
            ],
            "kernel_regularizer": null,
            "activation": "linear",
            "activity_regularizer": null,
            "strides": [
               1,
               1
            ],
            "padding": "same",
            "bias_constraint": null,
            "use_bias": true,
            "kernel_size": [
               3,
               3
            ],
            "bias_regularizer": null,
            "kernel_constraint": null,
            "bias_initializer": {
               "config": {},
               "class_name": "Zeros"
            },
            "kernel_initializer": {
               "config": {
                  "distribution": "uniform",
                  "mode": "fan_avg",
                  "scale": 1.0,
                  "seed": null
               },
               "class_name": "VarianceScaling"
            },
            "name": "conv2d_68",
            "filters": 288,
            "data_format": "channels_first"
         },
         "class_name": "Conv2D"
      },
      {
         "config": {
            "name": "dropout_67",
            "trainable": true,
            "rate": 0.2
         },
         "class_name": "Dropout"
      },
      {
         "config": {
            "trainable": true,
            "momentum": 0.99,
            "gamma_constraint": null,
            "axis": -1,
            "beta_initializer": {
               "config": {},
               "class_name": "Zeros"
            },
            "gamma_initializer": {
               "config": {},
               "class_name": "Ones"
            },
            "epsilon": 0.001,
            "moving_variance_initializer": {
               "config": {},
               "class_name": "Ones"
            },
            "center": true,
            "gamma_regularizer": null,
            "beta_constraint": null,
            "scale": true,
            "name": "batch_normalization_68",
            "moving_mean_initializer": {
               "config": {},
               "class_name": "Zeros"
            },
            "beta_regularizer": null
         },
         "class_name": "BatchNormalization"
      },
      {
         "config": {
            "name": "activation_68",
            "trainable": true,
            "activation": "relu"
         },
         "class_name": "Activation"
      },
      {
         "config": {
            "trainable": true,
            "dilation_rate": [
               1,
               1
            ],
            "kernel_regularizer": null,
            "activation": "linear",
            "activity_regularizer": null,
            "strides": [
               1,
               1
            ],
            "padding": "same",
            "bias_constraint": null,
            "use_bias": true,
            "kernel_size": [
               3,
               3
            ],
            "bias_regularizer": null,
            "kernel_constraint": null,
            "bias_initializer": {
               "config": {},
               "class_name": "Zeros"
            },
            "kernel_initializer": {
               "config": {
                  "distribution": "uniform",
                  "mode": "fan_avg",
                  "scale": 1.0,
                  "seed": null
               },
               "class_name": "VarianceScaling"
            },
            "name": "conv2d_69",
            "filters": 288,
            "data_format": "channels_first"
         },
         "class_name": "Conv2D"
      },
      {
         "config": {
            "name": "dropout_68",
            "trainable": true,
            "rate": 0.2
         },
         "class_name": "Dropout"
      },
      {
         "config": {
            "trainable": true,
            "momentum": 0.99,
            "gamma_constraint": null,
            "axis": -1,
            "beta_initializer": {
               "config": {},
               "class_name": "Zeros"
            },
            "gamma_initializer": {
               "config": {},
               "class_name": "Ones"
            },
            "epsilon": 0.001,
            "moving_variance_initializer": {
               "config": {},
               "class_name": "Ones"
            },
            "center": true,
            "gamma_regularizer": null,
            "beta_constraint": null,
            "scale": true,
            "name": "batch_normalization_69",
            "moving_mean_initializer": {
               "config": {},
               "class_name": "Zeros"
            },
            "beta_regularizer": null
         },
         "class_name": "BatchNormalization"
      },
      {
         "config": {
            "name": "activation_69",
            "trainable": true,
            "activation": "relu"
         },
         "class_name": "Activation"
      },
      {
         "config": {
            "trainable": true,
            "dilation_rate": [
               1,
               1
            ],
            "kernel_regularizer": null,
            "activation": "linear",
            "activity_regularizer": null,
            "strides": [
               1,
               1
            ],
            "padding": "same",
            "bias_constraint": null,
            "use_bias": true,
            "kernel_size": [
               3,
               3
            ],
            "bias_regularizer": null,
            "kernel_constraint": null,
            "bias_initializer": {
               "config": {},
               "class_name": "Zeros"
            },
            "kernel_initializer": {
               "config": {
                  "distribution": "uniform",
                  "mode": "fan_avg",
                  "scale": 1.0,
                  "seed": null
               },
               "class_name": "VarianceScaling"
            },
            "name": "conv2d_70",
            "filters": 288,
            "data_format": "channels_first"
         },
         "class_name": "Conv2D"
      },
      {
         "config": {
            "name": "dropout_69",
            "trainable": true,
            "rate": 0.2
         },
         "class_name": "Dropout"
      },
      {
         "config": {
            "trainable": true,
            "kernel_regularizer": null,
            "activation": "linear",
            "activity_regularizer": null,
            "strides": [
               2,
               2
            ],
            "padding": "same",
            "bias_constraint": null,
            "use_bias": true,
            "kernel_size": [
               3,
               3
            ],
            "bias_regularizer": null,
            "kernel_constraint": null,
            "dtype": "float32",
            "kernel_initializer": {
               "config": {
                  "distribution": "uniform",
                  "mode": "fan_avg",
                  "scale": 1.0,
                  "seed": null
               },
               "class_name": "VarianceScaling"
            },
            "name": "conv2d_transpose_4",
            "bias_initializer": {
               "config": {},
               "class_name": "Zeros"
            },
            "filters": 240,
            "batch_input_shape": [
               null,
               240,
               56,
               56
            ],
            "data_format": "channels_first"
         },
         "class_name": "Conv2DTranspose"
      },
      {
         "config": {
            "trainable": true,
            "momentum": 0.99,
            "gamma_constraint": null,
            "axis": -1,
            "beta_initializer": {
               "config": {},
               "class_name": "Zeros"
            },
            "gamma_initializer": {
               "config": {},
               "class_name": "Ones"
            },
            "epsilon": 0.001,
            "moving_variance_initializer": {
               "config": {},
               "class_name": "Ones"
            },
            "center": true,
            "gamma_regularizer": null,
            "beta_constraint": null,
            "scale": true,
            "name": "batch_normalization_70",
            "moving_mean_initializer": {
               "config": {},
               "class_name": "Zeros"
            },
            "beta_regularizer": null
         },
         "class_name": "BatchNormalization"
      },
      {
         "config": {
            "name": "activation_70",
            "trainable": true,
            "activation": "relu"
         },
         "class_name": "Activation"
      },
      {
         "config": {
            "trainable": true,
            "dilation_rate": [
               1,
               1
            ],
            "kernel_regularizer": null,
            "activation": "linear",
            "activity_regularizer": null,
            "strides": [
               1,
               1
            ],
            "padding": "same",
            "bias_constraint": null,
            "use_bias": true,
            "kernel_size": [
               3,
               3
            ],
            "bias_regularizer": null,
            "kernel_constraint": null,
            "bias_initializer": {
               "config": {},
               "class_name": "Zeros"
            },
            "kernel_initializer": {
               "config": {
                  "distribution": "uniform",
                  "mode": "fan_avg",
                  "scale": 1.0,
                  "seed": null
               },
               "class_name": "VarianceScaling"
            },
            "name": "conv2d_71",
            "filters": 240,
            "data_format": "channels_first"
         },
         "class_name": "Conv2D"
      },
      {
         "config": {
            "name": "dropout_70",
            "trainable": true,
            "rate": 0.2
         },
         "class_name": "Dropout"
      },
      {
         "config": {
            "trainable": true,
            "momentum": 0.99,
            "gamma_constraint": null,
            "axis": -1,
            "beta_initializer": {
               "config": {},
               "class_name": "Zeros"
            },
            "gamma_initializer": {
               "config": {},
               "class_name": "Ones"
            },
            "epsilon": 0.001,
            "moving_variance_initializer": {
               "config": {},
               "class_name": "Ones"
            },
            "center": true,
            "gamma_regularizer": null,
            "beta_constraint": null,
            "scale": true,
            "name": "batch_normalization_71",
            "moving_mean_initializer": {
               "config": {},
               "class_name": "Zeros"
            },
            "beta_regularizer": null
         },
         "class_name": "BatchNormalization"
      },
      {
         "config": {
            "name": "activation_71",
            "trainable": true,
            "activation": "relu"
         },
         "class_name": "Activation"
      },
      {
         "config": {
            "trainable": true,
            "dilation_rate": [
               1,
               1
            ],
            "kernel_regularizer": null,
            "activation": "linear",
            "activity_regularizer": null,
            "strides": [
               1,
               1
            ],
            "padding": "same",
            "bias_constraint": null,
            "use_bias": true,
            "kernel_size": [
               3,
               3
            ],
            "bias_regularizer": null,
            "kernel_constraint": null,
            "bias_initializer": {
               "config": {},
               "class_name": "Zeros"
            },
            "kernel_initializer": {
               "config": {
                  "distribution": "uniform",
                  "mode": "fan_avg",
                  "scale": 1.0,
                  "seed": null
               },
               "class_name": "VarianceScaling"
            },
            "name": "conv2d_72",
            "filters": 240,
            "data_format": "channels_first"
         },
         "class_name": "Conv2D"
      },
      {
         "config": {
            "name": "dropout_71",
            "trainable": true,
            "rate": 0.2
         },
         "class_name": "Dropout"
      },
      {
         "config": {
            "trainable": true,
            "momentum": 0.99,
            "gamma_constraint": null,
            "axis": -1,
            "beta_initializer": {
               "config": {},
               "class_name": "Zeros"
            },
            "gamma_initializer": {
               "config": {},
               "class_name": "Ones"
            },
            "epsilon": 0.001,
            "moving_variance_initializer": {
               "config": {},
               "class_name": "Ones"
            },
            "center": true,
            "gamma_regularizer": null,
            "beta_constraint": null,
            "scale": true,
            "name": "batch_normalization_72",
            "moving_mean_initializer": {
               "config": {},
               "class_name": "Zeros"
            },
            "beta_regularizer": null
         },
         "class_name": "BatchNormalization"
      },
      {
         "config": {
            "name": "activation_72",
            "trainable": true,
            "activation": "relu"
         },
         "class_name": "Activation"
      },
      {
         "config": {
            "trainable": true,
            "dilation_rate": [
               1,
               1
            ],
            "kernel_regularizer": null,
            "activation": "linear",
            "activity_regularizer": null,
            "strides": [
               1,
               1
            ],
            "padding": "same",
            "bias_constraint": null,
            "use_bias": true,
            "kernel_size": [
               3,
               3
            ],
            "bias_regularizer": null,
            "kernel_constraint": null,
            "bias_initializer": {
               "config": {},
               "class_name": "Zeros"
            },
            "kernel_initializer": {
               "config": {
                  "distribution": "uniform",
                  "mode": "fan_avg",
                  "scale": 1.0,
                  "seed": null
               },
               "class_name": "VarianceScaling"
            },
            "name": "conv2d_73",
            "filters": 240,
            "data_format": "channels_first"
         },
         "class_name": "Conv2D"
      },
      {
         "config": {
            "name": "dropout_72",
            "trainable": true,
            "rate": 0.2
         },
         "class_name": "Dropout"
      },
      {
         "config": {
            "trainable": true,
            "momentum": 0.99,
            "gamma_constraint": null,
            "axis": -1,
            "beta_initializer": {
               "config": {},
               "class_name": "Zeros"
            },
            "gamma_initializer": {
               "config": {},
               "class_name": "Ones"
            },
            "epsilon": 0.001,
            "moving_variance_initializer": {
               "config": {},
               "class_name": "Ones"
            },
            "center": true,
            "gamma_regularizer": null,
            "beta_constraint": null,
            "scale": true,
            "name": "batch_normalization_73",
            "moving_mean_initializer": {
               "config": {},
               "class_name": "Zeros"
            },
            "beta_regularizer": null
         },
         "class_name": "BatchNormalization"
      },
      {
         "config": {
            "name": "activation_73",
            "trainable": true,
            "activation": "relu"
         },
         "class_name": "Activation"
      },
      {
         "config": {
            "trainable": true,
            "dilation_rate": [
               1,
               1
            ],
            "kernel_regularizer": null,
            "activation": "linear",
            "activity_regularizer": null,
            "strides": [
               1,
               1
            ],
            "padding": "same",
            "bias_constraint": null,
            "use_bias": true,
            "kernel_size": [
               3,
               3
            ],
            "bias_regularizer": null,
            "kernel_constraint": null,
            "bias_initializer": {
               "config": {},
               "class_name": "Zeros"
            },
            "kernel_initializer": {
               "config": {
                  "distribution": "uniform",
                  "mode": "fan_avg",
                  "scale": 1.0,
                  "seed": null
               },
               "class_name": "VarianceScaling"
            },
            "name": "conv2d_74",
            "filters": 240,
            "data_format": "channels_first"
         },
         "class_name": "Conv2D"
      },
      {
         "config": {
            "name": "dropout_73",
            "trainable": true,
            "rate": 0.2
         },
         "class_name": "Dropout"
      },
      {
         "config": {
            "trainable": true,
            "momentum": 0.99,
            "gamma_constraint": null,
            "axis": -1,
            "beta_initializer": {
               "config": {},
               "class_name": "Zeros"
            },
            "gamma_initializer": {
               "config": {},
               "class_name": "Ones"
            },
            "epsilon": 0.001,
            "moving_variance_initializer": {
               "config": {},
               "class_name": "Ones"
            },
            "center": true,
            "gamma_regularizer": null,
            "beta_constraint": null,
            "scale": true,
            "name": "batch_normalization_74",
            "moving_mean_initializer": {
               "config": {},
               "class_name": "Zeros"
            },
            "beta_regularizer": null
         },
         "class_name": "BatchNormalization"
      },
      {
         "config": {
            "name": "activation_74",
            "trainable": true,
            "activation": "relu"
         },
         "class_name": "Activation"
      },
      {
         "config": {
            "trainable": true,
            "dilation_rate": [
               1,
               1
            ],
            "kernel_regularizer": null,
            "activation": "linear",
            "activity_regularizer": null,
            "strides": [
               1,
               1
            ],
            "padding": "same",
            "bias_constraint": null,
            "use_bias": true,
            "kernel_size": [
               3,
               3
            ],
            "bias_regularizer": null,
            "kernel_constraint": null,
            "bias_initializer": {
               "config": {},
               "class_name": "Zeros"
            },
            "kernel_initializer": {
               "config": {
                  "distribution": "uniform",
                  "mode": "fan_avg",
                  "scale": 1.0,
                  "seed": null
               },
               "class_name": "VarianceScaling"
            },
            "name": "conv2d_75",
            "filters": 240,
            "data_format": "channels_first"
         },
         "class_name": "Conv2D"
      },
      {
         "config": {
            "name": "dropout_74",
            "trainable": true,
            "rate": 0.2
         },
         "class_name": "Dropout"
      },
      {
         "config": {
            "trainable": true,
            "kernel_regularizer": null,
            "activation": "linear",
            "activity_regularizer": null,
            "strides": [
               2,
               2
            ],
            "padding": "same",
            "bias_constraint": null,
            "use_bias": true,
            "kernel_size": [
               3,
               3
            ],
            "bias_regularizer": null,
            "kernel_constraint": null,
            "dtype": "float32",
            "kernel_initializer": {
               "config": {
                  "distribution": "uniform",
                  "mode": "fan_avg",
                  "scale": 1.0,
                  "seed": null
               },
               "class_name": "VarianceScaling"
            },
            "name": "conv2d_transpose_5",
            "bias_initializer": {
               "config": {},
               "class_name": "Zeros"
            },
            "filters": 192,
            "batch_input_shape": [
               null,
               192,
               112,
               112
            ],
            "data_format": "channels_first"
         },
         "class_name": "Conv2DTranspose"
      },
      {
         "config": {
            "trainable": true,
            "momentum": 0.99,
            "gamma_constraint": null,
            "axis": -1,
            "beta_initializer": {
               "config": {},
               "class_name": "Zeros"
            },
            "gamma_initializer": {
               "config": {},
               "class_name": "Ones"
            },
            "epsilon": 0.001,
            "moving_variance_initializer": {
               "config": {},
               "class_name": "Ones"
            },
            "center": true,
            "gamma_regularizer": null,
            "beta_constraint": null,
            "scale": true,
            "name": "batch_normalization_75",
            "moving_mean_initializer": {
               "config": {},
               "class_name": "Zeros"
            },
            "beta_regularizer": null
         },
         "class_name": "BatchNormalization"
      },
      {
         "config": {
            "name": "activation_75",
            "trainable": true,
            "activation": "relu"
         },
         "class_name": "Activation"
      },
      {
         "config": {
            "trainable": true,
            "dilation_rate": [
               1,
               1
            ],
            "kernel_regularizer": null,
            "activation": "linear",
            "activity_regularizer": null,
            "strides": [
               1,
               1
            ],
            "padding": "same",
            "bias_constraint": null,
            "use_bias": true,
            "kernel_size": [
               3,
               3
            ],
            "bias_regularizer": null,
            "kernel_constraint": null,
            "bias_initializer": {
               "config": {},
               "class_name": "Zeros"
            },
            "kernel_initializer": {
               "config": {
                  "distribution": "uniform",
                  "mode": "fan_avg",
                  "scale": 1.0,
                  "seed": null
               },
               "class_name": "VarianceScaling"
            },
            "name": "conv2d_76",
            "filters": 192,
            "data_format": "channels_first"
         },
         "class_name": "Conv2D"
      },
      {
         "config": {
            "name": "dropout_75",
            "trainable": true,
            "rate": 0.2
         },
         "class_name": "Dropout"
      },
      {
         "config": {
            "trainable": true,
            "momentum": 0.99,
            "gamma_constraint": null,
            "axis": -1,
            "beta_initializer": {
               "config": {},
               "class_name": "Zeros"
            },
            "gamma_initializer": {
               "config": {},
               "class_name": "Ones"
            },
            "epsilon": 0.001,
            "moving_variance_initializer": {
               "config": {},
               "class_name": "Ones"
            },
            "center": true,
            "gamma_regularizer": null,
            "beta_constraint": null,
            "scale": true,
            "name": "batch_normalization_76",
            "moving_mean_initializer": {
               "config": {},
               "class_name": "Zeros"
            },
            "beta_regularizer": null
         },
         "class_name": "BatchNormalization"
      },
      {
         "config": {
            "name": "activation_76",
            "trainable": true,
            "activation": "relu"
         },
         "class_name": "Activation"
      },
      {
         "config": {
            "trainable": true,
            "dilation_rate": [
               1,
               1
            ],
            "kernel_regularizer": null,
            "activation": "linear",
            "activity_regularizer": null,
            "strides": [
               1,
               1
            ],
            "padding": "same",
            "bias_constraint": null,
            "use_bias": true,
            "kernel_size": [
               3,
               3
            ],
            "bias_regularizer": null,
            "kernel_constraint": null,
            "bias_initializer": {
               "config": {},
               "class_name": "Zeros"
            },
            "kernel_initializer": {
               "config": {
                  "distribution": "uniform",
                  "mode": "fan_avg",
                  "scale": 1.0,
                  "seed": null
               },
               "class_name": "VarianceScaling"
            },
            "name": "conv2d_77",
            "filters": 192,
            "data_format": "channels_first"
         },
         "class_name": "Conv2D"
      },
      {
         "config": {
            "name": "dropout_76",
            "trainable": true,
            "rate": 0.2
         },
         "class_name": "Dropout"
      },
      {
         "config": {
            "trainable": true,
            "momentum": 0.99,
            "gamma_constraint": null,
            "axis": -1,
            "beta_initializer": {
               "config": {},
               "class_name": "Zeros"
            },
            "gamma_initializer": {
               "config": {},
               "class_name": "Ones"
            },
            "epsilon": 0.001,
            "moving_variance_initializer": {
               "config": {},
               "class_name": "Ones"
            },
            "center": true,
            "gamma_regularizer": null,
            "beta_constraint": null,
            "scale": true,
            "name": "batch_normalization_77",
            "moving_mean_initializer": {
               "config": {},
               "class_name": "Zeros"
            },
            "beta_regularizer": null
         },
         "class_name": "BatchNormalization"
      },
      {
         "config": {
            "name": "activation_77",
            "trainable": true,
            "activation": "relu"
         },
         "class_name": "Activation"
      },
      {
         "config": {
            "trainable": true,
            "dilation_rate": [
               1,
               1
            ],
            "kernel_regularizer": null,
            "activation": "linear",
            "activity_regularizer": null,
            "strides": [
               1,
               1
            ],
            "padding": "same",
            "bias_constraint": null,
            "use_bias": true,
            "kernel_size": [
               3,
               3
            ],
            "bias_regularizer": null,
            "kernel_constraint": null,
            "bias_initializer": {
               "config": {},
               "class_name": "Zeros"
            },
            "kernel_initializer": {
               "config": {
                  "distribution": "uniform",
                  "mode": "fan_avg",
                  "scale": 1.0,
                  "seed": null
               },
               "class_name": "VarianceScaling"
            },
            "name": "conv2d_78",
            "filters": 192,
            "data_format": "channels_first"
         },
         "class_name": "Conv2D"
      },
      {
         "config": {
            "name": "dropout_77",
            "trainable": true,
            "rate": 0.2
         },
         "class_name": "Dropout"
      },
      {
         "config": {
            "trainable": true,
            "momentum": 0.99,
            "gamma_constraint": null,
            "axis": -1,
            "beta_initializer": {
               "config": {},
               "class_name": "Zeros"
            },
            "gamma_initializer": {
               "config": {},
               "class_name": "Ones"
            },
            "epsilon": 0.001,
            "moving_variance_initializer": {
               "config": {},
               "class_name": "Ones"
            },
            "center": true,
            "gamma_regularizer": null,
            "beta_constraint": null,
            "scale": true,
            "name": "batch_normalization_78",
            "moving_mean_initializer": {
               "config": {},
               "class_name": "Zeros"
            },
            "beta_regularizer": null
         },
         "class_name": "BatchNormalization"
      },
      {
         "config": {
            "name": "activation_78",
            "trainable": true,
            "activation": "relu"
         },
         "class_name": "Activation"
      },
      {
         "config": {
            "trainable": true,
            "dilation_rate": [
               1,
               1
            ],
            "kernel_regularizer": null,
            "activation": "linear",
            "activity_regularizer": null,
            "strides": [
               1,
               1
            ],
            "padding": "same",
            "bias_constraint": null,
            "use_bias": true,
            "kernel_size": [
               3,
               3
            ],
            "bias_regularizer": null,
            "kernel_constraint": null,
            "bias_initializer": {
               "config": {},
               "class_name": "Zeros"
            },
            "kernel_initializer": {
               "config": {
                  "distribution": "uniform",
                  "mode": "fan_avg",
                  "scale": 1.0,
                  "seed": null
               },
               "class_name": "VarianceScaling"
            },
            "name": "conv2d_79",
            "filters": 192,
            "data_format": "channels_first"
         },
         "class_name": "Conv2D"
      },
      {
         "config": {
            "name": "dropout_78",
            "trainable": true,
            "rate": 0.2
         },
         "class_name": "Dropout"
      },
      {
         "config": {
            "trainable": true,
            "dilation_rate": [
               1,
               1
            ],
            "kernel_regularizer": null,
            "activation": "linear",
            "activity_regularizer": null,
            "strides": [
               1,
               1
            ],
            "padding": "same",
            "bias_constraint": null,
            "use_bias": true,
            "kernel_size": [
               3,
               3
            ],
            "bias_regularizer": null,
            "kernel_constraint": null,
            "bias_initializer": {
               "config": {},
               "class_name": "Zeros"
            },
            "kernel_initializer": {
               "config": {
                  "distribution": "uniform",
                  "mode": "fan_avg",
                  "scale": 1.0,
                  "seed": null
               },
               "class_name": "VarianceScaling"
            },
            "name": "conv2d_80",
            "filters": 12,
            "data_format": "channels_first"
         },
         "class_name": "Conv2D"
      },
      {
         "config": {
            "name": "reshape_1",
            "trainable": true,
            "target_shape": [
               12,
               50176
            ]
         },
         "class_name": "Reshape"
      },
      {
         "config": {
            "name": "permute_1",
            "trainable": true,
            "dims": [
               2,
               1
            ]
         },
         "class_name": "Permute"
      },
      {
         "config": {
            "name": "activation_79",
            "trainable": true,
            "activation": "softmax"
         },
         "class_name": "Activation"
      }
   ],
   "backend": "tensorflow",
   "class_name": "Sequential",
   "keras_version": "2.0.2"
}