{
   "class_name": "Sequential",
   "keras_version": "2.0.2",
   "config": [
      {
         "class_name": "Conv2D",
         "config": {
            "data_format": "channels_first",
            "bias_initializer": {
               "class_name": "Zeros",
               "config": {}
            },
            "batch_input_shape": [
               null,
               3,
               224,
               224
            ],
            "kernel_size": [
               3,
               3
            ],
            "kernel_initializer": {
               "class_name": "VarianceScaling",
               "config": {
                  "distribution": "uniform",
                  "scale": 1.0,
                  "mode": "fan_avg",
                  "seed": null
               }
            },
            "activity_regularizer": null,
            "filters": 48,
            "activation": "linear",
            "padding": "same",
            "dilation_rate": [
               1,
               1
            ],
            "kernel_regularizer": null,
            "trainable": true,
            "bias_regularizer": null,
            "use_bias": true,
            "dtype": "float32",
            "kernel_constraint": null,
            "bias_constraint": null,
            "name": "conv2d_1",
            "strides": [
               1,
               1
            ]
         }
      },
      {
         "class_name": "BatchNormalization",
         "config": {
            "gamma_constraint": null,
            "gamma_initializer": {
               "class_name": "Ones",
               "config": {}
            },
            "beta_initializer": {
               "class_name": "Zeros",
               "config": {}
            },
            "axis": -1,
            "momentum": 0.99,
            "center": true,
            "epsilon": 0.001,
            "gamma_regularizer": null,
            "trainable": true,
            "moving_variance_initializer": {
               "class_name": "Ones",
               "config": {}
            },
            "beta_constraint": null,
            "scale": true,
            "beta_regularizer": null,
            "name": "batch_normalization_1",
            "moving_mean_initializer": {
               "class_name": "Zeros",
               "config": {}
            }
         }
      },
      {
         "class_name": "Activation",
         "config": {
            "activation": "relu",
            "trainable": true,
            "name": "activation_1"
         }
      },
      {
         "class_name": "Conv2D",
         "config": {
            "data_format": "channels_first",
            "bias_initializer": {
               "class_name": "Zeros",
               "config": {}
            },
            "kernel_constraint": null,
            "kernel_size": [
               3,
               3
            ],
            "kernel_initializer": {
               "class_name": "VarianceScaling",
               "config": {
                  "distribution": "uniform",
                  "scale": 1.0,
                  "mode": "fan_avg",
                  "seed": null
               }
            },
            "activity_regularizer": null,
            "filters": 112,
            "activation": "linear",
            "padding": "same",
            "dilation_rate": [
               1,
               1
            ],
            "kernel_regularizer": null,
            "trainable": true,
            "bias_regularizer": null,
            "use_bias": true,
            "bias_constraint": null,
            "name": "conv2d_2",
            "strides": [
               1,
               1
            ]
         }
      },
      {
         "class_name": "Dropout",
         "config": {
            "trainable": true,
            "name": "dropout_1",
            "rate": 0.2
         }
      },
      {
         "class_name": "BatchNormalization",
         "config": {
            "gamma_constraint": null,
            "gamma_initializer": {
               "class_name": "Ones",
               "config": {}
            },
            "beta_initializer": {
               "class_name": "Zeros",
               "config": {}
            },
            "axis": -1,
            "momentum": 0.99,
            "center": true,
            "epsilon": 0.001,
            "gamma_regularizer": null,
            "trainable": true,
            "moving_variance_initializer": {
               "class_name": "Ones",
               "config": {}
            },
            "beta_constraint": null,
            "scale": true,
            "beta_regularizer": null,
            "name": "batch_normalization_2",
            "moving_mean_initializer": {
               "class_name": "Zeros",
               "config": {}
            }
         }
      },
      {
         "class_name": "Activation",
         "config": {
            "activation": "relu",
            "trainable": true,
            "name": "activation_2"
         }
      },
      {
         "class_name": "Conv2D",
         "config": {
            "data_format": "channels_first",
            "bias_initializer": {
               "class_name": "Zeros",
               "config": {}
            },
            "kernel_constraint": null,
            "kernel_size": [
               3,
               3
            ],
            "kernel_initializer": {
               "class_name": "VarianceScaling",
               "config": {
                  "distribution": "uniform",
                  "scale": 1.0,
                  "mode": "fan_avg",
                  "seed": null
               }
            },
            "activity_regularizer": null,
            "filters": 112,
            "activation": "linear",
            "padding": "same",
            "dilation_rate": [
               1,
               1
            ],
            "kernel_regularizer": null,
            "trainable": true,
            "bias_regularizer": null,
            "use_bias": true,
            "bias_constraint": null,
            "name": "conv2d_3",
            "strides": [
               1,
               1
            ]
         }
      },
      {
         "class_name": "Dropout",
         "config": {
            "trainable": true,
            "name": "dropout_2",
            "rate": 0.2
         }
      },
      {
         "class_name": "BatchNormalization",
         "config": {
            "gamma_constraint": null,
            "gamma_initializer": {
               "class_name": "Ones",
               "config": {}
            },
            "beta_initializer": {
               "class_name": "Zeros",
               "config": {}
            },
            "axis": -1,
            "momentum": 0.99,
            "center": true,
            "epsilon": 0.001,
            "gamma_regularizer": null,
            "trainable": true,
            "moving_variance_initializer": {
               "class_name": "Ones",
               "config": {}
            },
            "beta_constraint": null,
            "scale": true,
            "beta_regularizer": null,
            "name": "batch_normalization_3",
            "moving_mean_initializer": {
               "class_name": "Zeros",
               "config": {}
            }
         }
      },
      {
         "class_name": "Activation",
         "config": {
            "activation": "relu",
            "trainable": true,
            "name": "activation_3"
         }
      },
      {
         "class_name": "Conv2D",
         "config": {
            "data_format": "channels_first",
            "bias_initializer": {
               "class_name": "Zeros",
               "config": {}
            },
            "kernel_constraint": null,
            "kernel_size": [
               3,
               3
            ],
            "kernel_initializer": {
               "class_name": "VarianceScaling",
               "config": {
                  "distribution": "uniform",
                  "scale": 1.0,
                  "mode": "fan_avg",
                  "seed": null
               }
            },
            "activity_regularizer": null,
            "filters": 112,
            "activation": "linear",
            "padding": "same",
            "dilation_rate": [
               1,
               1
            ],
            "kernel_regularizer": null,
            "trainable": true,
            "bias_regularizer": null,
            "use_bias": true,
            "bias_constraint": null,
            "name": "conv2d_4",
            "strides": [
               1,
               1
            ]
         }
      },
      {
         "class_name": "Dropout",
         "config": {
            "trainable": true,
            "name": "dropout_3",
            "rate": 0.2
         }
      },
      {
         "class_name": "BatchNormalization",
         "config": {
            "gamma_constraint": null,
            "gamma_initializer": {
               "class_name": "Ones",
               "config": {}
            },
            "beta_initializer": {
               "class_name": "Zeros",
               "config": {}
            },
            "axis": -1,
            "momentum": 0.99,
            "center": true,
            "epsilon": 0.001,
            "gamma_regularizer": null,
            "trainable": true,
            "moving_variance_initializer": {
               "class_name": "Ones",
               "config": {}
            },
            "beta_constraint": null,
            "scale": true,
            "beta_regularizer": null,
            "name": "batch_normalization_4",
            "moving_mean_initializer": {
               "class_name": "Zeros",
               "config": {}
            }
         }
      },
      {
         "class_name": "Activation",
         "config": {
            "activation": "relu",
            "trainable": true,
            "name": "activation_4"
         }
      },
      {
         "class_name": "Conv2D",
         "config": {
            "data_format": "channels_first",
            "bias_initializer": {
               "class_name": "Zeros",
               "config": {}
            },
            "kernel_constraint": null,
            "kernel_size": [
               3,
               3
            ],
            "kernel_initializer": {
               "class_name": "VarianceScaling",
               "config": {
                  "distribution": "uniform",
                  "scale": 1.0,
                  "mode": "fan_avg",
                  "seed": null
               }
            },
            "activity_regularizer": null,
            "filters": 112,
            "activation": "linear",
            "padding": "same",
            "dilation_rate": [
               1,
               1
            ],
            "kernel_regularizer": null,
            "trainable": true,
            "bias_regularizer": null,
            "use_bias": true,
            "bias_constraint": null,
            "name": "conv2d_5",
            "strides": [
               1,
               1
            ]
         }
      },
      {
         "class_name": "Dropout",
         "config": {
            "trainable": true,
            "name": "dropout_4",
            "rate": 0.2
         }
      },
      {
         "class_name": "BatchNormalization",
         "config": {
            "gamma_constraint": null,
            "gamma_initializer": {
               "class_name": "Ones",
               "config": {}
            },
            "beta_initializer": {
               "class_name": "Zeros",
               "config": {}
            },
            "axis": -1,
            "momentum": 0.99,
            "center": true,
            "epsilon": 0.001,
            "gamma_regularizer": null,
            "trainable": true,
            "moving_variance_initializer": {
               "class_name": "Ones",
               "config": {}
            },
            "beta_constraint": null,
            "scale": true,
            "beta_regularizer": null,
            "name": "batch_normalization_5",
            "moving_mean_initializer": {
               "class_name": "Zeros",
               "config": {}
            }
         }
      },
      {
         "class_name": "Activation",
         "config": {
            "activation": "relu",
            "trainable": true,
            "name": "activation_5"
         }
      },
      {
         "class_name": "Conv2D",
         "config": {
            "data_format": "channels_first",
            "bias_initializer": {
               "class_name": "Zeros",
               "config": {}
            },
            "kernel_constraint": null,
            "kernel_size": [
               1,
               1
            ],
            "kernel_initializer": {
               "class_name": "VarianceScaling",
               "config": {
                  "distribution": "uniform",
                  "scale": 1.0,
                  "mode": "fan_avg",
                  "seed": null
               }
            },
            "activity_regularizer": null,
            "filters": 112,
            "activation": "linear",
            "padding": "same",
            "dilation_rate": [
               1,
               1
            ],
            "kernel_regularizer": null,
            "trainable": true,
            "bias_regularizer": null,
            "use_bias": true,
            "bias_constraint": null,
            "name": "conv2d_6",
            "strides": [
               1,
               1
            ]
         }
      },
      {
         "class_name": "Dropout",
         "config": {
            "trainable": true,
            "name": "dropout_5",
            "rate": 0.2
         }
      },
      {
         "class_name": "MaxPooling2D",
         "config": {
            "pool_size": [
               2,
               2
            ],
            "data_format": "channels_first",
            "trainable": true,
            "padding": "valid",
            "name": "max_pooling2d_1",
            "strides": [
               2,
               2
            ]
         }
      },
      {
         "class_name": "BatchNormalization",
         "config": {
            "gamma_constraint": null,
            "gamma_initializer": {
               "class_name": "Ones",
               "config": {}
            },
            "beta_initializer": {
               "class_name": "Zeros",
               "config": {}
            },
            "axis": -1,
            "momentum": 0.99,
            "center": true,
            "epsilon": 0.001,
            "gamma_regularizer": null,
            "trainable": true,
            "moving_variance_initializer": {
               "class_name": "Ones",
               "config": {}
            },
            "beta_constraint": null,
            "scale": true,
            "beta_regularizer": null,
            "name": "batch_normalization_6",
            "moving_mean_initializer": {
               "class_name": "Zeros",
               "config": {}
            }
         }
      },
      {
         "class_name": "Activation",
         "config": {
            "activation": "relu",
            "trainable": true,
            "name": "activation_6"
         }
      },
      {
         "class_name": "Conv2D",
         "config": {
            "data_format": "channels_first",
            "bias_initializer": {
               "class_name": "Zeros",
               "config": {}
            },
            "kernel_constraint": null,
            "kernel_size": [
               3,
               3
            ],
            "kernel_initializer": {
               "class_name": "VarianceScaling",
               "config": {
                  "distribution": "uniform",
                  "scale": 1.0,
                  "mode": "fan_avg",
                  "seed": null
               }
            },
            "activity_regularizer": null,
            "filters": 192,
            "activation": "linear",
            "padding": "same",
            "dilation_rate": [
               1,
               1
            ],
            "kernel_regularizer": null,
            "trainable": true,
            "bias_regularizer": null,
            "use_bias": true,
            "bias_constraint": null,
            "name": "conv2d_7",
            "strides": [
               1,
               1
            ]
         }
      },
      {
         "class_name": "Dropout",
         "config": {
            "trainable": true,
            "name": "dropout_6",
            "rate": 0.2
         }
      },
      {
         "class_name": "BatchNormalization",
         "config": {
            "gamma_constraint": null,
            "gamma_initializer": {
               "class_name": "Ones",
               "config": {}
            },
            "beta_initializer": {
               "class_name": "Zeros",
               "config": {}
            },
            "axis": -1,
            "momentum": 0.99,
            "center": true,
            "epsilon": 0.001,
            "gamma_regularizer": null,
            "trainable": true,
            "moving_variance_initializer": {
               "class_name": "Ones",
               "config": {}
            },
            "beta_constraint": null,
            "scale": true,
            "beta_regularizer": null,
            "name": "batch_normalization_7",
            "moving_mean_initializer": {
               "class_name": "Zeros",
               "config": {}
            }
         }
      },
      {
         "class_name": "Activation",
         "config": {
            "activation": "relu",
            "trainable": true,
            "name": "activation_7"
         }
      },
      {
         "class_name": "Conv2D",
         "config": {
            "data_format": "channels_first",
            "bias_initializer": {
               "class_name": "Zeros",
               "config": {}
            },
            "kernel_constraint": null,
            "kernel_size": [
               3,
               3
            ],
            "kernel_initializer": {
               "class_name": "VarianceScaling",
               "config": {
                  "distribution": "uniform",
                  "scale": 1.0,
                  "mode": "fan_avg",
                  "seed": null
               }
            },
            "activity_regularizer": null,
            "filters": 192,
            "activation": "linear",
            "padding": "same",
            "dilation_rate": [
               1,
               1
            ],
            "kernel_regularizer": null,
            "trainable": true,
            "bias_regularizer": null,
            "use_bias": true,
            "bias_constraint": null,
            "name": "conv2d_8",
            "strides": [
               1,
               1
            ]
         }
      },
      {
         "class_name": "Dropout",
         "config": {
            "trainable": true,
            "name": "dropout_7",
            "rate": 0.2
         }
      },
      {
         "class_name": "BatchNormalization",
         "config": {
            "gamma_constraint": null,
            "gamma_initializer": {
               "class_name": "Ones",
               "config": {}
            },
            "beta_initializer": {
               "class_name": "Zeros",
               "config": {}
            },
            "axis": -1,
            "momentum": 0.99,
            "center": true,
            "epsilon": 0.001,
            "gamma_regularizer": null,
            "trainable": true,
            "moving_variance_initializer": {
               "class_name": "Ones",
               "config": {}
            },
            "beta_constraint": null,
            "scale": true,
            "beta_regularizer": null,
            "name": "batch_normalization_8",
            "moving_mean_initializer": {
               "class_name": "Zeros",
               "config": {}
            }
         }
      },
      {
         "class_name": "Activation",
         "config": {
            "activation": "relu",
            "trainable": true,
            "name": "activation_8"
         }
      },
      {
         "class_name": "Conv2D",
         "config": {
            "data_format": "channels_first",
            "bias_initializer": {
               "class_name": "Zeros",
               "config": {}
            },
            "kernel_constraint": null,
            "kernel_size": [
               3,
               3
            ],
            "kernel_initializer": {
               "class_name": "VarianceScaling",
               "config": {
                  "distribution": "uniform",
                  "scale": 1.0,
                  "mode": "fan_avg",
                  "seed": null
               }
            },
            "activity_regularizer": null,
            "filters": 192,
            "activation": "linear",
            "padding": "same",
            "dilation_rate": [
               1,
               1
            ],
            "kernel_regularizer": null,
            "trainable": true,
            "bias_regularizer": null,
            "use_bias": true,
            "bias_constraint": null,
            "name": "conv2d_9",
            "strides": [
               1,
               1
            ]
         }
      },
      {
         "class_name": "Dropout",
         "config": {
            "trainable": true,
            "name": "dropout_8",
            "rate": 0.2
         }
      },
      {
         "class_name": "BatchNormalization",
         "config": {
            "gamma_constraint": null,
            "gamma_initializer": {
               "class_name": "Ones",
               "config": {}
            },
            "beta_initializer": {
               "class_name": "Zeros",
               "config": {}
            },
            "axis": -1,
            "momentum": 0.99,
            "center": true,
            "epsilon": 0.001,
            "gamma_regularizer": null,
            "trainable": true,
            "moving_variance_initializer": {
               "class_name": "Ones",
               "config": {}
            },
            "beta_constraint": null,
            "scale": true,
            "beta_regularizer": null,
            "name": "batch_normalization_9",
            "moving_mean_initializer": {
               "class_name": "Zeros",
               "config": {}
            }
         }
      },
      {
         "class_name": "Activation",
         "config": {
            "activation": "relu",
            "trainable": true,
            "name": "activation_9"
         }
      },
      {
         "class_name": "Conv2D",
         "config": {
            "data_format": "channels_first",
            "bias_initializer": {
               "class_name": "Zeros",
               "config": {}
            },
            "kernel_constraint": null,
            "kernel_size": [
               3,
               3
            ],
            "kernel_initializer": {
               "class_name": "VarianceScaling",
               "config": {
                  "distribution": "uniform",
                  "scale": 1.0,
                  "mode": "fan_avg",
                  "seed": null
               }
            },
            "activity_regularizer": null,
            "filters": 192,
            "activation": "linear",
            "padding": "same",
            "dilation_rate": [
               1,
               1
            ],
            "kernel_regularizer": null,
            "trainable": true,
            "bias_regularizer": null,
            "use_bias": true,
            "bias_constraint": null,
            "name": "conv2d_10",
            "strides": [
               1,
               1
            ]
         }
      },
      {
         "class_name": "Dropout",
         "config": {
            "trainable": true,
            "name": "dropout_9",
            "rate": 0.2
         }
      },
      {
         "class_name": "BatchNormalization",
         "config": {
            "gamma_constraint": null,
            "gamma_initializer": {
               "class_name": "Ones",
               "config": {}
            },
            "beta_initializer": {
               "class_name": "Zeros",
               "config": {}
            },
            "axis": -1,
            "momentum": 0.99,
            "center": true,
            "epsilon": 0.001,
            "gamma_regularizer": null,
            "trainable": true,
            "moving_variance_initializer": {
               "class_name": "Ones",
               "config": {}
            },
            "beta_constraint": null,
            "scale": true,
            "beta_regularizer": null,
            "name": "batch_normalization_10",
            "moving_mean_initializer": {
               "class_name": "Zeros",
               "config": {}
            }
         }
      },
      {
         "class_name": "Activation",
         "config": {
            "activation": "relu",
            "trainable": true,
            "name": "activation_10"
         }
      },
      {
         "class_name": "Conv2D",
         "config": {
            "data_format": "channels_first",
            "bias_initializer": {
               "class_name": "Zeros",
               "config": {}
            },
            "kernel_constraint": null,
            "kernel_size": [
               3,
               3
            ],
            "kernel_initializer": {
               "class_name": "VarianceScaling",
               "config": {
                  "distribution": "uniform",
                  "scale": 1.0,
                  "mode": "fan_avg",
                  "seed": null
               }
            },
            "activity_regularizer": null,
            "filters": 192,
            "activation": "linear",
            "padding": "same",
            "dilation_rate": [
               1,
               1
            ],
            "kernel_regularizer": null,
            "trainable": true,
            "bias_regularizer": null,
            "use_bias": true,
            "bias_constraint": null,
            "name": "conv2d_11",
            "strides": [
               1,
               1
            ]
         }
      },
      {
         "class_name": "Dropout",
         "config": {
            "trainable": true,
            "name": "dropout_10",
            "rate": 0.2
         }
      },
      {
         "class_name": "BatchNormalization",
         "config": {
            "gamma_constraint": null,
            "gamma_initializer": {
               "class_name": "Ones",
               "config": {}
            },
            "beta_initializer": {
               "class_name": "Zeros",
               "config": {}
            },
            "axis": -1,
            "momentum": 0.99,
            "center": true,
            "epsilon": 0.001,
            "gamma_regularizer": null,
            "trainable": true,
            "moving_variance_initializer": {
               "class_name": "Ones",
               "config": {}
            },
            "beta_constraint": null,
            "scale": true,
            "beta_regularizer": null,
            "name": "batch_normalization_11",
            "moving_mean_initializer": {
               "class_name": "Zeros",
               "config": {}
            }
         }
      },
      {
         "class_name": "Activation",
         "config": {
            "activation": "relu",
            "trainable": true,
            "name": "activation_11"
         }
      },
      {
         "class_name": "Conv2D",
         "config": {
            "data_format": "channels_first",
            "bias_initializer": {
               "class_name": "Zeros",
               "config": {}
            },
            "kernel_constraint": null,
            "kernel_size": [
               1,
               1
            ],
            "kernel_initializer": {
               "class_name": "VarianceScaling",
               "config": {
                  "distribution": "uniform",
                  "scale": 1.0,
                  "mode": "fan_avg",
                  "seed": null
               }
            },
            "activity_regularizer": null,
            "filters": 192,
            "activation": "linear",
            "padding": "same",
            "dilation_rate": [
               1,
               1
            ],
            "kernel_regularizer": null,
            "trainable": true,
            "bias_regularizer": null,
            "use_bias": true,
            "bias_constraint": null,
            "name": "conv2d_12",
            "strides": [
               1,
               1
            ]
         }
      },
      {
         "class_name": "Dropout",
         "config": {
            "trainable": true,
            "name": "dropout_11",
            "rate": 0.2
         }
      },
      {
         "class_name": "MaxPooling2D",
         "config": {
            "pool_size": [
               2,
               2
            ],
            "data_format": "channels_first",
            "trainable": true,
            "padding": "valid",
            "name": "max_pooling2d_2",
            "strides": [
               2,
               2
            ]
         }
      },
      {
         "class_name": "BatchNormalization",
         "config": {
            "gamma_constraint": null,
            "gamma_initializer": {
               "class_name": "Ones",
               "config": {}
            },
            "beta_initializer": {
               "class_name": "Zeros",
               "config": {}
            },
            "axis": -1,
            "momentum": 0.99,
            "center": true,
            "epsilon": 0.001,
            "gamma_regularizer": null,
            "trainable": true,
            "moving_variance_initializer": {
               "class_name": "Ones",
               "config": {}
            },
            "beta_constraint": null,
            "scale": true,
            "beta_regularizer": null,
            "name": "batch_normalization_12",
            "moving_mean_initializer": {
               "class_name": "Zeros",
               "config": {}
            }
         }
      },
      {
         "class_name": "Activation",
         "config": {
            "activation": "relu",
            "trainable": true,
            "name": "activation_12"
         }
      },
      {
         "class_name": "Conv2D",
         "config": {
            "data_format": "channels_first",
            "bias_initializer": {
               "class_name": "Zeros",
               "config": {}
            },
            "kernel_constraint": null,
            "kernel_size": [
               3,
               3
            ],
            "kernel_initializer": {
               "class_name": "VarianceScaling",
               "config": {
                  "distribution": "uniform",
                  "scale": 1.0,
                  "mode": "fan_avg",
                  "seed": null
               }
            },
            "activity_regularizer": null,
            "filters": 304,
            "activation": "linear",
            "padding": "same",
            "dilation_rate": [
               1,
               1
            ],
            "kernel_regularizer": null,
            "trainable": true,
            "bias_regularizer": null,
            "use_bias": true,
            "bias_constraint": null,
            "name": "conv2d_13",
            "strides": [
               1,
               1
            ]
         }
      },
      {
         "class_name": "Dropout",
         "config": {
            "trainable": true,
            "name": "dropout_12",
            "rate": 0.2
         }
      },
      {
         "class_name": "BatchNormalization",
         "config": {
            "gamma_constraint": null,
            "gamma_initializer": {
               "class_name": "Ones",
               "config": {}
            },
            "beta_initializer": {
               "class_name": "Zeros",
               "config": {}
            },
            "axis": -1,
            "momentum": 0.99,
            "center": true,
            "epsilon": 0.001,
            "gamma_regularizer": null,
            "trainable": true,
            "moving_variance_initializer": {
               "class_name": "Ones",
               "config": {}
            },
            "beta_constraint": null,
            "scale": true,
            "beta_regularizer": null,
            "name": "batch_normalization_13",
            "moving_mean_initializer": {
               "class_name": "Zeros",
               "config": {}
            }
         }
      },
      {
         "class_name": "Activation",
         "config": {
            "activation": "relu",
            "trainable": true,
            "name": "activation_13"
         }
      },
      {
         "class_name": "Conv2D",
         "config": {
            "data_format": "channels_first",
            "bias_initializer": {
               "class_name": "Zeros",
               "config": {}
            },
            "kernel_constraint": null,
            "kernel_size": [
               3,
               3
            ],
            "kernel_initializer": {
               "class_name": "VarianceScaling",
               "config": {
                  "distribution": "uniform",
                  "scale": 1.0,
                  "mode": "fan_avg",
                  "seed": null
               }
            },
            "activity_regularizer": null,
            "filters": 304,
            "activation": "linear",
            "padding": "same",
            "dilation_rate": [
               1,
               1
            ],
            "kernel_regularizer": null,
            "trainable": true,
            "bias_regularizer": null,
            "use_bias": true,
            "bias_constraint": null,
            "name": "conv2d_14",
            "strides": [
               1,
               1
            ]
         }
      },
      {
         "class_name": "Dropout",
         "config": {
            "trainable": true,
            "name": "dropout_13",
            "rate": 0.2
         }
      },
      {
         "class_name": "BatchNormalization",
         "config": {
            "gamma_constraint": null,
            "gamma_initializer": {
               "class_name": "Ones",
               "config": {}
            },
            "beta_initializer": {
               "class_name": "Zeros",
               "config": {}
            },
            "axis": -1,
            "momentum": 0.99,
            "center": true,
            "epsilon": 0.001,
            "gamma_regularizer": null,
            "trainable": true,
            "moving_variance_initializer": {
               "class_name": "Ones",
               "config": {}
            },
            "beta_constraint": null,
            "scale": true,
            "beta_regularizer": null,
            "name": "batch_normalization_14",
            "moving_mean_initializer": {
               "class_name": "Zeros",
               "config": {}
            }
         }
      },
      {
         "class_name": "Activation",
         "config": {
            "activation": "relu",
            "trainable": true,
            "name": "activation_14"
         }
      },
      {
         "class_name": "Conv2D",
         "config": {
            "data_format": "channels_first",
            "bias_initializer": {
               "class_name": "Zeros",
               "config": {}
            },
            "kernel_constraint": null,
            "kernel_size": [
               3,
               3
            ],
            "kernel_initializer": {
               "class_name": "VarianceScaling",
               "config": {
                  "distribution": "uniform",
                  "scale": 1.0,
                  "mode": "fan_avg",
                  "seed": null
               }
            },
            "activity_regularizer": null,
            "filters": 304,
            "activation": "linear",
            "padding": "same",
            "dilation_rate": [
               1,
               1
            ],
            "kernel_regularizer": null,
            "trainable": true,
            "bias_regularizer": null,
            "use_bias": true,
            "bias_constraint": null,
            "name": "conv2d_15",
            "strides": [
               1,
               1
            ]
         }
      },
      {
         "class_name": "Dropout",
         "config": {
            "trainable": true,
            "name": "dropout_14",
            "rate": 0.2
         }
      },
      {
         "class_name": "BatchNormalization",
         "config": {
            "gamma_constraint": null,
            "gamma_initializer": {
               "class_name": "Ones",
               "config": {}
            },
            "beta_initializer": {
               "class_name": "Zeros",
               "config": {}
            },
            "axis": -1,
            "momentum": 0.99,
            "center": true,
            "epsilon": 0.001,
            "gamma_regularizer": null,
            "trainable": true,
            "moving_variance_initializer": {
               "class_name": "Ones",
               "config": {}
            },
            "beta_constraint": null,
            "scale": true,
            "beta_regularizer": null,
            "name": "batch_normalization_15",
            "moving_mean_initializer": {
               "class_name": "Zeros",
               "config": {}
            }
         }
      },
      {
         "class_name": "Activation",
         "config": {
            "activation": "relu",
            "trainable": true,
            "name": "activation_15"
         }
      },
      {
         "class_name": "Conv2D",
         "config": {
            "data_format": "channels_first",
            "bias_initializer": {
               "class_name": "Zeros",
               "config": {}
            },
            "kernel_constraint": null,
            "kernel_size": [
               3,
               3
            ],
            "kernel_initializer": {
               "class_name": "VarianceScaling",
               "config": {
                  "distribution": "uniform",
                  "scale": 1.0,
                  "mode": "fan_avg",
                  "seed": null
               }
            },
            "activity_regularizer": null,
            "filters": 304,
            "activation": "linear",
            "padding": "same",
            "dilation_rate": [
               1,
               1
            ],
            "kernel_regularizer": null,
            "trainable": true,
            "bias_regularizer": null,
            "use_bias": true,
            "bias_constraint": null,
            "name": "conv2d_16",
            "strides": [
               1,
               1
            ]
         }
      },
      {
         "class_name": "Dropout",
         "config": {
            "trainable": true,
            "name": "dropout_15",
            "rate": 0.2
         }
      },
      {
         "class_name": "BatchNormalization",
         "config": {
            "gamma_constraint": null,
            "gamma_initializer": {
               "class_name": "Ones",
               "config": {}
            },
            "beta_initializer": {
               "class_name": "Zeros",
               "config": {}
            },
            "axis": -1,
            "momentum": 0.99,
            "center": true,
            "epsilon": 0.001,
            "gamma_regularizer": null,
            "trainable": true,
            "moving_variance_initializer": {
               "class_name": "Ones",
               "config": {}
            },
            "beta_constraint": null,
            "scale": true,
            "beta_regularizer": null,
            "name": "batch_normalization_16",
            "moving_mean_initializer": {
               "class_name": "Zeros",
               "config": {}
            }
         }
      },
      {
         "class_name": "Activation",
         "config": {
            "activation": "relu",
            "trainable": true,
            "name": "activation_16"
         }
      },
      {
         "class_name": "Conv2D",
         "config": {
            "data_format": "channels_first",
            "bias_initializer": {
               "class_name": "Zeros",
               "config": {}
            },
            "kernel_constraint": null,
            "kernel_size": [
               3,
               3
            ],
            "kernel_initializer": {
               "class_name": "VarianceScaling",
               "config": {
                  "distribution": "uniform",
                  "scale": 1.0,
                  "mode": "fan_avg",
                  "seed": null
               }
            },
            "activity_regularizer": null,
            "filters": 304,
            "activation": "linear",
            "padding": "same",
            "dilation_rate": [
               1,
               1
            ],
            "kernel_regularizer": null,
            "trainable": true,
            "bias_regularizer": null,
            "use_bias": true,
            "bias_constraint": null,
            "name": "conv2d_17",
            "strides": [
               1,
               1
            ]
         }
      },
      {
         "class_name": "Dropout",
         "config": {
            "trainable": true,
            "name": "dropout_16",
            "rate": 0.2
         }
      },
      {
         "class_name": "BatchNormalization",
         "config": {
            "gamma_constraint": null,
            "gamma_initializer": {
               "class_name": "Ones",
               "config": {}
            },
            "beta_initializer": {
               "class_name": "Zeros",
               "config": {}
            },
            "axis": -1,
            "momentum": 0.99,
            "center": true,
            "epsilon": 0.001,
            "gamma_regularizer": null,
            "trainable": true,
            "moving_variance_initializer": {
               "class_name": "Ones",
               "config": {}
            },
            "beta_constraint": null,
            "scale": true,
            "beta_regularizer": null,
            "name": "batch_normalization_17",
            "moving_mean_initializer": {
               "class_name": "Zeros",
               "config": {}
            }
         }
      },
      {
         "class_name": "Activation",
         "config": {
            "activation": "relu",
            "trainable": true,
            "name": "activation_17"
         }
      },
      {
         "class_name": "Conv2D",
         "config": {
            "data_format": "channels_first",
            "bias_initializer": {
               "class_name": "Zeros",
               "config": {}
            },
            "kernel_constraint": null,
            "kernel_size": [
               3,
               3
            ],
            "kernel_initializer": {
               "class_name": "VarianceScaling",
               "config": {
                  "distribution": "uniform",
                  "scale": 1.0,
                  "mode": "fan_avg",
                  "seed": null
               }
            },
            "activity_regularizer": null,
            "filters": 304,
            "activation": "linear",
            "padding": "same",
            "dilation_rate": [
               1,
               1
            ],
            "kernel_regularizer": null,
            "trainable": true,
            "bias_regularizer": null,
            "use_bias": true,
            "bias_constraint": null,
            "name": "conv2d_18",
            "strides": [
               1,
               1
            ]
         }
      },
      {
         "class_name": "Dropout",
         "config": {
            "trainable": true,
            "name": "dropout_17",
            "rate": 0.2
         }
      },
      {
         "class_name": "BatchNormalization",
         "config": {
            "gamma_constraint": null,
            "gamma_initializer": {
               "class_name": "Ones",
               "config": {}
            },
            "beta_initializer": {
               "class_name": "Zeros",
               "config": {}
            },
            "axis": -1,
            "momentum": 0.99,
            "center": true,
            "epsilon": 0.001,
            "gamma_regularizer": null,
            "trainable": true,
            "moving_variance_initializer": {
               "class_name": "Ones",
               "config": {}
            },
            "beta_constraint": null,
            "scale": true,
            "beta_regularizer": null,
            "name": "batch_normalization_18",
            "moving_mean_initializer": {
               "class_name": "Zeros",
               "config": {}
            }
         }
      },
      {
         "class_name": "Activation",
         "config": {
            "activation": "relu",
            "trainable": true,
            "name": "activation_18"
         }
      },
      {
         "class_name": "Conv2D",
         "config": {
            "data_format": "channels_first",
            "bias_initializer": {
               "class_name": "Zeros",
               "config": {}
            },
            "kernel_constraint": null,
            "kernel_size": [
               3,
               3
            ],
            "kernel_initializer": {
               "class_name": "VarianceScaling",
               "config": {
                  "distribution": "uniform",
                  "scale": 1.0,
                  "mode": "fan_avg",
                  "seed": null
               }
            },
            "activity_regularizer": null,
            "filters": 304,
            "activation": "linear",
            "padding": "same",
            "dilation_rate": [
               1,
               1
            ],
            "kernel_regularizer": null,
            "trainable": true,
            "bias_regularizer": null,
            "use_bias": true,
            "bias_constraint": null,
            "name": "conv2d_19",
            "strides": [
               1,
               1
            ]
         }
      },
      {
         "class_name": "Dropout",
         "config": {
            "trainable": true,
            "name": "dropout_18",
            "rate": 0.2
         }
      },
      {
         "class_name": "BatchNormalization",
         "config": {
            "gamma_constraint": null,
            "gamma_initializer": {
               "class_name": "Ones",
               "config": {}
            },
            "beta_initializer": {
               "class_name": "Zeros",
               "config": {}
            },
            "axis": -1,
            "momentum": 0.99,
            "center": true,
            "epsilon": 0.001,
            "gamma_regularizer": null,
            "trainable": true,
            "moving_variance_initializer": {
               "class_name": "Ones",
               "config": {}
            },
            "beta_constraint": null,
            "scale": true,
            "beta_regularizer": null,
            "name": "batch_normalization_19",
            "moving_mean_initializer": {
               "class_name": "Zeros",
               "config": {}
            }
         }
      },
      {
         "class_name": "Activation",
         "config": {
            "activation": "relu",
            "trainable": true,
            "name": "activation_19"
         }
      },
      {
         "class_name": "Conv2D",
         "config": {
            "data_format": "channels_first",
            "bias_initializer": {
               "class_name": "Zeros",
               "config": {}
            },
            "kernel_constraint": null,
            "kernel_size": [
               1,
               1
            ],
            "kernel_initializer": {
               "class_name": "VarianceScaling",
               "config": {
                  "distribution": "uniform",
                  "scale": 1.0,
                  "mode": "fan_avg",
                  "seed": null
               }
            },
            "activity_regularizer": null,
            "filters": 304,
            "activation": "linear",
            "padding": "same",
            "dilation_rate": [
               1,
               1
            ],
            "kernel_regularizer": null,
            "trainable": true,
            "bias_regularizer": null,
            "use_bias": true,
            "bias_constraint": null,
            "name": "conv2d_20",
            "strides": [
               1,
               1
            ]
         }
      },
      {
         "class_name": "Dropout",
         "config": {
            "trainable": true,
            "name": "dropout_19",
            "rate": 0.2
         }
      },
      {
         "class_name": "MaxPooling2D",
         "config": {
            "pool_size": [
               2,
               2
            ],
            "data_format": "channels_first",
            "trainable": true,
            "padding": "valid",
            "name": "max_pooling2d_3",
            "strides": [
               2,
               2
            ]
         }
      },
      {
         "class_name": "BatchNormalization",
         "config": {
            "gamma_constraint": null,
            "gamma_initializer": {
               "class_name": "Ones",
               "config": {}
            },
            "beta_initializer": {
               "class_name": "Zeros",
               "config": {}
            },
            "axis": -1,
            "momentum": 0.99,
            "center": true,
            "epsilon": 0.001,
            "gamma_regularizer": null,
            "trainable": true,
            "moving_variance_initializer": {
               "class_name": "Ones",
               "config": {}
            },
            "beta_constraint": null,
            "scale": true,
            "beta_regularizer": null,
            "name": "batch_normalization_20",
            "moving_mean_initializer": {
               "class_name": "Zeros",
               "config": {}
            }
         }
      },
      {
         "class_name": "Activation",
         "config": {
            "activation": "relu",
            "trainable": true,
            "name": "activation_20"
         }
      },
      {
         "class_name": "Conv2D",
         "config": {
            "data_format": "channels_first",
            "bias_initializer": {
               "class_name": "Zeros",
               "config": {}
            },
            "kernel_constraint": null,
            "kernel_size": [
               3,
               3
            ],
            "kernel_initializer": {
               "class_name": "VarianceScaling",
               "config": {
                  "distribution": "uniform",
                  "scale": 1.0,
                  "mode": "fan_avg",
                  "seed": null
               }
            },
            "activity_regularizer": null,
            "filters": 464,
            "activation": "linear",
            "padding": "same",
            "dilation_rate": [
               1,
               1
            ],
            "kernel_regularizer": null,
            "trainable": true,
            "bias_regularizer": null,
            "use_bias": true,
            "bias_constraint": null,
            "name": "conv2d_21",
            "strides": [
               1,
               1
            ]
         }
      },
      {
         "class_name": "Dropout",
         "config": {
            "trainable": true,
            "name": "dropout_20",
            "rate": 0.2
         }
      },
      {
         "class_name": "BatchNormalization",
         "config": {
            "gamma_constraint": null,
            "gamma_initializer": {
               "class_name": "Ones",
               "config": {}
            },
            "beta_initializer": {
               "class_name": "Zeros",
               "config": {}
            },
            "axis": -1,
            "momentum": 0.99,
            "center": true,
            "epsilon": 0.001,
            "gamma_regularizer": null,
            "trainable": true,
            "moving_variance_initializer": {
               "class_name": "Ones",
               "config": {}
            },
            "beta_constraint": null,
            "scale": true,
            "beta_regularizer": null,
            "name": "batch_normalization_21",
            "moving_mean_initializer": {
               "class_name": "Zeros",
               "config": {}
            }
         }
      },
      {
         "class_name": "Activation",
         "config": {
            "activation": "relu",
            "trainable": true,
            "name": "activation_21"
         }
      },
      {
         "class_name": "Conv2D",
         "config": {
            "data_format": "channels_first",
            "bias_initializer": {
               "class_name": "Zeros",
               "config": {}
            },
            "kernel_constraint": null,
            "kernel_size": [
               3,
               3
            ],
            "kernel_initializer": {
               "class_name": "VarianceScaling",
               "config": {
                  "distribution": "uniform",
                  "scale": 1.0,
                  "mode": "fan_avg",
                  "seed": null
               }
            },
            "activity_regularizer": null,
            "filters": 464,
            "activation": "linear",
            "padding": "same",
            "dilation_rate": [
               1,
               1
            ],
            "kernel_regularizer": null,
            "trainable": true,
            "bias_regularizer": null,
            "use_bias": true,
            "bias_constraint": null,
            "name": "conv2d_22",
            "strides": [
               1,
               1
            ]
         }
      },
      {
         "class_name": "Dropout",
         "config": {
            "trainable": true,
            "name": "dropout_21",
            "rate": 0.2
         }
      },
      {
         "class_name": "BatchNormalization",
         "config": {
            "gamma_constraint": null,
            "gamma_initializer": {
               "class_name": "Ones",
               "config": {}
            },
            "beta_initializer": {
               "class_name": "Zeros",
               "config": {}
            },
            "axis": -1,
            "momentum": 0.99,
            "center": true,
            "epsilon": 0.001,
            "gamma_regularizer": null,
            "trainable": true,
            "moving_variance_initializer": {
               "class_name": "Ones",
               "config": {}
            },
            "beta_constraint": null,
            "scale": true,
            "beta_regularizer": null,
            "name": "batch_normalization_22",
            "moving_mean_initializer": {
               "class_name": "Zeros",
               "config": {}
            }
         }
      },
      {
         "class_name": "Activation",
         "config": {
            "activation": "relu",
            "trainable": true,
            "name": "activation_22"
         }
      },
      {
         "class_name": "Conv2D",
         "config": {
            "data_format": "channels_first",
            "bias_initializer": {
               "class_name": "Zeros",
               "config": {}
            },
            "kernel_constraint": null,
            "kernel_size": [
               3,
               3
            ],
            "kernel_initializer": {
               "class_name": "VarianceScaling",
               "config": {
                  "distribution": "uniform",
                  "scale": 1.0,
                  "mode": "fan_avg",
                  "seed": null
               }
            },
            "activity_regularizer": null,
            "filters": 464,
            "activation": "linear",
            "padding": "same",
            "dilation_rate": [
               1,
               1
            ],
            "kernel_regularizer": null,
            "trainable": true,
            "bias_regularizer": null,
            "use_bias": true,
            "bias_constraint": null,
            "name": "conv2d_23",
            "strides": [
               1,
               1
            ]
         }
      },
      {
         "class_name": "Dropout",
         "config": {
            "trainable": true,
            "name": "dropout_22",
            "rate": 0.2
         }
      },
      {
         "class_name": "BatchNormalization",
         "config": {
            "gamma_constraint": null,
            "gamma_initializer": {
               "class_name": "Ones",
               "config": {}
            },
            "beta_initializer": {
               "class_name": "Zeros",
               "config": {}
            },
            "axis": -1,
            "momentum": 0.99,
            "center": true,
            "epsilon": 0.001,
            "gamma_regularizer": null,
            "trainable": true,
            "moving_variance_initializer": {
               "class_name": "Ones",
               "config": {}
            },
            "beta_constraint": null,
            "scale": true,
            "beta_regularizer": null,
            "name": "batch_normalization_23",
            "moving_mean_initializer": {
               "class_name": "Zeros",
               "config": {}
            }
         }
      },
      {
         "class_name": "Activation",
         "config": {
            "activation": "relu",
            "trainable": true,
            "name": "activation_23"
         }
      },
      {
         "class_name": "Conv2D",
         "config": {
            "data_format": "channels_first",
            "bias_initializer": {
               "class_name": "Zeros",
               "config": {}
            },
            "kernel_constraint": null,
            "kernel_size": [
               3,
               3
            ],
            "kernel_initializer": {
               "class_name": "VarianceScaling",
               "config": {
                  "distribution": "uniform",
                  "scale": 1.0,
                  "mode": "fan_avg",
                  "seed": null
               }
            },
            "activity_regularizer": null,
            "filters": 464,
            "activation": "linear",
            "padding": "same",
            "dilation_rate": [
               1,
               1
            ],
            "kernel_regularizer": null,
            "trainable": true,
            "bias_regularizer": null,
            "use_bias": true,
            "bias_constraint": null,
            "name": "conv2d_24",
            "strides": [
               1,
               1
            ]
         }
      },
      {
         "class_name": "Dropout",
         "config": {
            "trainable": true,
            "name": "dropout_23",
            "rate": 0.2
         }
      },
      {
         "class_name": "BatchNormalization",
         "config": {
            "gamma_constraint": null,
            "gamma_initializer": {
               "class_name": "Ones",
               "config": {}
            },
            "beta_initializer": {
               "class_name": "Zeros",
               "config": {}
            },
            "axis": -1,
            "momentum": 0.99,
            "center": true,
            "epsilon": 0.001,
            "gamma_regularizer": null,
            "trainable": true,
            "moving_variance_initializer": {
               "class_name": "Ones",
               "config": {}
            },
            "beta_constraint": null,
            "scale": true,
            "beta_regularizer": null,
            "name": "batch_normalization_24",
            "moving_mean_initializer": {
               "class_name": "Zeros",
               "config": {}
            }
         }
      },
      {
         "class_name": "Activation",
         "config": {
            "activation": "relu",
            "trainable": true,
            "name": "activation_24"
         }
      },
      {
         "class_name": "Conv2D",
         "config": {
            "data_format": "channels_first",
            "bias_initializer": {
               "class_name": "Zeros",
               "config": {}
            },
            "kernel_constraint": null,
            "kernel_size": [
               3,
               3
            ],
            "kernel_initializer": {
               "class_name": "VarianceScaling",
               "config": {
                  "distribution": "uniform",
                  "scale": 1.0,
                  "mode": "fan_avg",
                  "seed": null
               }
            },
            "activity_regularizer": null,
            "filters": 464,
            "activation": "linear",
            "padding": "same",
            "dilation_rate": [
               1,
               1
            ],
            "kernel_regularizer": null,
            "trainable": true,
            "bias_regularizer": null,
            "use_bias": true,
            "bias_constraint": null,
            "name": "conv2d_25",
            "strides": [
               1,
               1
            ]
         }
      },
      {
         "class_name": "Dropout",
         "config": {
            "trainable": true,
            "name": "dropout_24",
            "rate": 0.2
         }
      },
      {
         "class_name": "BatchNormalization",
         "config": {
            "gamma_constraint": null,
            "gamma_initializer": {
               "class_name": "Ones",
               "config": {}
            },
            "beta_initializer": {
               "class_name": "Zeros",
               "config": {}
            },
            "axis": -1,
            "momentum": 0.99,
            "center": true,
            "epsilon": 0.001,
            "gamma_regularizer": null,
            "trainable": true,
            "moving_variance_initializer": {
               "class_name": "Ones",
               "config": {}
            },
            "beta_constraint": null,
            "scale": true,
            "beta_regularizer": null,
            "name": "batch_normalization_25",
            "moving_mean_initializer": {
               "class_name": "Zeros",
               "config": {}
            }
         }
      },
      {
         "class_name": "Activation",
         "config": {
            "activation": "relu",
            "trainable": true,
            "name": "activation_25"
         }
      },
      {
         "class_name": "Conv2D",
         "config": {
            "data_format": "channels_first",
            "bias_initializer": {
               "class_name": "Zeros",
               "config": {}
            },
            "kernel_constraint": null,
            "kernel_size": [
               3,
               3
            ],
            "kernel_initializer": {
               "class_name": "VarianceScaling",
               "config": {
                  "distribution": "uniform",
                  "scale": 1.0,
                  "mode": "fan_avg",
                  "seed": null
               }
            },
            "activity_regularizer": null,
            "filters": 464,
            "activation": "linear",
            "padding": "same",
            "dilation_rate": [
               1,
               1
            ],
            "kernel_regularizer": null,
            "trainable": true,
            "bias_regularizer": null,
            "use_bias": true,
            "bias_constraint": null,
            "name": "conv2d_26",
            "strides": [
               1,
               1
            ]
         }
      },
      {
         "class_name": "Dropout",
         "config": {
            "trainable": true,
            "name": "dropout_25",
            "rate": 0.2
         }
      },
      {
         "class_name": "BatchNormalization",
         "config": {
            "gamma_constraint": null,
            "gamma_initializer": {
               "class_name": "Ones",
               "config": {}
            },
            "beta_initializer": {
               "class_name": "Zeros",
               "config": {}
            },
            "axis": -1,
            "momentum": 0.99,
            "center": true,
            "epsilon": 0.001,
            "gamma_regularizer": null,
            "trainable": true,
            "moving_variance_initializer": {
               "class_name": "Ones",
               "config": {}
            },
            "beta_constraint": null,
            "scale": true,
            "beta_regularizer": null,
            "name": "batch_normalization_26",
            "moving_mean_initializer": {
               "class_name": "Zeros",
               "config": {}
            }
         }
      },
      {
         "class_name": "Activation",
         "config": {
            "activation": "relu",
            "trainable": true,
            "name": "activation_26"
         }
      },
      {
         "class_name": "Conv2D",
         "config": {
            "data_format": "channels_first",
            "bias_initializer": {
               "class_name": "Zeros",
               "config": {}
            },
            "kernel_constraint": null,
            "kernel_size": [
               3,
               3
            ],
            "kernel_initializer": {
               "class_name": "VarianceScaling",
               "config": {
                  "distribution": "uniform",
                  "scale": 1.0,
                  "mode": "fan_avg",
                  "seed": null
               }
            },
            "activity_regularizer": null,
            "filters": 464,
            "activation": "linear",
            "padding": "same",
            "dilation_rate": [
               1,
               1
            ],
            "kernel_regularizer": null,
            "trainable": true,
            "bias_regularizer": null,
            "use_bias": true,
            "bias_constraint": null,
            "name": "conv2d_27",
            "strides": [
               1,
               1
            ]
         }
      },
      {
         "class_name": "Dropout",
         "config": {
            "trainable": true,
            "name": "dropout_26",
            "rate": 0.2
         }
      },
      {
         "class_name": "BatchNormalization",
         "config": {
            "gamma_constraint": null,
            "gamma_initializer": {
               "class_name": "Ones",
               "config": {}
            },
            "beta_initializer": {
               "class_name": "Zeros",
               "config": {}
            },
            "axis": -1,
            "momentum": 0.99,
            "center": true,
            "epsilon": 0.001,
            "gamma_regularizer": null,
            "trainable": true,
            "moving_variance_initializer": {
               "class_name": "Ones",
               "config": {}
            },
            "beta_constraint": null,
            "scale": true,
            "beta_regularizer": null,
            "name": "batch_normalization_27",
            "moving_mean_initializer": {
               "class_name": "Zeros",
               "config": {}
            }
         }
      },
      {
         "class_name": "Activation",
         "config": {
            "activation": "relu",
            "trainable": true,
            "name": "activation_27"
         }
      },
      {
         "class_name": "Conv2D",
         "config": {
            "data_format": "channels_first",
            "bias_initializer": {
               "class_name": "Zeros",
               "config": {}
            },
            "kernel_constraint": null,
            "kernel_size": [
               3,
               3
            ],
            "kernel_initializer": {
               "class_name": "VarianceScaling",
               "config": {
                  "distribution": "uniform",
                  "scale": 1.0,
                  "mode": "fan_avg",
                  "seed": null
               }
            },
            "activity_regularizer": null,
            "filters": 464,
            "activation": "linear",
            "padding": "same",
            "dilation_rate": [
               1,
               1
            ],
            "kernel_regularizer": null,
            "trainable": true,
            "bias_regularizer": null,
            "use_bias": true,
            "bias_constraint": null,
            "name": "conv2d_28",
            "strides": [
               1,
               1
            ]
         }
      },
      {
         "class_name": "Dropout",
         "config": {
            "trainable": true,
            "name": "dropout_27",
            "rate": 0.2
         }
      },
      {
         "class_name": "BatchNormalization",
         "config": {
            "gamma_constraint": null,
            "gamma_initializer": {
               "class_name": "Ones",
               "config": {}
            },
            "beta_initializer": {
               "class_name": "Zeros",
               "config": {}
            },
            "axis": -1,
            "momentum": 0.99,
            "center": true,
            "epsilon": 0.001,
            "gamma_regularizer": null,
            "trainable": true,
            "moving_variance_initializer": {
               "class_name": "Ones",
               "config": {}
            },
            "beta_constraint": null,
            "scale": true,
            "beta_regularizer": null,
            "name": "batch_normalization_28",
            "moving_mean_initializer": {
               "class_name": "Zeros",
               "config": {}
            }
         }
      },
      {
         "class_name": "Activation",
         "config": {
            "activation": "relu",
            "trainable": true,
            "name": "activation_28"
         }
      },
      {
         "class_name": "Conv2D",
         "config": {
            "data_format": "channels_first",
            "bias_initializer": {
               "class_name": "Zeros",
               "config": {}
            },
            "kernel_constraint": null,
            "kernel_size": [
               3,
               3
            ],
            "kernel_initializer": {
               "class_name": "VarianceScaling",
               "config": {
                  "distribution": "uniform",
                  "scale": 1.0,
                  "mode": "fan_avg",
                  "seed": null
               }
            },
            "activity_regularizer": null,
            "filters": 464,
            "activation": "linear",
            "padding": "same",
            "dilation_rate": [
               1,
               1
            ],
            "kernel_regularizer": null,
            "trainable": true,
            "bias_regularizer": null,
            "use_bias": true,
            "bias_constraint": null,
            "name": "conv2d_29",
            "strides": [
               1,
               1
            ]
         }
      },
      {
         "class_name": "Dropout",
         "config": {
            "trainable": true,
            "name": "dropout_28",
            "rate": 0.2
         }
      },
      {
         "class_name": "BatchNormalization",
         "config": {
            "gamma_constraint": null,
            "gamma_initializer": {
               "class_name": "Ones",
               "config": {}
            },
            "beta_initializer": {
               "class_name": "Zeros",
               "config": {}
            },
            "axis": -1,
            "momentum": 0.99,
            "center": true,
            "epsilon": 0.001,
            "gamma_regularizer": null,
            "trainable": true,
            "moving_variance_initializer": {
               "class_name": "Ones",
               "config": {}
            },
            "beta_constraint": null,
            "scale": true,
            "beta_regularizer": null,
            "name": "batch_normalization_29",
            "moving_mean_initializer": {
               "class_name": "Zeros",
               "config": {}
            }
         }
      },
      {
         "class_name": "Activation",
         "config": {
            "activation": "relu",
            "trainable": true,
            "name": "activation_29"
         }
      },
      {
         "class_name": "Conv2D",
         "config": {
            "data_format": "channels_first",
            "bias_initializer": {
               "class_name": "Zeros",
               "config": {}
            },
            "kernel_constraint": null,
            "kernel_size": [
               3,
               3
            ],
            "kernel_initializer": {
               "class_name": "VarianceScaling",
               "config": {
                  "distribution": "uniform",
                  "scale": 1.0,
                  "mode": "fan_avg",
                  "seed": null
               }
            },
            "activity_regularizer": null,
            "filters": 464,
            "activation": "linear",
            "padding": "same",
            "dilation_rate": [
               1,
               1
            ],
            "kernel_regularizer": null,
            "trainable": true,
            "bias_regularizer": null,
            "use_bias": true,
            "bias_constraint": null,
            "name": "conv2d_30",
            "strides": [
               1,
               1
            ]
         }
      },
      {
         "class_name": "Dropout",
         "config": {
            "trainable": true,
            "name": "dropout_29",
            "rate": 0.2
         }
      },
      {
         "class_name": "BatchNormalization",
         "config": {
            "gamma_constraint": null,
            "gamma_initializer": {
               "class_name": "Ones",
               "config": {}
            },
            "beta_initializer": {
               "class_name": "Zeros",
               "config": {}
            },
            "axis": -1,
            "momentum": 0.99,
            "center": true,
            "epsilon": 0.001,
            "gamma_regularizer": null,
            "trainable": true,
            "moving_variance_initializer": {
               "class_name": "Ones",
               "config": {}
            },
            "beta_constraint": null,
            "scale": true,
            "beta_regularizer": null,
            "name": "batch_normalization_30",
            "moving_mean_initializer": {
               "class_name": "Zeros",
               "config": {}
            }
         }
      },
      {
         "class_name": "Activation",
         "config": {
            "activation": "relu",
            "trainable": true,
            "name": "activation_30"
         }
      },
      {
         "class_name": "Conv2D",
         "config": {
            "data_format": "channels_first",
            "bias_initializer": {
               "class_name": "Zeros",
               "config": {}
            },
            "kernel_constraint": null,
            "kernel_size": [
               1,
               1
            ],
            "kernel_initializer": {
               "class_name": "VarianceScaling",
               "config": {
                  "distribution": "uniform",
                  "scale": 1.0,
                  "mode": "fan_avg",
                  "seed": null
               }
            },
            "activity_regularizer": null,
            "filters": 464,
            "activation": "linear",
            "padding": "same",
            "dilation_rate": [
               1,
               1
            ],
            "kernel_regularizer": null,
            "trainable": true,
            "bias_regularizer": null,
            "use_bias": true,
            "bias_constraint": null,
            "name": "conv2d_31",
            "strides": [
               1,
               1
            ]
         }
      },
      {
         "class_name": "Dropout",
         "config": {
            "trainable": true,
            "name": "dropout_30",
            "rate": 0.2
         }
      },
      {
         "class_name": "MaxPooling2D",
         "config": {
            "pool_size": [
               2,
               2
            ],
            "data_format": "channels_first",
            "trainable": true,
            "padding": "valid",
            "name": "max_pooling2d_4",
            "strides": [
               2,
               2
            ]
         }
      },
      {
         "class_name": "BatchNormalization",
         "config": {
            "gamma_constraint": null,
            "gamma_initializer": {
               "class_name": "Ones",
               "config": {}
            },
            "beta_initializer": {
               "class_name": "Zeros",
               "config": {}
            },
            "axis": -1,
            "momentum": 0.99,
            "center": true,
            "epsilon": 0.001,
            "gamma_regularizer": null,
            "trainable": true,
            "moving_variance_initializer": {
               "class_name": "Ones",
               "config": {}
            },
            "beta_constraint": null,
            "scale": true,
            "beta_regularizer": null,
            "name": "batch_normalization_31",
            "moving_mean_initializer": {
               "class_name": "Zeros",
               "config": {}
            }
         }
      },
      {
         "class_name": "Activation",
         "config": {
            "activation": "relu",
            "trainable": true,
            "name": "activation_31"
         }
      },
      {
         "class_name": "Conv2D",
         "config": {
            "data_format": "channels_first",
            "bias_initializer": {
               "class_name": "Zeros",
               "config": {}
            },
            "kernel_constraint": null,
            "kernel_size": [
               3,
               3
            ],
            "kernel_initializer": {
               "class_name": "VarianceScaling",
               "config": {
                  "distribution": "uniform",
                  "scale": 1.0,
                  "mode": "fan_avg",
                  "seed": null
               }
            },
            "activity_regularizer": null,
            "filters": 656,
            "activation": "linear",
            "padding": "same",
            "dilation_rate": [
               1,
               1
            ],
            "kernel_regularizer": null,
            "trainable": true,
            "bias_regularizer": null,
            "use_bias": true,
            "bias_constraint": null,
            "name": "conv2d_32",
            "strides": [
               1,
               1
            ]
         }
      },
      {
         "class_name": "Dropout",
         "config": {
            "trainable": true,
            "name": "dropout_31",
            "rate": 0.2
         }
      },
      {
         "class_name": "BatchNormalization",
         "config": {
            "gamma_constraint": null,
            "gamma_initializer": {
               "class_name": "Ones",
               "config": {}
            },
            "beta_initializer": {
               "class_name": "Zeros",
               "config": {}
            },
            "axis": -1,
            "momentum": 0.99,
            "center": true,
            "epsilon": 0.001,
            "gamma_regularizer": null,
            "trainable": true,
            "moving_variance_initializer": {
               "class_name": "Ones",
               "config": {}
            },
            "beta_constraint": null,
            "scale": true,
            "beta_regularizer": null,
            "name": "batch_normalization_32",
            "moving_mean_initializer": {
               "class_name": "Zeros",
               "config": {}
            }
         }
      },
      {
         "class_name": "Activation",
         "config": {
            "activation": "relu",
            "trainable": true,
            "name": "activation_32"
         }
      },
      {
         "class_name": "Conv2D",
         "config": {
            "data_format": "channels_first",
            "bias_initializer": {
               "class_name": "Zeros",
               "config": {}
            },
            "kernel_constraint": null,
            "kernel_size": [
               3,
               3
            ],
            "kernel_initializer": {
               "class_name": "VarianceScaling",
               "config": {
                  "distribution": "uniform",
                  "scale": 1.0,
                  "mode": "fan_avg",
                  "seed": null
               }
            },
            "activity_regularizer": null,
            "filters": 656,
            "activation": "linear",
            "padding": "same",
            "dilation_rate": [
               1,
               1
            ],
            "kernel_regularizer": null,
            "trainable": true,
            "bias_regularizer": null,
            "use_bias": true,
            "bias_constraint": null,
            "name": "conv2d_33",
            "strides": [
               1,
               1
            ]
         }
      },
      {
         "class_name": "Dropout",
         "config": {
            "trainable": true,
            "name": "dropout_32",
            "rate": 0.2
         }
      },
      {
         "class_name": "BatchNormalization",
         "config": {
            "gamma_constraint": null,
            "gamma_initializer": {
               "class_name": "Ones",
               "config": {}
            },
            "beta_initializer": {
               "class_name": "Zeros",
               "config": {}
            },
            "axis": -1,
            "momentum": 0.99,
            "center": true,
            "epsilon": 0.001,
            "gamma_regularizer": null,
            "trainable": true,
            "moving_variance_initializer": {
               "class_name": "Ones",
               "config": {}
            },
            "beta_constraint": null,
            "scale": true,
            "beta_regularizer": null,
            "name": "batch_normalization_33",
            "moving_mean_initializer": {
               "class_name": "Zeros",
               "config": {}
            }
         }
      },
      {
         "class_name": "Activation",
         "config": {
            "activation": "relu",
            "trainable": true,
            "name": "activation_33"
         }
      },
      {
         "class_name": "Conv2D",
         "config": {
            "data_format": "channels_first",
            "bias_initializer": {
               "class_name": "Zeros",
               "config": {}
            },
            "kernel_constraint": null,
            "kernel_size": [
               3,
               3
            ],
            "kernel_initializer": {
               "class_name": "VarianceScaling",
               "config": {
                  "distribution": "uniform",
                  "scale": 1.0,
                  "mode": "fan_avg",
                  "seed": null
               }
            },
            "activity_regularizer": null,
            "filters": 656,
            "activation": "linear",
            "padding": "same",
            "dilation_rate": [
               1,
               1
            ],
            "kernel_regularizer": null,
            "trainable": true,
            "bias_regularizer": null,
            "use_bias": true,
            "bias_constraint": null,
            "name": "conv2d_34",
            "strides": [
               1,
               1
            ]
         }
      },
      {
         "class_name": "Dropout",
         "config": {
            "trainable": true,
            "name": "dropout_33",
            "rate": 0.2
         }
      },
      {
         "class_name": "BatchNormalization",
         "config": {
            "gamma_constraint": null,
            "gamma_initializer": {
               "class_name": "Ones",
               "config": {}
            },
            "beta_initializer": {
               "class_name": "Zeros",
               "config": {}
            },
            "axis": -1,
            "momentum": 0.99,
            "center": true,
            "epsilon": 0.001,
            "gamma_regularizer": null,
            "trainable": true,
            "moving_variance_initializer": {
               "class_name": "Ones",
               "config": {}
            },
            "beta_constraint": null,
            "scale": true,
            "beta_regularizer": null,
            "name": "batch_normalization_34",
            "moving_mean_initializer": {
               "class_name": "Zeros",
               "config": {}
            }
         }
      },
      {
         "class_name": "Activation",
         "config": {
            "activation": "relu",
            "trainable": true,
            "name": "activation_34"
         }
      },
      {
         "class_name": "Conv2D",
         "config": {
            "data_format": "channels_first",
            "bias_initializer": {
               "class_name": "Zeros",
               "config": {}
            },
            "kernel_constraint": null,
            "kernel_size": [
               3,
               3
            ],
            "kernel_initializer": {
               "class_name": "VarianceScaling",
               "config": {
                  "distribution": "uniform",
                  "scale": 1.0,
                  "mode": "fan_avg",
                  "seed": null
               }
            },
            "activity_regularizer": null,
            "filters": 656,
            "activation": "linear",
            "padding": "same",
            "dilation_rate": [
               1,
               1
            ],
            "kernel_regularizer": null,
            "trainable": true,
            "bias_regularizer": null,
            "use_bias": true,
            "bias_constraint": null,
            "name": "conv2d_35",
            "strides": [
               1,
               1
            ]
         }
      },
      {
         "class_name": "Dropout",
         "config": {
            "trainable": true,
            "name": "dropout_34",
            "rate": 0.2
         }
      },
      {
         "class_name": "BatchNormalization",
         "config": {
            "gamma_constraint": null,
            "gamma_initializer": {
               "class_name": "Ones",
               "config": {}
            },
            "beta_initializer": {
               "class_name": "Zeros",
               "config": {}
            },
            "axis": -1,
            "momentum": 0.99,
            "center": true,
            "epsilon": 0.001,
            "gamma_regularizer": null,
            "trainable": true,
            "moving_variance_initializer": {
               "class_name": "Ones",
               "config": {}
            },
            "beta_constraint": null,
            "scale": true,
            "beta_regularizer": null,
            "name": "batch_normalization_35",
            "moving_mean_initializer": {
               "class_name": "Zeros",
               "config": {}
            }
         }
      },
      {
         "class_name": "Activation",
         "config": {
            "activation": "relu",
            "trainable": true,
            "name": "activation_35"
         }
      },
      {
         "class_name": "Conv2D",
         "config": {
            "data_format": "channels_first",
            "bias_initializer": {
               "class_name": "Zeros",
               "config": {}
            },
            "kernel_constraint": null,
            "kernel_size": [
               3,
               3
            ],
            "kernel_initializer": {
               "class_name": "VarianceScaling",
               "config": {
                  "distribution": "uniform",
                  "scale": 1.0,
                  "mode": "fan_avg",
                  "seed": null
               }
            },
            "activity_regularizer": null,
            "filters": 656,
            "activation": "linear",
            "padding": "same",
            "dilation_rate": [
               1,
               1
            ],
            "kernel_regularizer": null,
            "trainable": true,
            "bias_regularizer": null,
            "use_bias": true,
            "bias_constraint": null,
            "name": "conv2d_36",
            "strides": [
               1,
               1
            ]
         }
      },
      {
         "class_name": "Dropout",
         "config": {
            "trainable": true,
            "name": "dropout_35",
            "rate": 0.2
         }
      },
      {
         "class_name": "BatchNormalization",
         "config": {
            "gamma_constraint": null,
            "gamma_initializer": {
               "class_name": "Ones",
               "config": {}
            },
            "beta_initializer": {
               "class_name": "Zeros",
               "config": {}
            },
            "axis": -1,
            "momentum": 0.99,
            "center": true,
            "epsilon": 0.001,
            "gamma_regularizer": null,
            "trainable": true,
            "moving_variance_initializer": {
               "class_name": "Ones",
               "config": {}
            },
            "beta_constraint": null,
            "scale": true,
            "beta_regularizer": null,
            "name": "batch_normalization_36",
            "moving_mean_initializer": {
               "class_name": "Zeros",
               "config": {}
            }
         }
      },
      {
         "class_name": "Activation",
         "config": {
            "activation": "relu",
            "trainable": true,
            "name": "activation_36"
         }
      },
      {
         "class_name": "Conv2D",
         "config": {
            "data_format": "channels_first",
            "bias_initializer": {
               "class_name": "Zeros",
               "config": {}
            },
            "kernel_constraint": null,
            "kernel_size": [
               3,
               3
            ],
            "kernel_initializer": {
               "class_name": "VarianceScaling",
               "config": {
                  "distribution": "uniform",
                  "scale": 1.0,
                  "mode": "fan_avg",
                  "seed": null
               }
            },
            "activity_regularizer": null,
            "filters": 656,
            "activation": "linear",
            "padding": "same",
            "dilation_rate": [
               1,
               1
            ],
            "kernel_regularizer": null,
            "trainable": true,
            "bias_regularizer": null,
            "use_bias": true,
            "bias_constraint": null,
            "name": "conv2d_37",
            "strides": [
               1,
               1
            ]
         }
      },
      {
         "class_name": "Dropout",
         "config": {
            "trainable": true,
            "name": "dropout_36",
            "rate": 0.2
         }
      },
      {
         "class_name": "BatchNormalization",
         "config": {
            "gamma_constraint": null,
            "gamma_initializer": {
               "class_name": "Ones",
               "config": {}
            },
            "beta_initializer": {
               "class_name": "Zeros",
               "config": {}
            },
            "axis": -1,
            "momentum": 0.99,
            "center": true,
            "epsilon": 0.001,
            "gamma_regularizer": null,
            "trainable": true,
            "moving_variance_initializer": {
               "class_name": "Ones",
               "config": {}
            },
            "beta_constraint": null,
            "scale": true,
            "beta_regularizer": null,
            "name": "batch_normalization_37",
            "moving_mean_initializer": {
               "class_name": "Zeros",
               "config": {}
            }
         }
      },
      {
         "class_name": "Activation",
         "config": {
            "activation": "relu",
            "trainable": true,
            "name": "activation_37"
         }
      },
      {
         "class_name": "Conv2D",
         "config": {
            "data_format": "channels_first",
            "bias_initializer": {
               "class_name": "Zeros",
               "config": {}
            },
            "kernel_constraint": null,
            "kernel_size": [
               3,
               3
            ],
            "kernel_initializer": {
               "class_name": "VarianceScaling",
               "config": {
                  "distribution": "uniform",
                  "scale": 1.0,
                  "mode": "fan_avg",
                  "seed": null
               }
            },
            "activity_regularizer": null,
            "filters": 656,
            "activation": "linear",
            "padding": "same",
            "dilation_rate": [
               1,
               1
            ],
            "kernel_regularizer": null,
            "trainable": true,
            "bias_regularizer": null,
            "use_bias": true,
            "bias_constraint": null,
            "name": "conv2d_38",
            "strides": [
               1,
               1
            ]
         }
      },
      {
         "class_name": "Dropout",
         "config": {
            "trainable": true,
            "name": "dropout_37",
            "rate": 0.2
         }
      },
      {
         "class_name": "BatchNormalization",
         "config": {
            "gamma_constraint": null,
            "gamma_initializer": {
               "class_name": "Ones",
               "config": {}
            },
            "beta_initializer": {
               "class_name": "Zeros",
               "config": {}
            },
            "axis": -1,
            "momentum": 0.99,
            "center": true,
            "epsilon": 0.001,
            "gamma_regularizer": null,
            "trainable": true,
            "moving_variance_initializer": {
               "class_name": "Ones",
               "config": {}
            },
            "beta_constraint": null,
            "scale": true,
            "beta_regularizer": null,
            "name": "batch_normalization_38",
            "moving_mean_initializer": {
               "class_name": "Zeros",
               "config": {}
            }
         }
      },
      {
         "class_name": "Activation",
         "config": {
            "activation": "relu",
            "trainable": true,
            "name": "activation_38"
         }
      },
      {
         "class_name": "Conv2D",
         "config": {
            "data_format": "channels_first",
            "bias_initializer": {
               "class_name": "Zeros",
               "config": {}
            },
            "kernel_constraint": null,
            "kernel_size": [
               3,
               3
            ],
            "kernel_initializer": {
               "class_name": "VarianceScaling",
               "config": {
                  "distribution": "uniform",
                  "scale": 1.0,
                  "mode": "fan_avg",
                  "seed": null
               }
            },
            "activity_regularizer": null,
            "filters": 656,
            "activation": "linear",
            "padding": "same",
            "dilation_rate": [
               1,
               1
            ],
            "kernel_regularizer": null,
            "trainable": true,
            "bias_regularizer": null,
            "use_bias": true,
            "bias_constraint": null,
            "name": "conv2d_39",
            "strides": [
               1,
               1
            ]
         }
      },
      {
         "class_name": "Dropout",
         "config": {
            "trainable": true,
            "name": "dropout_38",
            "rate": 0.2
         }
      },
      {
         "class_name": "BatchNormalization",
         "config": {
            "gamma_constraint": null,
            "gamma_initializer": {
               "class_name": "Ones",
               "config": {}
            },
            "beta_initializer": {
               "class_name": "Zeros",
               "config": {}
            },
            "axis": -1,
            "momentum": 0.99,
            "center": true,
            "epsilon": 0.001,
            "gamma_regularizer": null,
            "trainable": true,
            "moving_variance_initializer": {
               "class_name": "Ones",
               "config": {}
            },
            "beta_constraint": null,
            "scale": true,
            "beta_regularizer": null,
            "name": "batch_normalization_39",
            "moving_mean_initializer": {
               "class_name": "Zeros",
               "config": {}
            }
         }
      },
      {
         "class_name": "Activation",
         "config": {
            "activation": "relu",
            "trainable": true,
            "name": "activation_39"
         }
      },
      {
         "class_name": "Conv2D",
         "config": {
            "data_format": "channels_first",
            "bias_initializer": {
               "class_name": "Zeros",
               "config": {}
            },
            "kernel_constraint": null,
            "kernel_size": [
               3,
               3
            ],
            "kernel_initializer": {
               "class_name": "VarianceScaling",
               "config": {
                  "distribution": "uniform",
                  "scale": 1.0,
                  "mode": "fan_avg",
                  "seed": null
               }
            },
            "activity_regularizer": null,
            "filters": 656,
            "activation": "linear",
            "padding": "same",
            "dilation_rate": [
               1,
               1
            ],
            "kernel_regularizer": null,
            "trainable": true,
            "bias_regularizer": null,
            "use_bias": true,
            "bias_constraint": null,
            "name": "conv2d_40",
            "strides": [
               1,
               1
            ]
         }
      },
      {
         "class_name": "Dropout",
         "config": {
            "trainable": true,
            "name": "dropout_39",
            "rate": 0.2
         }
      },
      {
         "class_name": "BatchNormalization",
         "config": {
            "gamma_constraint": null,
            "gamma_initializer": {
               "class_name": "Ones",
               "config": {}
            },
            "beta_initializer": {
               "class_name": "Zeros",
               "config": {}
            },
            "axis": -1,
            "momentum": 0.99,
            "center": true,
            "epsilon": 0.001,
            "gamma_regularizer": null,
            "trainable": true,
            "moving_variance_initializer": {
               "class_name": "Ones",
               "config": {}
            },
            "beta_constraint": null,
            "scale": true,
            "beta_regularizer": null,
            "name": "batch_normalization_40",
            "moving_mean_initializer": {
               "class_name": "Zeros",
               "config": {}
            }
         }
      },
      {
         "class_name": "Activation",
         "config": {
            "activation": "relu",
            "trainable": true,
            "name": "activation_40"
         }
      },
      {
         "class_name": "Conv2D",
         "config": {
            "data_format": "channels_first",
            "bias_initializer": {
               "class_name": "Zeros",
               "config": {}
            },
            "kernel_constraint": null,
            "kernel_size": [
               3,
               3
            ],
            "kernel_initializer": {
               "class_name": "VarianceScaling",
               "config": {
                  "distribution": "uniform",
                  "scale": 1.0,
                  "mode": "fan_avg",
                  "seed": null
               }
            },
            "activity_regularizer": null,
            "filters": 656,
            "activation": "linear",
            "padding": "same",
            "dilation_rate": [
               1,
               1
            ],
            "kernel_regularizer": null,
            "trainable": true,
            "bias_regularizer": null,
            "use_bias": true,
            "bias_constraint": null,
            "name": "conv2d_41",
            "strides": [
               1,
               1
            ]
         }
      },
      {
         "class_name": "Dropout",
         "config": {
            "trainable": true,
            "name": "dropout_40",
            "rate": 0.2
         }
      },
      {
         "class_name": "BatchNormalization",
         "config": {
            "gamma_constraint": null,
            "gamma_initializer": {
               "class_name": "Ones",
               "config": {}
            },
            "beta_initializer": {
               "class_name": "Zeros",
               "config": {}
            },
            "axis": -1,
            "momentum": 0.99,
            "center": true,
            "epsilon": 0.001,
            "gamma_regularizer": null,
            "trainable": true,
            "moving_variance_initializer": {
               "class_name": "Ones",
               "config": {}
            },
            "beta_constraint": null,
            "scale": true,
            "beta_regularizer": null,
            "name": "batch_normalization_41",
            "moving_mean_initializer": {
               "class_name": "Zeros",
               "config": {}
            }
         }
      },
      {
         "class_name": "Activation",
         "config": {
            "activation": "relu",
            "trainable": true,
            "name": "activation_41"
         }
      },
      {
         "class_name": "Conv2D",
         "config": {
            "data_format": "channels_first",
            "bias_initializer": {
               "class_name": "Zeros",
               "config": {}
            },
            "kernel_constraint": null,
            "kernel_size": [
               3,
               3
            ],
            "kernel_initializer": {
               "class_name": "VarianceScaling",
               "config": {
                  "distribution": "uniform",
                  "scale": 1.0,
                  "mode": "fan_avg",
                  "seed": null
               }
            },
            "activity_regularizer": null,
            "filters": 656,
            "activation": "linear",
            "padding": "same",
            "dilation_rate": [
               1,
               1
            ],
            "kernel_regularizer": null,
            "trainable": true,
            "bias_regularizer": null,
            "use_bias": true,
            "bias_constraint": null,
            "name": "conv2d_42",
            "strides": [
               1,
               1
            ]
         }
      },
      {
         "class_name": "Dropout",
         "config": {
            "trainable": true,
            "name": "dropout_41",
            "rate": 0.2
         }
      },
      {
         "class_name": "BatchNormalization",
         "config": {
            "gamma_constraint": null,
            "gamma_initializer": {
               "class_name": "Ones",
               "config": {}
            },
            "beta_initializer": {
               "class_name": "Zeros",
               "config": {}
            },
            "axis": -1,
            "momentum": 0.99,
            "center": true,
            "epsilon": 0.001,
            "gamma_regularizer": null,
            "trainable": true,
            "moving_variance_initializer": {
               "class_name": "Ones",
               "config": {}
            },
            "beta_constraint": null,
            "scale": true,
            "beta_regularizer": null,
            "name": "batch_normalization_42",
            "moving_mean_initializer": {
               "class_name": "Zeros",
               "config": {}
            }
         }
      },
      {
         "class_name": "Activation",
         "config": {
            "activation": "relu",
            "trainable": true,
            "name": "activation_42"
         }
      },
      {
         "class_name": "Conv2D",
         "config": {
            "data_format": "channels_first",
            "bias_initializer": {
               "class_name": "Zeros",
               "config": {}
            },
            "kernel_constraint": null,
            "kernel_size": [
               3,
               3
            ],
            "kernel_initializer": {
               "class_name": "VarianceScaling",
               "config": {
                  "distribution": "uniform",
                  "scale": 1.0,
                  "mode": "fan_avg",
                  "seed": null
               }
            },
            "activity_regularizer": null,
            "filters": 656,
            "activation": "linear",
            "padding": "same",
            "dilation_rate": [
               1,
               1
            ],
            "kernel_regularizer": null,
            "trainable": true,
            "bias_regularizer": null,
            "use_bias": true,
            "bias_constraint": null,
            "name": "conv2d_43",
            "strides": [
               1,
               1
            ]
         }
      },
      {
         "class_name": "Dropout",
         "config": {
            "trainable": true,
            "name": "dropout_42",
            "rate": 0.2
         }
      },
      {
         "class_name": "BatchNormalization",
         "config": {
            "gamma_constraint": null,
            "gamma_initializer": {
               "class_name": "Ones",
               "config": {}
            },
            "beta_initializer": {
               "class_name": "Zeros",
               "config": {}
            },
            "axis": -1,
            "momentum": 0.99,
            "center": true,
            "epsilon": 0.001,
            "gamma_regularizer": null,
            "trainable": true,
            "moving_variance_initializer": {
               "class_name": "Ones",
               "config": {}
            },
            "beta_constraint": null,
            "scale": true,
            "beta_regularizer": null,
            "name": "batch_normalization_43",
            "moving_mean_initializer": {
               "class_name": "Zeros",
               "config": {}
            }
         }
      },
      {
         "class_name": "Activation",
         "config": {
            "activation": "relu",
            "trainable": true,
            "name": "activation_43"
         }
      },
      {
         "class_name": "Conv2D",
         "config": {
            "data_format": "channels_first",
            "bias_initializer": {
               "class_name": "Zeros",
               "config": {}
            },
            "kernel_constraint": null,
            "kernel_size": [
               1,
               1
            ],
            "kernel_initializer": {
               "class_name": "VarianceScaling",
               "config": {
                  "distribution": "uniform",
                  "scale": 1.0,
                  "mode": "fan_avg",
                  "seed": null
               }
            },
            "activity_regularizer": null,
            "filters": 656,
            "activation": "linear",
            "padding": "same",
            "dilation_rate": [
               1,
               1
            ],
            "kernel_regularizer": null,
            "trainable": true,
            "bias_regularizer": null,
            "use_bias": true,
            "bias_constraint": null,
            "name": "conv2d_44",
            "strides": [
               1,
               1
            ]
         }
      },
      {
         "class_name": "Dropout",
         "config": {
            "trainable": true,
            "name": "dropout_43",
            "rate": 0.2
         }
      },
      {
         "class_name": "MaxPooling2D",
         "config": {
            "pool_size": [
               2,
               2
            ],
            "data_format": "channels_first",
            "trainable": true,
            "padding": "valid",
            "name": "max_pooling2d_5",
            "strides": [
               2,
               2
            ]
         }
      },
      {
         "class_name": "BatchNormalization",
         "config": {
            "gamma_constraint": null,
            "gamma_initializer": {
               "class_name": "Ones",
               "config": {}
            },
            "beta_initializer": {
               "class_name": "Zeros",
               "config": {}
            },
            "axis": -1,
            "momentum": 0.99,
            "center": true,
            "epsilon": 0.001,
            "gamma_regularizer": null,
            "trainable": true,
            "moving_variance_initializer": {
               "class_name": "Ones",
               "config": {}
            },
            "beta_constraint": null,
            "scale": true,
            "beta_regularizer": null,
            "name": "batch_normalization_44",
            "moving_mean_initializer": {
               "class_name": "Zeros",
               "config": {}
            }
         }
      },
      {
         "class_name": "Activation",
         "config": {
            "activation": "relu",
            "trainable": true,
            "name": "activation_44"
         }
      },
      {
         "class_name": "Conv2D",
         "config": {
            "data_format": "channels_first",
            "bias_initializer": {
               "class_name": "Zeros",
               "config": {}
            },
            "kernel_constraint": null,
            "kernel_size": [
               3,
               3
            ],
            "kernel_initializer": {
               "class_name": "VarianceScaling",
               "config": {
                  "distribution": "uniform",
                  "scale": 1.0,
                  "mode": "fan_avg",
                  "seed": null
               }
            },
            "activity_regularizer": null,
            "filters": 880,
            "activation": "linear",
            "padding": "same",
            "dilation_rate": [
               1,
               1
            ],
            "kernel_regularizer": null,
            "trainable": true,
            "bias_regularizer": null,
            "use_bias": true,
            "bias_constraint": null,
            "name": "conv2d_45",
            "strides": [
               1,
               1
            ]
         }
      },
      {
         "class_name": "Dropout",
         "config": {
            "trainable": true,
            "name": "dropout_44",
            "rate": 0.2
         }
      },
      {
         "class_name": "BatchNormalization",
         "config": {
            "gamma_constraint": null,
            "gamma_initializer": {
               "class_name": "Ones",
               "config": {}
            },
            "beta_initializer": {
               "class_name": "Zeros",
               "config": {}
            },
            "axis": -1,
            "momentum": 0.99,
            "center": true,
            "epsilon": 0.001,
            "gamma_regularizer": null,
            "trainable": true,
            "moving_variance_initializer": {
               "class_name": "Ones",
               "config": {}
            },
            "beta_constraint": null,
            "scale": true,
            "beta_regularizer": null,
            "name": "batch_normalization_45",
            "moving_mean_initializer": {
               "class_name": "Zeros",
               "config": {}
            }
         }
      },
      {
         "class_name": "Activation",
         "config": {
            "activation": "relu",
            "trainable": true,
            "name": "activation_45"
         }
      },
      {
         "class_name": "Conv2D",
         "config": {
            "data_format": "channels_first",
            "bias_initializer": {
               "class_name": "Zeros",
               "config": {}
            },
            "kernel_constraint": null,
            "kernel_size": [
               3,
               3
            ],
            "kernel_initializer": {
               "class_name": "VarianceScaling",
               "config": {
                  "distribution": "uniform",
                  "scale": 1.0,
                  "mode": "fan_avg",
                  "seed": null
               }
            },
            "activity_regularizer": null,
            "filters": 880,
            "activation": "linear",
            "padding": "same",
            "dilation_rate": [
               1,
               1
            ],
            "kernel_regularizer": null,
            "trainable": true,
            "bias_regularizer": null,
            "use_bias": true,
            "bias_constraint": null,
            "name": "conv2d_46",
            "strides": [
               1,
               1
            ]
         }
      },
      {
         "class_name": "Dropout",
         "config": {
            "trainable": true,
            "name": "dropout_45",
            "rate": 0.2
         }
      },
      {
         "class_name": "BatchNormalization",
         "config": {
            "gamma_constraint": null,
            "gamma_initializer": {
               "class_name": "Ones",
               "config": {}
            },
            "beta_initializer": {
               "class_name": "Zeros",
               "config": {}
            },
            "axis": -1,
            "momentum": 0.99,
            "center": true,
            "epsilon": 0.001,
            "gamma_regularizer": null,
            "trainable": true,
            "moving_variance_initializer": {
               "class_name": "Ones",
               "config": {}
            },
            "beta_constraint": null,
            "scale": true,
            "beta_regularizer": null,
            "name": "batch_normalization_46",
            "moving_mean_initializer": {
               "class_name": "Zeros",
               "config": {}
            }
         }
      },
      {
         "class_name": "Activation",
         "config": {
            "activation": "relu",
            "trainable": true,
            "name": "activation_46"
         }
      },
      {
         "class_name": "Conv2D",
         "config": {
            "data_format": "channels_first",
            "bias_initializer": {
               "class_name": "Zeros",
               "config": {}
            },
            "kernel_constraint": null,
            "kernel_size": [
               3,
               3
            ],
            "kernel_initializer": {
               "class_name": "VarianceScaling",
               "config": {
                  "distribution": "uniform",
                  "scale": 1.0,
                  "mode": "fan_avg",
                  "seed": null
               }
            },
            "activity_regularizer": null,
            "filters": 880,
            "activation": "linear",
            "padding": "same",
            "dilation_rate": [
               1,
               1
            ],
            "kernel_regularizer": null,
            "trainable": true,
            "bias_regularizer": null,
            "use_bias": true,
            "bias_constraint": null,
            "name": "conv2d_47",
            "strides": [
               1,
               1
            ]
         }
      },
      {
         "class_name": "Dropout",
         "config": {
            "trainable": true,
            "name": "dropout_46",
            "rate": 0.2
         }
      },
      {
         "class_name": "BatchNormalization",
         "config": {
            "gamma_constraint": null,
            "gamma_initializer": {
               "class_name": "Ones",
               "config": {}
            },
            "beta_initializer": {
               "class_name": "Zeros",
               "config": {}
            },
            "axis": -1,
            "momentum": 0.99,
            "center": true,
            "epsilon": 0.001,
            "gamma_regularizer": null,
            "trainable": true,
            "moving_variance_initializer": {
               "class_name": "Ones",
               "config": {}
            },
            "beta_constraint": null,
            "scale": true,
            "beta_regularizer": null,
            "name": "batch_normalization_47",
            "moving_mean_initializer": {
               "class_name": "Zeros",
               "config": {}
            }
         }
      },
      {
         "class_name": "Activation",
         "config": {
            "activation": "relu",
            "trainable": true,
            "name": "activation_47"
         }
      },
      {
         "class_name": "Conv2D",
         "config": {
            "data_format": "channels_first",
            "bias_initializer": {
               "class_name": "Zeros",
               "config": {}
            },
            "kernel_constraint": null,
            "kernel_size": [
               3,
               3
            ],
            "kernel_initializer": {
               "class_name": "VarianceScaling",
               "config": {
                  "distribution": "uniform",
                  "scale": 1.0,
                  "mode": "fan_avg",
                  "seed": null
               }
            },
            "activity_regularizer": null,
            "filters": 880,
            "activation": "linear",
            "padding": "same",
            "dilation_rate": [
               1,
               1
            ],
            "kernel_regularizer": null,
            "trainable": true,
            "bias_regularizer": null,
            "use_bias": true,
            "bias_constraint": null,
            "name": "conv2d_48",
            "strides": [
               1,
               1
            ]
         }
      },
      {
         "class_name": "Dropout",
         "config": {
            "trainable": true,
            "name": "dropout_47",
            "rate": 0.2
         }
      },
      {
         "class_name": "BatchNormalization",
         "config": {
            "gamma_constraint": null,
            "gamma_initializer": {
               "class_name": "Ones",
               "config": {}
            },
            "beta_initializer": {
               "class_name": "Zeros",
               "config": {}
            },
            "axis": -1,
            "momentum": 0.99,
            "center": true,
            "epsilon": 0.001,
            "gamma_regularizer": null,
            "trainable": true,
            "moving_variance_initializer": {
               "class_name": "Ones",
               "config": {}
            },
            "beta_constraint": null,
            "scale": true,
            "beta_regularizer": null,
            "name": "batch_normalization_48",
            "moving_mean_initializer": {
               "class_name": "Zeros",
               "config": {}
            }
         }
      },
      {
         "class_name": "Activation",
         "config": {
            "activation": "relu",
            "trainable": true,
            "name": "activation_48"
         }
      },
      {
         "class_name": "Conv2D",
         "config": {
            "data_format": "channels_first",
            "bias_initializer": {
               "class_name": "Zeros",
               "config": {}
            },
            "kernel_constraint": null,
            "kernel_size": [
               3,
               3
            ],
            "kernel_initializer": {
               "class_name": "VarianceScaling",
               "config": {
                  "distribution": "uniform",
                  "scale": 1.0,
                  "mode": "fan_avg",
                  "seed": null
               }
            },
            "activity_regularizer": null,
            "filters": 880,
            "activation": "linear",
            "padding": "same",
            "dilation_rate": [
               1,
               1
            ],
            "kernel_regularizer": null,
            "trainable": true,
            "bias_regularizer": null,
            "use_bias": true,
            "bias_constraint": null,
            "name": "conv2d_49",
            "strides": [
               1,
               1
            ]
         }
      },
      {
         "class_name": "Dropout",
         "config": {
            "trainable": true,
            "name": "dropout_48",
            "rate": 0.2
         }
      },
      {
         "class_name": "BatchNormalization",
         "config": {
            "gamma_constraint": null,
            "gamma_initializer": {
               "class_name": "Ones",
               "config": {}
            },
            "beta_initializer": {
               "class_name": "Zeros",
               "config": {}
            },
            "axis": -1,
            "momentum": 0.99,
            "center": true,
            "epsilon": 0.001,
            "gamma_regularizer": null,
            "trainable": true,
            "moving_variance_initializer": {
               "class_name": "Ones",
               "config": {}
            },
            "beta_constraint": null,
            "scale": true,
            "beta_regularizer": null,
            "name": "batch_normalization_49",
            "moving_mean_initializer": {
               "class_name": "Zeros",
               "config": {}
            }
         }
      },
      {
         "class_name": "Activation",
         "config": {
            "activation": "relu",
            "trainable": true,
            "name": "activation_49"
         }
      },
      {
         "class_name": "Conv2D",
         "config": {
            "data_format": "channels_first",
            "bias_initializer": {
               "class_name": "Zeros",
               "config": {}
            },
            "kernel_constraint": null,
            "kernel_size": [
               3,
               3
            ],
            "kernel_initializer": {
               "class_name": "VarianceScaling",
               "config": {
                  "distribution": "uniform",
                  "scale": 1.0,
                  "mode": "fan_avg",
                  "seed": null
               }
            },
            "activity_regularizer": null,
            "filters": 880,
            "activation": "linear",
            "padding": "same",
            "dilation_rate": [
               1,
               1
            ],
            "kernel_regularizer": null,
            "trainable": true,
            "bias_regularizer": null,
            "use_bias": true,
            "bias_constraint": null,
            "name": "conv2d_50",
            "strides": [
               1,
               1
            ]
         }
      },
      {
         "class_name": "Dropout",
         "config": {
            "trainable": true,
            "name": "dropout_49",
            "rate": 0.2
         }
      },
      {
         "class_name": "BatchNormalization",
         "config": {
            "gamma_constraint": null,
            "gamma_initializer": {
               "class_name": "Ones",
               "config": {}
            },
            "beta_initializer": {
               "class_name": "Zeros",
               "config": {}
            },
            "axis": -1,
            "momentum": 0.99,
            "center": true,
            "epsilon": 0.001,
            "gamma_regularizer": null,
            "trainable": true,
            "moving_variance_initializer": {
               "class_name": "Ones",
               "config": {}
            },
            "beta_constraint": null,
            "scale": true,
            "beta_regularizer": null,
            "name": "batch_normalization_50",
            "moving_mean_initializer": {
               "class_name": "Zeros",
               "config": {}
            }
         }
      },
      {
         "class_name": "Activation",
         "config": {
            "activation": "relu",
            "trainable": true,
            "name": "activation_50"
         }
      },
      {
         "class_name": "Conv2D",
         "config": {
            "data_format": "channels_first",
            "bias_initializer": {
               "class_name": "Zeros",
               "config": {}
            },
            "kernel_constraint": null,
            "kernel_size": [
               3,
               3
            ],
            "kernel_initializer": {
               "class_name": "VarianceScaling",
               "config": {
                  "distribution": "uniform",
                  "scale": 1.0,
                  "mode": "fan_avg",
                  "seed": null
               }
            },
            "activity_regularizer": null,
            "filters": 880,
            "activation": "linear",
            "padding": "same",
            "dilation_rate": [
               1,
               1
            ],
            "kernel_regularizer": null,
            "trainable": true,
            "bias_regularizer": null,
            "use_bias": true,
            "bias_constraint": null,
            "name": "conv2d_51",
            "strides": [
               1,
               1
            ]
         }
      },
      {
         "class_name": "Dropout",
         "config": {
            "trainable": true,
            "name": "dropout_50",
            "rate": 0.2
         }
      },
      {
         "class_name": "BatchNormalization",
         "config": {
            "gamma_constraint": null,
            "gamma_initializer": {
               "class_name": "Ones",
               "config": {}
            },
            "beta_initializer": {
               "class_name": "Zeros",
               "config": {}
            },
            "axis": -1,
            "momentum": 0.99,
            "center": true,
            "epsilon": 0.001,
            "gamma_regularizer": null,
            "trainable": true,
            "moving_variance_initializer": {
               "class_name": "Ones",
               "config": {}
            },
            "beta_constraint": null,
            "scale": true,
            "beta_regularizer": null,
            "name": "batch_normalization_51",
            "moving_mean_initializer": {
               "class_name": "Zeros",
               "config": {}
            }
         }
      },
      {
         "class_name": "Activation",
         "config": {
            "activation": "relu",
            "trainable": true,
            "name": "activation_51"
         }
      },
      {
         "class_name": "Conv2D",
         "config": {
            "data_format": "channels_first",
            "bias_initializer": {
               "class_name": "Zeros",
               "config": {}
            },
            "kernel_constraint": null,
            "kernel_size": [
               3,
               3
            ],
            "kernel_initializer": {
               "class_name": "VarianceScaling",
               "config": {
                  "distribution": "uniform",
                  "scale": 1.0,
                  "mode": "fan_avg",
                  "seed": null
               }
            },
            "activity_regularizer": null,
            "filters": 880,
            "activation": "linear",
            "padding": "same",
            "dilation_rate": [
               1,
               1
            ],
            "kernel_regularizer": null,
            "trainable": true,
            "bias_regularizer": null,
            "use_bias": true,
            "bias_constraint": null,
            "name": "conv2d_52",
            "strides": [
               1,
               1
            ]
         }
      },
      {
         "class_name": "Dropout",
         "config": {
            "trainable": true,
            "name": "dropout_51",
            "rate": 0.2
         }
      },
      {
         "class_name": "BatchNormalization",
         "config": {
            "gamma_constraint": null,
            "gamma_initializer": {
               "class_name": "Ones",
               "config": {}
            },
            "beta_initializer": {
               "class_name": "Zeros",
               "config": {}
            },
            "axis": -1,
            "momentum": 0.99,
            "center": true,
            "epsilon": 0.001,
            "gamma_regularizer": null,
            "trainable": true,
            "moving_variance_initializer": {
               "class_name": "Ones",
               "config": {}
            },
            "beta_constraint": null,
            "scale": true,
            "beta_regularizer": null,
            "name": "batch_normalization_52",
            "moving_mean_initializer": {
               "class_name": "Zeros",
               "config": {}
            }
         }
      },
      {
         "class_name": "Activation",
         "config": {
            "activation": "relu",
            "trainable": true,
            "name": "activation_52"
         }
      },
      {
         "class_name": "Conv2D",
         "config": {
            "data_format": "channels_first",
            "bias_initializer": {
               "class_name": "Zeros",
               "config": {}
            },
            "kernel_constraint": null,
            "kernel_size": [
               3,
               3
            ],
            "kernel_initializer": {
               "class_name": "VarianceScaling",
               "config": {
                  "distribution": "uniform",
                  "scale": 1.0,
                  "mode": "fan_avg",
                  "seed": null
               }
            },
            "activity_regularizer": null,
            "filters": 880,
            "activation": "linear",
            "padding": "same",
            "dilation_rate": [
               1,
               1
            ],
            "kernel_regularizer": null,
            "trainable": true,
            "bias_regularizer": null,
            "use_bias": true,
            "bias_constraint": null,
            "name": "conv2d_53",
            "strides": [
               1,
               1
            ]
         }
      },
      {
         "class_name": "Dropout",
         "config": {
            "trainable": true,
            "name": "dropout_52",
            "rate": 0.2
         }
      },
      {
         "class_name": "BatchNormalization",
         "config": {
            "gamma_constraint": null,
            "gamma_initializer": {
               "class_name": "Ones",
               "config": {}
            },
            "beta_initializer": {
               "class_name": "Zeros",
               "config": {}
            },
            "axis": -1,
            "momentum": 0.99,
            "center": true,
            "epsilon": 0.001,
            "gamma_regularizer": null,
            "trainable": true,
            "moving_variance_initializer": {
               "class_name": "Ones",
               "config": {}
            },
            "beta_constraint": null,
            "scale": true,
            "beta_regularizer": null,
            "name": "batch_normalization_53",
            "moving_mean_initializer": {
               "class_name": "Zeros",
               "config": {}
            }
         }
      },
      {
         "class_name": "Activation",
         "config": {
            "activation": "relu",
            "trainable": true,
            "name": "activation_53"
         }
      },
      {
         "class_name": "Conv2D",
         "config": {
            "data_format": "channels_first",
            "bias_initializer": {
               "class_name": "Zeros",
               "config": {}
            },
            "kernel_constraint": null,
            "kernel_size": [
               3,
               3
            ],
            "kernel_initializer": {
               "class_name": "VarianceScaling",
               "config": {
                  "distribution": "uniform",
                  "scale": 1.0,
                  "mode": "fan_avg",
                  "seed": null
               }
            },
            "activity_regularizer": null,
            "filters": 880,
            "activation": "linear",
            "padding": "same",
            "dilation_rate": [
               1,
               1
            ],
            "kernel_regularizer": null,
            "trainable": true,
            "bias_regularizer": null,
            "use_bias": true,
            "bias_constraint": null,
            "name": "conv2d_54",
            "strides": [
               1,
               1
            ]
         }
      },
      {
         "class_name": "Dropout",
         "config": {
            "trainable": true,
            "name": "dropout_53",
            "rate": 0.2
         }
      },
      {
         "class_name": "BatchNormalization",
         "config": {
            "gamma_constraint": null,
            "gamma_initializer": {
               "class_name": "Ones",
               "config": {}
            },
            "beta_initializer": {
               "class_name": "Zeros",
               "config": {}
            },
            "axis": -1,
            "momentum": 0.99,
            "center": true,
            "epsilon": 0.001,
            "gamma_regularizer": null,
            "trainable": true,
            "moving_variance_initializer": {
               "class_name": "Ones",
               "config": {}
            },
            "beta_constraint": null,
            "scale": true,
            "beta_regularizer": null,
            "name": "batch_normalization_54",
            "moving_mean_initializer": {
               "class_name": "Zeros",
               "config": {}
            }
         }
      },
      {
         "class_name": "Activation",
         "config": {
            "activation": "relu",
            "trainable": true,
            "name": "activation_54"
         }
      },
      {
         "class_name": "Conv2D",
         "config": {
            "data_format": "channels_first",
            "bias_initializer": {
               "class_name": "Zeros",
               "config": {}
            },
            "kernel_constraint": null,
            "kernel_size": [
               3,
               3
            ],
            "kernel_initializer": {
               "class_name": "VarianceScaling",
               "config": {
                  "distribution": "uniform",
                  "scale": 1.0,
                  "mode": "fan_avg",
                  "seed": null
               }
            },
            "activity_regularizer": null,
            "filters": 880,
            "activation": "linear",
            "padding": "same",
            "dilation_rate": [
               1,
               1
            ],
            "kernel_regularizer": null,
            "trainable": true,
            "bias_regularizer": null,
            "use_bias": true,
            "bias_constraint": null,
            "name": "conv2d_55",
            "strides": [
               1,
               1
            ]
         }
      },
      {
         "class_name": "Dropout",
         "config": {
            "trainable": true,
            "name": "dropout_54",
            "rate": 0.2
         }
      },
      {
         "class_name": "BatchNormalization",
         "config": {
            "gamma_constraint": null,
            "gamma_initializer": {
               "class_name": "Ones",
               "config": {}
            },
            "beta_initializer": {
               "class_name": "Zeros",
               "config": {}
            },
            "axis": -1,
            "momentum": 0.99,
            "center": true,
            "epsilon": 0.001,
            "gamma_regularizer": null,
            "trainable": true,
            "moving_variance_initializer": {
               "class_name": "Ones",
               "config": {}
            },
            "beta_constraint": null,
            "scale": true,
            "beta_regularizer": null,
            "name": "batch_normalization_55",
            "moving_mean_initializer": {
               "class_name": "Zeros",
               "config": {}
            }
         }
      },
      {
         "class_name": "Activation",
         "config": {
            "activation": "relu",
            "trainable": true,
            "name": "activation_55"
         }
      },
      {
         "class_name": "Conv2D",
         "config": {
            "data_format": "channels_first",
            "bias_initializer": {
               "class_name": "Zeros",
               "config": {}
            },
            "kernel_constraint": null,
            "kernel_size": [
               3,
               3
            ],
            "kernel_initializer": {
               "class_name": "VarianceScaling",
               "config": {
                  "distribution": "uniform",
                  "scale": 1.0,
                  "mode": "fan_avg",
                  "seed": null
               }
            },
            "activity_regularizer": null,
            "filters": 880,
            "activation": "linear",
            "padding": "same",
            "dilation_rate": [
               1,
               1
            ],
            "kernel_regularizer": null,
            "trainable": true,
            "bias_regularizer": null,
            "use_bias": true,
            "bias_constraint": null,
            "name": "conv2d_56",
            "strides": [
               1,
               1
            ]
         }
      },
      {
         "class_name": "Dropout",
         "config": {
            "trainable": true,
            "name": "dropout_55",
            "rate": 0.2
         }
      },
      {
         "class_name": "BatchNormalization",
         "config": {
            "gamma_constraint": null,
            "gamma_initializer": {
               "class_name": "Ones",
               "config": {}
            },
            "beta_initializer": {
               "class_name": "Zeros",
               "config": {}
            },
            "axis": -1,
            "momentum": 0.99,
            "center": true,
            "epsilon": 0.001,
            "gamma_regularizer": null,
            "trainable": true,
            "moving_variance_initializer": {
               "class_name": "Ones",
               "config": {}
            },
            "beta_constraint": null,
            "scale": true,
            "beta_regularizer": null,
            "name": "batch_normalization_56",
            "moving_mean_initializer": {
               "class_name": "Zeros",
               "config": {}
            }
         }
      },
      {
         "class_name": "Activation",
         "config": {
            "activation": "relu",
            "trainable": true,
            "name": "activation_56"
         }
      },
      {
         "class_name": "Conv2D",
         "config": {
            "data_format": "channels_first",
            "bias_initializer": {
               "class_name": "Zeros",
               "config": {}
            },
            "kernel_constraint": null,
            "kernel_size": [
               3,
               3
            ],
            "kernel_initializer": {
               "class_name": "VarianceScaling",
               "config": {
                  "distribution": "uniform",
                  "scale": 1.0,
                  "mode": "fan_avg",
                  "seed": null
               }
            },
            "activity_regularizer": null,
            "filters": 880,
            "activation": "linear",
            "padding": "same",
            "dilation_rate": [
               1,
               1
            ],
            "kernel_regularizer": null,
            "trainable": true,
            "bias_regularizer": null,
            "use_bias": true,
            "bias_constraint": null,
            "name": "conv2d_57",
            "strides": [
               1,
               1
            ]
         }
      },
      {
         "class_name": "Dropout",
         "config": {
            "trainable": true,
            "name": "dropout_56",
            "rate": 0.2
         }
      },
      {
         "class_name": "BatchNormalization",
         "config": {
            "gamma_constraint": null,
            "gamma_initializer": {
               "class_name": "Ones",
               "config": {}
            },
            "beta_initializer": {
               "class_name": "Zeros",
               "config": {}
            },
            "axis": -1,
            "momentum": 0.99,
            "center": true,
            "epsilon": 0.001,
            "gamma_regularizer": null,
            "trainable": true,
            "moving_variance_initializer": {
               "class_name": "Ones",
               "config": {}
            },
            "beta_constraint": null,
            "scale": true,
            "beta_regularizer": null,
            "name": "batch_normalization_57",
            "moving_mean_initializer": {
               "class_name": "Zeros",
               "config": {}
            }
         }
      },
      {
         "class_name": "Activation",
         "config": {
            "activation": "relu",
            "trainable": true,
            "name": "activation_57"
         }
      },
      {
         "class_name": "Conv2D",
         "config": {
            "data_format": "channels_first",
            "bias_initializer": {
               "class_name": "Zeros",
               "config": {}
            },
            "kernel_constraint": null,
            "kernel_size": [
               3,
               3
            ],
            "kernel_initializer": {
               "class_name": "VarianceScaling",
               "config": {
                  "distribution": "uniform",
                  "scale": 1.0,
                  "mode": "fan_avg",
                  "seed": null
               }
            },
            "activity_regularizer": null,
            "filters": 880,
            "activation": "linear",
            "padding": "same",
            "dilation_rate": [
               1,
               1
            ],
            "kernel_regularizer": null,
            "trainable": true,
            "bias_regularizer": null,
            "use_bias": true,
            "bias_constraint": null,
            "name": "conv2d_58",
            "strides": [
               1,
               1
            ]
         }
      },
      {
         "class_name": "Dropout",
         "config": {
            "trainable": true,
            "name": "dropout_57",
            "rate": 0.2
         }
      },
      {
         "class_name": "BatchNormalization",
         "config": {
            "gamma_constraint": null,
            "gamma_initializer": {
               "class_name": "Ones",
               "config": {}
            },
            "beta_initializer": {
               "class_name": "Zeros",
               "config": {}
            },
            "axis": -1,
            "momentum": 0.99,
            "center": true,
            "epsilon": 0.001,
            "gamma_regularizer": null,
            "trainable": true,
            "moving_variance_initializer": {
               "class_name": "Ones",
               "config": {}
            },
            "beta_constraint": null,
            "scale": true,
            "beta_regularizer": null,
            "name": "batch_normalization_58",
            "moving_mean_initializer": {
               "class_name": "Zeros",
               "config": {}
            }
         }
      },
      {
         "class_name": "Activation",
         "config": {
            "activation": "relu",
            "trainable": true,
            "name": "activation_58"
         }
      },
      {
         "class_name": "Conv2D",
         "config": {
            "data_format": "channels_first",
            "bias_initializer": {
               "class_name": "Zeros",
               "config": {}
            },
            "kernel_constraint": null,
            "kernel_size": [
               3,
               3
            ],
            "kernel_initializer": {
               "class_name": "VarianceScaling",
               "config": {
                  "distribution": "uniform",
                  "scale": 1.0,
                  "mode": "fan_avg",
                  "seed": null
               }
            },
            "activity_regularizer": null,
            "filters": 880,
            "activation": "linear",
            "padding": "same",
            "dilation_rate": [
               1,
               1
            ],
            "kernel_regularizer": null,
            "trainable": true,
            "bias_regularizer": null,
            "use_bias": true,
            "bias_constraint": null,
            "name": "conv2d_59",
            "strides": [
               1,
               1
            ]
         }
      },
      {
         "class_name": "Dropout",
         "config": {
            "trainable": true,
            "name": "dropout_58",
            "rate": 0.2
         }
      },
      {
         "class_name": "Conv2DTranspose",
         "config": {
            "data_format": "channels_first",
            "bias_initializer": {
               "class_name": "Zeros",
               "config": {}
            },
            "batch_input_shape": [
               null,
               7,
               7,
               1072
            ],
            "kernel_size": [
               3,
               3
            ],
            "kernel_initializer": {
               "class_name": "VarianceScaling",
               "config": {
                  "distribution": "uniform",
                  "scale": 1.0,
                  "mode": "fan_avg",
                  "seed": null
               }
            },
            "activity_regularizer": null,
            "filters": 1072,
            "activation": "linear",
            "padding": "same",
            "kernel_regularizer": null,
            "trainable": true,
            "bias_regularizer": null,
            "use_bias": true,
            "dtype": "float32",
            "kernel_constraint": null,
            "bias_constraint": null,
            "name": "conv2d_transpose_1",
            "strides": [
               2,
               2
            ]
         }
      },
      {
         "class_name": "BatchNormalization",
         "config": {
            "gamma_constraint": null,
            "gamma_initializer": {
               "class_name": "Ones",
               "config": {}
            },
            "beta_initializer": {
               "class_name": "Zeros",
               "config": {}
            },
            "axis": -1,
            "momentum": 0.99,
            "center": true,
            "epsilon": 0.001,
            "gamma_regularizer": null,
            "trainable": true,
            "moving_variance_initializer": {
               "class_name": "Ones",
               "config": {}
            },
            "beta_constraint": null,
            "scale": true,
            "beta_regularizer": null,
            "name": "batch_normalization_59",
            "moving_mean_initializer": {
               "class_name": "Zeros",
               "config": {}
            }
         }
      },
      {
         "class_name": "Activation",
         "config": {
            "activation": "relu",
            "trainable": true,
            "name": "activation_59"
         }
      },
      {
         "class_name": "Conv2D",
         "config": {
            "data_format": "channels_first",
            "bias_initializer": {
               "class_name": "Zeros",
               "config": {}
            },
            "kernel_constraint": null,
            "kernel_size": [
               3,
               3
            ],
            "kernel_initializer": {
               "class_name": "VarianceScaling",
               "config": {
                  "distribution": "uniform",
                  "scale": 1.0,
                  "mode": "fan_avg",
                  "seed": null
               }
            },
            "activity_regularizer": null,
            "filters": 1072,
            "activation": "linear",
            "padding": "same",
            "dilation_rate": [
               1,
               1
            ],
            "kernel_regularizer": null,
            "trainable": true,
            "bias_regularizer": null,
            "use_bias": true,
            "bias_constraint": null,
            "name": "conv2d_60",
            "strides": [
               1,
               1
            ]
         }
      },
      {
         "class_name": "Dropout",
         "config": {
            "trainable": true,
            "name": "dropout_59",
            "rate": 0.2
         }
      },
      {
         "class_name": "BatchNormalization",
         "config": {
            "gamma_constraint": null,
            "gamma_initializer": {
               "class_name": "Ones",
               "config": {}
            },
            "beta_initializer": {
               "class_name": "Zeros",
               "config": {}
            },
            "axis": -1,
            "momentum": 0.99,
            "center": true,
            "epsilon": 0.001,
            "gamma_regularizer": null,
            "trainable": true,
            "moving_variance_initializer": {
               "class_name": "Ones",
               "config": {}
            },
            "beta_constraint": null,
            "scale": true,
            "beta_regularizer": null,
            "name": "batch_normalization_60",
            "moving_mean_initializer": {
               "class_name": "Zeros",
               "config": {}
            }
         }
      },
      {
         "class_name": "Activation",
         "config": {
            "activation": "relu",
            "trainable": true,
            "name": "activation_60"
         }
      },
      {
…
            "trainable": true,
            "bias_regularizer": null,
            "use_bias": true,
            "bias_constraint": null,
            "name": "conv2d_79",
            "strides": [
               1,
               1
            ]
         }
      },
      {
         "class_name": "Dropout",
         "config": {
            "trainable": true,
            "name": "dropout_78",
            "rate": 0.2
         }
      },
      {
         "class_name": "BatchNormalization",
         "config": {
            "gamma_constraint": null,
            "gamma_initializer": {
               "class_name": "Ones",
               "config": {}
            },
            "beta_initializer": {
               "class_name": "Zeros",
               "config": {}
            },
            "axis": -1,
            "momentum": 0.99,
            "center": true,
            "epsilon": 0.001,
            "gamma_regularizer": null,
            "trainable": true,
            "moving_variance_initializer": {
               "class_name": "Ones",
               "config": {}
            },
            "beta_constraint": null,
            "scale": true,
            "beta_regularizer": null,
            "name": "batch_normalization_79",
            "moving_mean_initializer": {
               "class_name": "Zeros",
               "config": {}
            }
         }
      },
      {
         "class_name": "Activation",
         "config": {
            "activation": "relu",
            "trainable": true,
            "name": "activation_79"
         }
      },
      {
         "class_name": "Conv2D",
         "config": {
            "data_format": "channels_first",
            "bias_initializer": {
               "class_name": "Zeros",
               "config": {}
            },
            "kernel_constraint": null,
            "kernel_size": [
               3,
               3
            ],
            "kernel_initializer": {
               "class_name": "VarianceScaling",
               "config": {
                  "distribution": "uniform",
                  "scale": 1.0,
                  "mode": "fan_avg",
                  "seed": null
               }
            },
            "activity_regularizer": null,
            "filters": 800,
            "activation": "linear",
            "padding": "same",
            "dilation_rate": [
               1,
               1
            ],
            "kernel_regularizer": null,
            "trainable": true,
            "bias_regularizer": null,
            "use_bias": true,
            "bias_constraint": null,
            "name": "conv2d_80",
            "strides": [
               1,
               1
            ]
         }
      },
      {
         "class_name": "Dropout",
         "config": {
            "trainable": true,
            "name": "dropout_79",
            "rate": 0.2
         }
      },
      {
         "class_name": "BatchNormalization",
         "config": {
            "gamma_constraint": null,
            "gamma_initializer": {
               "class_name": "Ones",
               "config": {}
            },
            "beta_initializer": {
               "class_name": "Zeros",
               "config": {}
            },
            "axis": -1,
            "momentum": 0.99,
            "center": true,
            "epsilon": 0.001,
            "gamma_regularizer": null,
            "trainable": true,
            "moving_variance_initializer": {
               "class_name": "Ones",
               "config": {}
            },
            "beta_constraint": null,
            "scale": true,
            "beta_regularizer": null,
            "name": "batch_normalization_80",
            "moving_mean_initializer": {
               "class_name": "Zeros",
               "config": {}
            }
         }
      },
      {
         "class_name": "Activation",
         "config": {
            "activation": "relu",
            "trainable": true,
            "name": "activation_80"
         }
      },
      {
         "class_name": "Conv2D",
         "config": {
            "data_format": "channels_first",
            "bias_initializer": {
               "class_name": "Zeros",
               "config": {}
            },
            "kernel_constraint": null,
            "kernel_size": [
               3,
               3
            ],
            "kernel_initializer": {
               "class_name": "VarianceScaling",
               "config": {
                  "distribution": "uniform",
                  "scale": 1.0,
                  "mode": "fan_avg",
                  "seed": null
               }
            },
            "activity_regularizer": null,
            "filters": 800,
            "activation": "linear",
            "padding": "same",
            "dilation_rate": [
               1,
               1
            ],
            "kernel_regularizer": null,
            "trainable": true,
            "bias_regularizer": null,
            "use_bias": true,
            "bias_constraint": null,
            "name": "conv2d_81",
            "strides": [
               1,
               1
            ]
         }
      },
      {
         "class_name": "Dropout",
         "config": {
            "trainable": true,
            "name": "dropout_80",
            "rate": 0.2
         }
      },
      {
         "class_name": "Conv2DTranspose",
         "config": {
            "data_format": "channels_first",
            "bias_initializer": {
               "class_name": "Zeros",
               "config": {}
            },
            "batch_input_shape": [
               null,
               28,
               28,
               560
            ],
            "kernel_size": [
               3,
               3
            ],
            "kernel_initializer": {
               "class_name": "VarianceScaling",
               "config": {
                  "distribution": "uniform",
                  "scale": 1.0,
                  "mode": "fan_avg",
                  "seed": null
               }
            },
            "activity_regularizer": null,
            "filters": 560,
            "activation": "linear",
            "padding": "same",
            "kernel_regularizer": null,
            "trainable": true,
            "bias_regularizer": null,
            "use_bias": true,
            "dtype": "float32",
            "kernel_constraint": null,
            "bias_constraint": null,
            "name": "conv2d_transpose_3",
            "strides": [
               2,
               2
            ]
         }
      },
      {
         "class_name": "BatchNormalization",
         "config": {
            "gamma_constraint": null,
            "gamma_initializer": {
               "class_name": "Ones",
               "config": {}
            },
            "beta_initializer": {
               "class_name": "Zeros",
               "config": {}
            },
            "axis": -1,
            "momentum": 0.99,
            "center": true,
            "epsilon": 0.001,
            "gamma_regularizer": null,
            "trainable": true,
            "moving_variance_initializer": {
               "class_name": "Ones",
               "config": {}
            },
            "beta_constraint": null,
            "scale": true,
            "beta_regularizer": null,
            "name": "batch_normalization_81",
            "moving_mean_initializer": {
               "class_name": "Zeros",
               "config": {}
            }
         }
      },
      {
         "class_name": "Activation",
         "config": {
            "activation": "relu",
            "trainable": true,
            "name": "activation_81"
         }
      },
      {
         "class_name": "Conv2D",
         "config": {
            "data_format": "channels_first",
            "bias_initializer": {
               "class_name": "Zeros",
               "config": {}
            },
            "kernel_constraint": null,
            "kernel_size": [
               3,
               3
            ],
            "kernel_initializer": {
               "class_name": "VarianceScaling",
               "config": {
                  "distribution": "uniform",
                  "scale": 1.0,
                  "mode": "fan_avg",
                  "seed": null
               }
            },
            "activity_regularizer": null,
            "filters": 560,
            "activation": "linear",
            "padding": "same",
            "dilation_rate": [
               1,
               1
            ],
            "kernel_regularizer": null,
            "trainable": true,
            "bias_regularizer": null,
            "use_bias": true,
            "bias_constraint": null,
            "name": "conv2d_82",
            "strides": [
               1,
               1
            ]
         }
      },
      {
         "class_name": "Dropout",
         "config": {
            "trainable": true,
            "name": "dropout_81",
            "rate": 0.2
         }
      },
      {
         "class_name": "BatchNormalization",
         "config": {
            "gamma_constraint": null,
            "gamma_initializer": {
               "class_name": "Ones",
               "config": {}
            },
            "beta_initializer": {
               "class_name": "Zeros",
               "config": {}
            },
            "axis": -1,
            "momentum": 0.99,
            "center": true,
            "epsilon": 0.001,
            "gamma_regularizer": null,
            "trainable": true,
            "moving_variance_initializer": {
               "class_name": "Ones",
               "config": {}
            },
            "beta_constraint": null,
            "scale": true,
            "beta_regularizer": null,
            "name": "batch_normalization_82",
            "moving_mean_initializer": {
               "class_name": "Zeros",
               "config": {}
            }
         }
      },
      {
         "class_name": "Activation",
         "config": {
            "activation": "relu",
            "trainable": true,
            "name": "activation_82"
         }
      },
      {
         "class_name": "Conv2D",
         "config": {
            "data_format": "channels_first",
            "bias_initializer": {
               "class_name": "Zeros",
               "config": {}
            },
            "kernel_constraint": null,
            "kernel_size": [
               3,
               3
            ],
            "kernel_initializer": {
               "class_name": "VarianceScaling",
               "config": {
                  "distribution": "uniform",
                  "scale": 1.0,
                  "mode": "fan_avg",
                  "seed": null
               }
            },
            "activity_regularizer": null,
            "filters": 560,
            "activation": "linear",
            "padding": "same",
            "dilation_rate": [
               1,
               1
            ],
            "kernel_regularizer": null,
            "trainable": true,
            "bias_regularizer": null,
            "use_bias": true,
            "bias_constraint": null,
            "name": "conv2d_83",
            "strides": [
               1,
               1
            ]
         }
      },
      {
         "class_name": "Dropout",
         "config": {
            "trainable": true,
            "name": "dropout_82",
            "rate": 0.2
         }
      },
      {
         "class_name": "BatchNormalization",
         "config": {
            "gamma_constraint": null,
            "gamma_initializer": {
               "class_name": "Ones",
               "config": {}
            },
            "beta_initializer": {
               "class_name": "Zeros",
               "config": {}
            },
            "axis": -1,
            "momentum": 0.99,
            "center": true,
            "epsilon": 0.001,
            "gamma_regularizer": null,
            "trainable": true,
            "moving_variance_initializer": {
               "class_name": "Ones",
               "config": {}
            },
            "beta_constraint": null,
            "scale": true,
            "beta_regularizer": null,
            "name": "batch_normalization_83",
            "moving_mean_initializer": {
               "class_name": "Zeros",
               "config": {}
            }
         }
      },
      {
         "class_name": "Activation",
         "config": {
            "activation": "relu",
            "trainable": true,
            "name": "activation_83"
         }
      },
      {
         "class_name": "Conv2D",
         "config": {
            "data_format": "channels_first",
            "bias_initializer": {
               "class_name": "Zeros",
               "config": {}
            },
            "kernel_constraint": null,
            "kernel_size": [
               3,
               3
            ],
            "kernel_initializer": {
               "class_name": "VarianceScaling",
               "config": {
                  "distribution": "uniform",
                  "scale": 1.0,
                  "mode": "fan_avg",
                  "seed": null
               }
            },
            "activity_regularizer": null,
            "filters": 560,
            "activation": "linear",
            "padding": "same",
            "dilation_rate": [
               1,
               1
            ],
            "kernel_regularizer": null,
            "trainable": true,
            "bias_regularizer": null,
            "use_bias": true,
            "bias_constraint": null,
            "name": "conv2d_84",
            "strides": [
               1,
               1
            ]
         }
      },
      {
         "class_name": "Dropout",
         "config": {
            "trainable": true,
            "name": "dropout_83",
            "rate": 0.2
         }
      },
      {
         "class_name": "BatchNormalization",
         "config": {
            "gamma_constraint": null,
            "gamma_initializer": {
               "class_name": "Ones",
               "config": {}
            },
            "beta_initializer": {
               "class_name": "Zeros",
               "config": {}
            },
            "axis": -1,
            "momentum": 0.99,
            "center": true,
            "epsilon": 0.001,
            "gamma_regularizer": null,
            "trainable": true,
            "moving_variance_initializer": {
               "class_name": "Ones",
               "config": {}
            },
            "beta_constraint": null,
            "scale": true,
            "beta_regularizer": null,
            "name": "batch_normalization_84",
            "moving_mean_initializer": {
               "class_name": "Zeros",
               "config": {}
            }
         }
      },
      {
         "class_name": "Activation",
         "config": {
            "activation": "relu",
            "trainable": true,
            "name": "activation_84"
         }
      },
      {
         "class_name": "Conv2D",
         "config": {
            "data_format": "channels_first",
            "bias_initializer": {
               "class_name": "Zeros",
               "config": {}
            },
            "kernel_constraint": null,
            "kernel_size": [
               3,
               3
            ],
            "kernel_initializer": {
               "class_name": "VarianceScaling",
               "config": {
                  "distribution": "uniform",
                  "scale": 1.0,
                  "mode": "fan_avg",
                  "seed": null
               }
            },
            "activity_regularizer": null,
            "filters": 560,
            "activation": "linear",
            "padding": "same",
            "dilation_rate": [
               1,
               1
            ],
            "kernel_regularizer": null,
            "trainable": true,
            "bias_regularizer": null,
            "use_bias": true,
            "bias_constraint": null,
            "name": "conv2d_85",
            "strides": [
               1,
               1
            ]
         }
      },
      {
         "class_name": "Dropout",
         "config": {
            "trainable": true,
            "name": "dropout_84",
            "rate": 0.2
         }
      },
      {
         "class_name": "BatchNormalization",
         "config": {
            "gamma_constraint": null,
            "gamma_initializer": {
               "class_name": "Ones",
               "config": {}
            },
            "beta_initializer": {
               "class_name": "Zeros",
               "config": {}
            },
            "axis": -1,
            "momentum": 0.99,
            "center": true,
            "epsilon": 0.001,
            "gamma_regularizer": null,
            "trainable": true,
            "moving_variance_initializer": {
               "class_name": "Ones",
               "config": {}
            },
            "beta_constraint": null,
            "scale": true,
            "beta_regularizer": null,
            "name": "batch_normalization_85",
            "moving_mean_initializer": {
               "class_name": "Zeros",
               "config": {}
            }
         }
      },
      {
         "class_name": "Activation",
         "config": {
            "activation": "relu",
            "trainable": true,
            "name": "activation_85"
         }
      },
      {
         "class_name": "Conv2D",
         "config": {
            "data_format": "channels_first",
            "bias_initializer": {
               "class_name": "Zeros",
               "config": {}
            },
            "kernel_constraint": null,
            "kernel_size": [
               3,
               3
            ],
            "kernel_initializer": {
               "class_name": "VarianceScaling",
               "config": {
                  "distribution": "uniform",
                  "scale": 1.0,
                  "mode": "fan_avg",
                  "seed": null
               }
            },
            "activity_regularizer": null,
            "filters": 560,
            "activation": "linear",
            "padding": "same",
            "dilation_rate": [
               1,
               1
            ],
            "kernel_regularizer": null,
            "trainable": true,
            "bias_regularizer": null,
            "use_bias": true,
            "bias_constraint": null,
            "name": "conv2d_86",
            "strides": [
               1,
               1
            ]
         }
      },
      {
         "class_name": "Dropout",
         "config": {
            "trainable": true,
            "name": "dropout_85",
            "rate": 0.2
         }
      },
      {
         "class_name": "BatchNormalization",
         "config": {
            "gamma_constraint": null,
            "gamma_initializer": {
               "class_name": "Ones",
               "config": {}
            },
            "beta_initializer": {
               "class_name": "Zeros",
               "config": {}
            },
            "axis": -1,
            "momentum": 0.99,
            "center": true,
            "epsilon": 0.001,
            "gamma_regularizer": null,
            "trainable": true,
            "moving_variance_initializer": {
               "class_name": "Ones",
               "config": {}
            },
            "beta_constraint": null,
            "scale": true,
            "beta_regularizer": null,
            "name": "batch_normalization_86",
            "moving_mean_initializer": {
               "class_name": "Zeros",
               "config": {}
            }
         }
      },
      {
         "class_name": "Activation",
         "config": {
            "activation": "relu",
            "trainable": true,
            "name": "activation_86"
         }
      },
      {
         "class_name": "Conv2D",
         "config": {
            "data_format": "channels_first",
            "bias_initializer": {
               "class_name": "Zeros",
               "config": {}
            },
            "kernel_constraint": null,
            "kernel_size": [
               3,
               3
            ],
            "kernel_initializer": {
               "class_name": "VarianceScaling",
               "config": {
                  "distribution": "uniform",
                  "scale": 1.0,
                  "mode": "fan_avg",
                  "seed": null
               }
            },
            "activity_regularizer": null,
            "filters": 560,
            "activation": "linear",
            "padding": "same",
            "dilation_rate": [
               1,
               1
            ],
            "kernel_regularizer": null,
            "trainable": true,
            "bias_regularizer": null,
            "use_bias": true,
            "bias_constraint": null,
            "name": "conv2d_87",
            "strides": [
               1,
               1
            ]
         }
      },
      {
         "class_name": "Dropout",
         "config": {
            "trainable": true,
            "name": "dropout_86",
            "rate": 0.2
         }
      },
      {
         "class_name": "BatchNormalization",
         "config": {
            "gamma_constraint": null,
            "gamma_initializer": {
               "class_name": "Ones",
               "config": {}
            },
            "beta_initializer": {
               "class_name": "Zeros",
               "config": {}
            },
            "axis": -1,
            "momentum": 0.99,
            "center": true,
            "epsilon": 0.001,
            "gamma_regularizer": null,
            "trainable": true,
            "moving_variance_initializer": {
               "class_name": "Ones",
               "config": {}
            },
            "beta_constraint": null,
            "scale": true,
            "beta_regularizer": null,
            "name": "batch_normalization_87",
            "moving_mean_initializer": {
               "class_name": "Zeros",
               "config": {}
            }
         }
      },
      {
         "class_name": "Activation",
         "config": {
            "activation": "relu",
            "trainable": true,
            "name": "activation_87"
         }
      },
      {
         "class_name": "Conv2D",
         "config": {
            "data_format": "channels_first",
            "bias_initializer": {
               "class_name": "Zeros",
               "config": {}
            },
            "kernel_constraint": null,
            "kernel_size": [
               3,
               3
            ],
            "kernel_initializer": {
               "class_name": "VarianceScaling",
               "config": {
                  "distribution": "uniform",
                  "scale": 1.0,
                  "mode": "fan_avg",
                  "seed": null
               }
            },
            "activity_regularizer": null,
            "filters": 560,
            "activation": "linear",
            "padding": "same",
            "dilation_rate": [
               1,
               1
            ],
            "kernel_regularizer": null,
            "trainable": true,
            "bias_regularizer": null,
            "use_bias": true,
            "bias_constraint": null,
            "name": "conv2d_88",
            "strides": [
               1,
               1
            ]
         }
      },
      {
         "class_name": "Dropout",
         "config": {
            "trainable": true,
            "name": "dropout_87",
            "rate": 0.2
         }
      },
      {
         "class_name": "Conv2DTranspose",
         "config": {
            "data_format": "channels_first",
            "bias_initializer": {
               "class_name": "Zeros",
               "config": {}
            },
            "batch_input_shape": [
               null,
               56,
               56,
               368
            ],
            "kernel_size": [
               3,
               3
            ],
            "kernel_initializer": {
               "class_name": "VarianceScaling",
               "config": {
                  "distribution": "uniform",
                  "scale": 1.0,
                  "mode": "fan_avg",
                  "seed": null
               }
            },
            "activity_regularizer": null,
            "filters": 368,
            "activation": "linear",
            "padding": "same",
            "kernel_regularizer": null,
            "trainable": true,
            "bias_regularizer": null,
            "use_bias": true,
            "dtype": "float32",
            "kernel_constraint": null,
            "bias_constraint": null,
            "name": "conv2d_transpose_4",
            "strides": [
               2,
               2
            ]
         }
      },
      {
         "class_name": "BatchNormalization",
         "config": {
            "gamma_constraint": null,
            "gamma_initializer": {
               "class_name": "Ones",
               "config": {}
            },
            "beta_initializer": {
               "class_name": "Zeros",
               "config": {}
            },
            "axis": -1,
            "momentum": 0.99,
            "center": true,
            "epsilon": 0.001,
            "gamma_regularizer": null,
            "trainable": true,
            "moving_variance_initializer": {
               "class_name": "Ones",
               "config": {}
            },
            "beta_constraint": null,
            "scale": true,
            "beta_regularizer": null,
            "name": "batch_normalization_88",
            "moving_mean_initializer": {
               "class_name": "Zeros",
               "config": {}
            }
         }
      },
      {
         "class_name": "Activation",
         "config": {
            "activation": "relu",
            "trainable": true,
            "name": "activation_88"
         }
      },
      {
         "class_name": "Conv2D",
         "config": {
            "data_format": "channels_first",
            "bias_initializer": {
               "class_name": "Zeros",
               "config": {}
            },
            "kernel_constraint": null,
            "kernel_size": [
               3,
               3
            ],
            "kernel_initializer": {
               "class_name": "VarianceScaling",
               "config": {
                  "distribution": "uniform",
                  "scale": 1.0,
                  "mode": "fan_avg",
                  "seed": null
               }
            },
            "activity_regularizer": null,
            "filters": 368,
            "activation": "linear",
            "padding": "same",
            "dilation_rate": [
               1,
               1
            ],
            "kernel_regularizer": null,
            "trainable": true,
            "bias_regularizer": null,
            "use_bias": true,
            "bias_constraint": null,
            "name": "conv2d_89",
            "strides": [
               1,
               1
            ]
         }
      },
      {
         "class_name": "Dropout",
         "config": {
            "trainable": true,
            "name": "dropout_88",
            "rate": 0.2
         }
      },
      {
         "class_name": "BatchNormalization",
         "config": {
            "gamma_constraint": null,
            "gamma_initializer": {
               "class_name": "Ones",
               "config": {}
            },
            "beta_initializer": {
               "class_name": "Zeros",
               "config": {}
            },
            "axis": -1,
            "momentum": 0.99,
            "center": true,
            "epsilon": 0.001,
            "gamma_regularizer": null,
            "trainable": true,
            "moving_variance_initializer": {
               "class_name": "Ones",
               "config": {}
            },
            "beta_constraint": null,
            "scale": true,
            "beta_regularizer": null,
            "name": "batch_normalization_89",
            "moving_mean_initializer": {
               "class_name": "Zeros",
               "config": {}
            }
         }
      },
      {
         "class_name": "Activation",
         "config": {
            "activation": "relu",
            "trainable": true,
            "name": "activation_89"
         }
      },
      {
         "class_name": "Conv2D",
         "config": {
            "data_format": "channels_first",
            "bias_initializer": {
               "class_name": "Zeros",
               "config": {}
            },
            "kernel_constraint": null,
            "kernel_size": [
               3,
               3
            ],
            "kernel_initializer": {
               "class_name": "VarianceScaling",
               "config": {
                  "distribution": "uniform",
                  "scale": 1.0,
                  "mode": "fan_avg",
                  "seed": null
               }
            },
            "activity_regularizer": null,
            "filters": 368,
            "activation": "linear",
            "padding": "same",
            "dilation_rate": [
               1,
               1
            ],
            "kernel_regularizer": null,
            "trainable": true,
            "bias_regularizer": null,
            "use_bias": true,
            "bias_constraint": null,
            "name": "conv2d_90",
            "strides": [
               1,
               1
            ]
         }
      },
      {
         "class_name": "Dropout",
         "config": {
            "trainable": true,
            "name": "dropout_89",
            "rate": 0.2
         }
      },
      {
         "class_name": "BatchNormalization",
         "config": {
            "gamma_constraint": null,
            "gamma_initializer": {
               "class_name": "Ones",
               "config": {}
            },
            "beta_initializer": {
               "class_name": "Zeros",
               "config": {}
            },
            "axis": -1,
            "momentum": 0.99,
            "center": true,
            "epsilon": 0.001,
            "gamma_regularizer": null,
            "trainable": true,
            "moving_variance_initializer": {
               "class_name": "Ones",
               "config": {}
            },
            "beta_constraint": null,
            "scale": true,
            "beta_regularizer": null,
            "name": "batch_normalization_90",
            "moving_mean_initializer": {
               "class_name": "Zeros",
               "config": {}
            }
         }
      },
      {
         "class_name": "Activation",
         "config": {
            "activation": "relu",
            "trainable": true,
            "name": "activation_90"
         }
      },
      {
         "class_name": "Conv2D",
         "config": {
            "data_format": "channels_first",
            "bias_initializer": {
               "class_name": "Zeros",
               "config": {}
            },
            "kernel_constraint": null,
            "kernel_size": [
               3,
               3
            ],
            "kernel_initializer": {
               "class_name": "VarianceScaling",
               "config": {
                  "distribution": "uniform",
                  "scale": 1.0,
                  "mode": "fan_avg",
                  "seed": null
               }
            },
            "activity_regularizer": null,
            "filters": 368,
            "activation": "linear",
            "padding": "same",
            "dilation_rate": [
               1,
               1
            ],
            "kernel_regularizer": null,
            "trainable": true,
            "bias_regularizer": null,
            "use_bias": true,
            "bias_constraint": null,
            "name": "conv2d_91",
            "strides": [
               1,
               1
            ]
         }
      },
      {
         "class_name": "Dropout",
         "config": {
            "trainable": true,
            "name": "dropout_90",
            "rate": 0.2
         }
      },
      {
         "class_name": "BatchNormalization",
         "config": {
            "gamma_constraint": null,
            "gamma_initializer": {
               "class_name": "Ones",
               "config": {}
            },
            "beta_initializer": {
               "class_name": "Zeros",
               "config": {}
            },
            "axis": -1,
            "momentum": 0.99,
            "center": true,
            "epsilon": 0.001,
            "gamma_regularizer": null,
            "trainable": true,
            "moving_variance_initializer": {
               "class_name": "Ones",
               "config": {}
            },
            "beta_constraint": null,
            "scale": true,
            "beta_regularizer": null,
            "name": "batch_normalization_91",
            "moving_mean_initializer": {
               "class_name": "Zeros",
               "config": {}
            }
         }
      },
      {
         "class_name": "Activation",
         "config": {
            "activation": "relu",
            "trainable": true,
            "name": "activation_91"
         }
      },
      {
         "class_name": "Conv2D",
         "config": {
            "data_format": "channels_first",
            "bias_initializer": {
               "class_name": "Zeros",
               "config": {}
            },
            "kernel_constraint": null,
            "kernel_size": [
               3,
               3
            ],
            "kernel_initializer": {
               "class_name": "VarianceScaling",
               "config": {
                  "distribution": "uniform",
                  "scale": 1.0,
                  "mode": "fan_avg",
                  "seed": null
               }
            },
            "activity_regularizer": null,
            "filters": 368,
            "activation": "linear",
            "padding": "same",
            "dilation_rate": [
               1,
               1
            ],
            "kernel_regularizer": null,
            "trainable": true,
            "bias_regularizer": null,
            "use_bias": true,
            "bias_constraint": null,
            "name": "conv2d_92",
            "strides": [
               1,
               1
            ]
         }
      },
      {
         "class_name": "Dropout",
         "config": {
            "trainable": true,
            "name": "dropout_91",
            "rate": 0.2
         }
      },
      {
         "class_name": "BatchNormalization",
         "config": {
            "gamma_constraint": null,
            "gamma_initializer": {
               "class_name": "Ones",
               "config": {}
            },
            "beta_initializer": {
               "class_name": "Zeros",
               "config": {}
            },
            "axis": -1,
            "momentum": 0.99,
            "center": true,
            "epsilon": 0.001,
            "gamma_regularizer": null,
            "trainable": true,
            "moving_variance_initializer": {
               "class_name": "Ones",
               "config": {}
            },
            "beta_constraint": null,
            "scale": true,
            "beta_regularizer": null,
            "name": "batch_normalization_92",
            "moving_mean_initializer": {
               "class_name": "Zeros",
               "config": {}
            }
         }
      },
      {
         "class_name": "Activation",
         "config": {
            "activation": "relu",
            "trainable": true,
            "name": "activation_92"
         }
      },
      {
         "class_name": "Conv2D",
         "config": {
            "data_format": "channels_first",
            "bias_initializer": {
               "class_name": "Zeros",
               "config": {}
            },
            "kernel_constraint": null,
            "kernel_size": [
               3,
               3
            ],
            "kernel_initializer": {
               "class_name": "VarianceScaling",
               "config": {
                  "distribution": "uniform",
                  "scale": 1.0,
                  "mode": "fan_avg",
                  "seed": null
               }
            },
            "activity_regularizer": null,
            "filters": 368,
            "activation": "linear",
            "padding": "same",
            "dilation_rate": [
               1,
               1
            ],
            "kernel_regularizer": null,
            "trainable": true,
            "bias_regularizer": null,
            "use_bias": true,
            "bias_constraint": null,
            "name": "conv2d_93",
            "strides": [
               1,
               1
            ]
         }
      },
      {
         "class_name": "Dropout",
         "config": {
            "trainable": true,
            "name": "dropout_92",
            "rate": 0.2
         }
      },
      {
         "class_name": "Conv2DTranspose",
         "config": {
            "data_format": "channels_first",
            "bias_initializer": {
               "class_name": "Zeros",
               "config": {}
            },
            "batch_input_shape": [
               null,
               112,
               112,
               256
            ],
            "kernel_size": [
               3,
               3
            ],
            "kernel_initializer": {
               "class_name": "VarianceScaling",
               "config": {
                  "distribution": "uniform",
                  "scale": 1.0,
                  "mode": "fan_avg",
                  "seed": null
               }
            },
            "activity_regularizer": null,
            "filters": 256,
            "activation": "linear",
            "padding": "same",
            "kernel_regularizer": null,
            "trainable": true,
            "bias_regularizer": null,
            "use_bias": true,
            "dtype": "float32",
            "kernel_constraint": null,
            "bias_constraint": null,
            "name": "conv2d_transpose_5",
            "strides": [
               2,
               2
            ]
         }
      },
      {
         "class_name": "BatchNormalization",
         "config": {
            "gamma_constraint": null,
            "gamma_initializer": {
               "class_name": "Ones",
               "config": {}
            },
            "beta_initializer": {
               "class_name": "Zeros",
               "config": {}
            },
            "axis": -1,
            "momentum": 0.99,
            "center": true,
            "epsilon": 0.001,
            "gamma_regularizer": null,
            "trainable": true,
            "moving_variance_initializer": {
               "class_name": "Ones",
               "config": {}
            },
            "beta_constraint": null,
            "scale": true,
            "beta_regularizer": null,
            "name": "batch_normalization_93",
            "moving_mean_initializer": {
               "class_name": "Zeros",
               "config": {}
            }
         }
      },
      {
         "class_name": "Activation",
         "config": {
            "activation": "relu",
            "trainable": true,
            "name": "activation_93"
         }
      },
      {
         "class_name": "Conv2D",
         "config": {
            "data_format": "channels_first",
            "bias_initializer": {
               "class_name": "Zeros",
               "config": {}
            },
            "kernel_constraint": null,
            "kernel_size": [
               3,
               3
            ],
            "kernel_initializer": {
               "class_name": "VarianceScaling",
               "config": {
                  "distribution": "uniform",
                  "scale": 1.0,
                  "mode": "fan_avg",
                  "seed": null
               }
            },
            "activity_regularizer": null,
            "filters": 256,
            "activation": "linear",
            "padding": "same",
            "dilation_rate": [
               1,
               1
            ],
            "kernel_regularizer": null,
            "trainable": true,
            "bias_regularizer": null,
            "use_bias": true,
            "bias_constraint": null,
            "name": "conv2d_94",
            "strides": [
               1,
               1
            ]
         }
      },
      {
         "class_name": "Dropout",
         "config": {
            "trainable": true,
            "name": "dropout_93",
            "rate": 0.2
         }
      },
      {
         "class_name": "BatchNormalization",
         "config": {
            "gamma_constraint": null,
            "gamma_initializer": {
               "class_name": "Ones",
               "config": {}
            },
            "beta_initializer": {
               "class_name": "Zeros",
               "config": {}
            },
            "axis": -1,
            "momentum": 0.99,
            "center": true,
            "epsilon": 0.001,
            "gamma_regularizer": null,
            "trainable": true,
            "moving_variance_initializer": {
               "class_name": "Ones",
               "config": {}
            },
            "beta_constraint": null,
            "scale": true,
            "beta_regularizer": null,
            "name": "batch_normalization_94",
            "moving_mean_initializer": {
               "class_name": "Zeros",
               "config": {}
            }
         }
      },
      {
         "class_name": "Activation",
         "config": {
            "activation": "relu",
            "trainable": true,
            "name": "activation_94"
         }
      },
      {
         "class_name": "Conv2D",
         "config": {
            "data_format": "channels_first",
            "bias_initializer": {
               "class_name": "Zeros",
               "config": {}
            },
            "kernel_constraint": null,
            "kernel_size": [
               3,
               3
            ],
            "kernel_initializer": {
               "class_name": "VarianceScaling",
               "config": {
                  "distribution": "uniform",
                  "scale": 1.0,
                  "mode": "fan_avg",
                  "seed": null
               }
            },
            "activity_regularizer": null,
            "filters": 256,
            "activation": "linear",
            "padding": "same",
            "dilation_rate": [
               1,
               1
            ],
            "kernel_regularizer": null,
            "trainable": true,
            "bias_regularizer": null,
            "use_bias": true,
            "bias_constraint": null,
            "name": "conv2d_95",
            "strides": [
               1,
               1
            ]
         }
      },
      {
         "class_name": "Dropout",
         "config": {
            "trainable": true,
            "name": "dropout_94",
            "rate": 0.2
         }
      },
      {
         "class_name": "BatchNormalization",
         "config": {
            "gamma_constraint": null,
            "gamma_initializer": {
               "class_name": "Ones",
               "config": {}
            },
            "beta_initializer": {
               "class_name": "Zeros",
               "config": {}
            },
            "axis": -1,
            "momentum": 0.99,
            "center": true,
            "epsilon": 0.001,
            "gamma_regularizer": null,
            "trainable": true,
            "moving_variance_initializer": {
               "class_name": "Ones",
               "config": {}
            },
            "beta_constraint": null,
            "scale": true,
            "beta_regularizer": null,
            "name": "batch_normalization_95",
            "moving_mean_initializer": {
               "class_name": "Zeros",
               "config": {}
            }
         }
      },
      {
         "class_name": "Activation",
         "config": {
            "activation": "relu",
            "trainable": true,
            "name": "activation_95"
         }
      },
      {
         "class_name": "Conv2D",
         "config": {
            "data_format": "channels_first",
            "bias_initializer": {
               "class_name": "Zeros",
               "config": {}
            },
            "kernel_constraint": null,
            "kernel_size": [
               3,
               3
            ],
            "kernel_initializer": {
               "class_name": "VarianceScaling",
               "config": {
                  "distribution": "uniform",
                  "scale": 1.0,
                  "mode": "fan_avg",
                  "seed": null
               }
            },
            "activity_regularizer": null,
            "filters": 256,
            "activation": "linear",
            "padding": "same",
            "dilation_rate": [
               1,
               1
            ],
            "kernel_regularizer": null,
            "trainable": true,
            "bias_regularizer": null,
            "use_bias": true,
            "bias_constraint": null,
            "name": "conv2d_96",
            "strides": [
               1,
               1
            ]
         }
      },
      {
         "class_name": "Dropout",
         "config": {
            "trainable": true,
            "name": "dropout_95",
            "rate": 0.2
         }
      },
      {
         "class_name": "BatchNormalization",
         "config": {
            "gamma_constraint": null,
            "gamma_initializer": {
               "class_name": "Ones",
               "config": {}
            },
            "beta_initializer": {
               "class_name": "Zeros",
               "config": {}
            },
            "axis": -1,
            "momentum": 0.99,
            "center": true,
            "epsilon": 0.001,
            "gamma_regularizer": null,
            "trainable": true,
            "moving_variance_initializer": {
               "class_name": "Ones",
               "config": {}
            },
            "beta_constraint": null,
            "scale": true,
            "beta_regularizer": null,
            "name": "batch_normalization_96",
            "moving_mean_initializer": {
               "class_name": "Zeros",
               "config": {}
            }
         }
      },
      {
         "class_name": "Activation",
         "config": {
            "activation": "relu",
            "trainable": true,
            "name": "activation_96"
         }
      },
      {
         "class_name": "Conv2D",
         "config": {
            "data_format": "channels_first",
            "bias_initializer": {
               "class_name": "Zeros",
               "config": {}
            },
            "kernel_constraint": null,
            "kernel_size": [
               3,
               3
            ],
            "kernel_initializer": {
               "class_name": "VarianceScaling",
               "config": {
                  "distribution": "uniform",
                  "scale": 1.0,
                  "mode": "fan_avg",
                  "seed": null
               }
            },
            "activity_regularizer": null,
            "filters": 256,
            "activation": "linear",
            "padding": "same",
            "dilation_rate": [
               1,
               1
            ],
            "kernel_regularizer": null,
            "trainable": true,
            "bias_regularizer": null,
            "use_bias": true,
            "bias_constraint": null,
            "name": "conv2d_97",
            "strides": [
               1,
               1
            ]
         }
      },
      {
         "class_name": "Dropout",
         "config": {
            "trainable": true,
            "name": "dropout_96",
            "rate": 0.2
         }
      },
      {
         "class_name": "Conv2D",
         "config": {
            "data_format": "channels_first",
            "bias_initializer": {
               "class_name": "Zeros",
               "config": {}
            },
            "kernel_constraint": null,
            "kernel_size": [
               3,
               3
            ],
            "kernel_initializer": {
               "class_name": "VarianceScaling",
               "config": {
                  "distribution": "uniform",
                  "scale": 1.0,
                  "mode": "fan_avg",
                  "seed": null
               }
            },
            "activity_regularizer": null,
            "filters": 12,
            "activation": "linear",
            "padding": "same",
            "dilation_rate": [
               1,
               1
            ],
            "kernel_regularizer": null,
            "trainable": true,
            "bias_regularizer": null,
            "use_bias": true,
            "bias_constraint": null,
            "name": "conv2d_98",
            "strides": [
               1,
               1
            ]
         }
      },
      {
         "class_name": "Reshape",
         "config": {
            "trainable": true,
            "name": "reshape_1",
            "target_shape": [
               12,
               50176
            ]
         }
      },
      {
         "class_name": "Permute",
         "config": {
            "trainable": true,
            "name": "permute_1",
            "dims": [
               2,
               1
            ]
         }
      },
      {
         "class_name": "Activation",
         "config": {
            "activation": "softmax",
            "trainable": true,
            "name": "activation_97"
         }
      }
   ],
   "backend": "tensorflow"
}